autoencoder_2.pth (torch, 113736 bytes, 8 tensors)

encoder.0.weight f4 [47, 282]
0.017352745 2.1116452e-05 0.022662342 0.04574413 0.089098096 0.06890439 0.09251109 0.044512264
0.004108002 0.053651255 -0.011072431 0.046481103 -0.014130435 -0.0024439462 -0.014129357 -0.014485241
0.03459901 0.012516161 0.080310866 0.05500765 -0.022952957 0.059081655 0.07457864 0.06999311
0.047965076 0.06369638 -0.023692705 0.06983792 -0.008147752 -0.004375581 -0.025628997 0.017641943
-0.04875366 0.064409554 0.056207128 -0.031310044 0.025132379 0.056776103 -0.009902432 -0.03990254
-0.028433233 -0.004013319 -0.006436283 -0.01638631 -0.035519075 -0.0118966745 0.0047525796 0.015821327
-0.03259691 -0.0104576545 0.0020720658 0.021048928 0.010068073 0.03333089 0.023817549 0.061976142
0.0035167213 0.019965032 0.019639675 0.020905418 0.034402654 0.045875784 -0.038618434 0.0029171756
0.0064346786 0.016931182 0.0018385306 -0.04278949 -0.016420582 0.032234278 0.018944371 0.037809916
0.06532118 0.013789086 0.0060233437 0.0047940873 0.053346094 0.06849917 0.030345906 -0.03943137
0.031364623 -0.037539944 0.07889375 0.0059013125 -0.0317942 -0.021806443 -0.00089801097 0.013697217
-0.012926028 0.08565522 0.02331413 0.031321716 -0.001380318 0.07937702 0.07689415 0.01577275
0.07730623 0.033287738 0.058964655 0.07682636 0.051951118 0.0001385347 0.060840037 0.034853462
0.10566473 0.06455382 0.016517663 0.07237207 0.017985791 0.018342376 0.020193854 -0.008416276
0.09540651 0.074782856 0.0007207729 0.029189507 0.027135665 0.06435584 0.01239951 -0.0066982503
-0.0064180163 0.034313902 -0.012528199 0.029940309 0.07673427 0.025165075 0.08110828 0.084793724
0.04583424 -0.020891208 0.024129724 0.06081293 0.06894625 0.015329663 0.015523217 0.05449547
-0.022452893 0.06617041 0.000438384 0.040138334 0.049796093 0.024939233 0.053894766 0.024729267
0.011472092 0.063946486 0.006363462 0.062027328 -0.025358796 0.046564803 -0.021969536 0.03599249
0.05063162 0.044454303 0.053107563 -0.041090317 -0.04363071 0.010046598 0.00862743 0.043839995
-0.029979048 0.034979913 -0.016242571 0.028283915 -0.03758459 -0.0062966403 0.045512773 0.04395955
-0.0015651634 0.035857886 -0.025223518 -0.027252866 0.039115496 0.043880742 -0.004026469 0.006065263
-0.02744055 0.060149178 0.012653291 0.053725712 -0.04802368 0.040669207 -0.039188847 0.035030574
0.016573437 0.023960516 0.03718465 -0.035763215 -0.028415918 -0.021734318 0.004749332 0.025961058
0.05768111 0.0057411036 0.039100602 0.031649623 -0.017052585 0.044390466 0.033400405 0.017618872
0.00096178096 -0.026653696 0.056644317 0.037004076 0.05587306 0.010044117 0.049505714 0.058405336
-0.018855194 0.05833533 0.05271832 -0.041022986 -0.014609655 -0.016964536 0.0011798656 -0.0023031223
-0.03421739 -0.038192607 0.045451894 0.049982395 -0.05064698 0.02418826 -0.030323679 -0.04304407
-0.043935124 0.024645047 0.059587162 -0.03805059 -0.020134803 0.020102471 0.0025973036 0.010067004
-0.01742803 0.034883786 0.04976119 0.016710205 -0.05359372 -0.021263402 0.006485181 0.0010154971
0.039692607 0.0030285146 0.0052399905 0.027419034 -0.0061674155 0.0025153987 0.006548311 0.037430212
0.025323793 -0.0085014785 0.06057235 0.05232244 -0.039032534 -0.038182355 -0.021698918 0.026327625
00000000: 5827 8e3c 3c23 b137 60a6 b93c 325e 3b3d
00000010: 1079 b63d bf1d 8d3d 7476 bd3d 7e52 363d
00000020: 6b9c 863b 6bc1 5b3d 2469 35bc f862 3e3d
00000030: 5783 67bc 9d2a 20bb d27e 67bc 8153 6dbc
00000040: b1b7 0d3d 9610 4d3c 067a a43d b44f 613d
00000050: d707 bcbc 9bff 713d b0bc 983d 8c58 8f3d
00000060: 0777 443d 3f73 823d 3417 c2bc 2f07 8f3d
00000070: 267e 05bc 0961 8fbb e7f3 d1bc d685 903c
00000080: ebb1 47bd 28e9 833d 7239 663d f63e 00bd
00000090: 6be2 cd3c 0f8e 683d cf3d 22bc d970 23bd
000000a0: d0ec e8bc 2982 83bb 74e7 d2bb 953c 86bc
000000b0: 737c 11bd 45ea 42bc 87bb 9b3b ba9b 813c
000000c0: 5684 05bd 9556 2bbc 7fcb 073b cd6e ac3c
000000d0: 8ff4 243c f985 083d 051d c33c b2da 7d3d
000000e0: cb78 663b b58d a33c 62e3 a03c d741 ab3c
000000f0: cce9 0c3d 3fe8 3b3d 5d2e 1ebd 162e 3f3b
00000100: ffd9 d23b 43b3 8a3c dafa f03a 0844 2fbd
00000110: 7584 86bc 1708 043d 3a31 9b3c 92de 1a3d
00000120: 1cc7 853d 9eeb 613c 785f c53b b817 9d3b
00000130: 6f81 5a3d 4b49 8c3d fa97 f83c ca82 21bd
00000140: 3178 003d 7cc3 19bd 0c93 a13d cc5f c13b
00000150: a33a 02bd 6da3 b2bc 7f68 6bba 4b6a 603c
00000160: b1c7 53bc 016c af3d 46fd be3c 334b 003d
00000170: c9eb b4ba 6b90 a23d ae7a 9d3d db35 813c
00000180: bb52 9e3d b958 083d ec84 713d 2357 9d3d
00000190: b2ca 543d a043 1139 6733 793d 81c2 0e3d
000001a0: c066 d83d cb34 843d 0d50 873c cf37 943d
000001b0: f056 933c c042 963c 956d a53c 6ce4 09bc
000001c0: 7d64 c33d c127 993d 40f2 3c3a d51e ef3c
000001d0: 9d4b de3c ffcc 833d 5027 4b3c ff7c dbbb
000001e0: 394e d2bb bc8c 0c3d 1343 4dbc 6145 f53c
000001f0: db26 9d3d fd26 ce3c 191c a63d 55a8 ad3d
00000200: afbc 3b3d 0a24 abbc b3ab c53c fb16 793d
00000210: b133 8d3d 4429 7b3c 1755 7e3c a436 5f3d
00000220: 21ef b7bc 5a84 873d e8d6 e539 1868 243d
00000230: fdf6 4b3d 5d4d cc3c c2c0 5c3d 0895 ca3c
00000240: 71f5 3b3c 60f6 823d 9784 d03b 5e10 7e3d
00000250: 40bd cfbc bcba 3e3d 75f9 b3bc dc6c 133d
00000260: 1a63 4f3d b715 363d 5187 593d 524e 28bd
00000270: 1eb6 32bd 7c9a 243c 105a 0d3c 9191 333d
00000280: 9f96 f5bc 1947 0f3d 240f 85bc abb3 e73c
00000290: 4df2 19bd 0c54 cebb 9a6b 3a3d ee0e 343d
000002a0: 2b26 cdba b8df 123d 8da1 cebc 6741 dfbc
000002b0: 9237 203d 4bbc 333d 78f0 83bb 1dbf c63b
000002c0: 01cb e0bc fc5e 763d c04f 4f3c 7e0f 5c3d
000002d0: 7ab4 44bd c194 263d 7c84 20bd 387c 0f3d
000002e0: 04c5 873c d848 c43c ee4e 183d 737c 12bd
000002f0: 80c8 e8bc 2b0c b2bc 49a0 9b3b 49ac d43c
00000300: 0743 6c3d de1f bc3b f427 203d 09a3 013d
00000310: ddb1 8bbc c7d2 353d ddce 083d 7455 903c
00000320: 0720 7c3a da58 dabc df03 683d 9691 173d
00000330: 26db 643d 1590 243c 81c6 4a3d 6f3a 6f3d
00000340: 3576 9abc 07f1 6e3d 2aef 573d b807 28bd
00000350: 565d 6fbc 36f9 8abc b8a5 9a3a fbef 16bb
00000360: 8927 0cbd da6f 1cbd c42b 3a3d 57ba 4c3d
00000370: 3573 4fbd 7526 c63c 5d69 f8bc fb4e 30bd
00000380: 51f5 33bd 69e4 c93c ab11 743d efda 1bbd
00000390: bef1 a4bc f0ad a43c 8637 2a3b 13f0 243c
000003a0: 3ac5 8ebc 4de2 0e3d 64d2 4b3d d7e3 883c
000003b0: 1785 5bbd 9630 aebc a481 d43b 6e1a 853a
000003c0: b794 223d 0b7a 463b 3ab4 ab3b e29d e03c
000003d0: 0818 cabb 63d9 243b 3793 d63b 6c50 193d
000003e0: d873 cf3c c949 0bbc b61a 783d 0e50 563d
000003f0: 94e0 1fbd 1a65 1cbd eec1 b1bc 08ad d73c

encoder.0.bias f4 [47]
-0.029345043 -0.14167827 -0.0030897092 0.08847302 -0.16715257 -0.00010678157 0.21644646 -0.056651916
-0.03067696 0.030911177 0.15215161 -0.04173215 0.061173566 -0.068286195 0.08052033 -0.006498699
-0.014088448 0.01485098 0.1040023 0.12559772 0.06901085 0.016561696 0.0856207 -0.0966257
-0.025115397 0.07008956 -0.0979577 0.094911896 0.07447071 0.01972193 0.07994752 0.15667945
0.011286126 0.010476844 -0.01218074 0.029756181 -0.04301155 0.08182051 0.0074277534 -0.04773271
0.054469153 0.059286777 0.06884456 0.10788261 -0.08229806 0.021573318 -0.047121394
00000000: 0465 f0bc 1c14 11be b87c 4abb 5831 b53d
00000010: 0b2a 2bbe ebef dfb8 24a4 5d3e d70b 68bd
00000020: 3f4e fbbc 7039 fd3c a2cd 1b3e 55ef 2abd
00000030: 2291 7a3d a2d9 8bbd d8e7 a43d 0af3 d4bb
00000040: 3cd3 66bc 8651 733c 28ff d43d b09c 003e
00000050: 8f55 8d3d 65ac 873c e859 af3d b2e3 c5bd
00000060: cebe cdbc 1d8b 8f3d 0c9e c8bd 2b61 c23d
00000070: 1984 983d e38f a13c 86bb a33d 9470 203e
00000080: 72e9 383c 12a7 2b3c ba91 47bc 3cc3 f33c
00000090: e12c 30bd 8391 a73d 8364 f33b 6083 43bd
000000a0: 0c1b 5f3d b1d6 723d 60fe 8c3d 8ff1 dc3d
000000b0: e38b a8bd 87ba b03c 5d02 41bd

encoder.2.weight f4 [8, 47]
-0.10560025 -0.09815498 0.0007119925 0.058752876 0.07514492 0.05215611 0.039667085 -0.0008660719
0.11201857 0.031857535 0.14132847 -0.1183787 0.00012549787 -0.05081269 -0.036153425 -0.037304074
-0.033013206 -0.053707656 -0.09771774 -0.09522709 0.061256867 -0.049121935 -0.087887295 -0.12651534
0.08414702 -0.15917322 -0.06459869 -0.009744408 0.14292827 0.093176946 0.055309888 -0.07426252
0.12255942 0.043441992 -0.103877924 0.014800535 -0.0833812 0.10853502 -0.024497919 -0.009549813
0.055598143 -0.10270417 -0.09498691 0.050056536 0.07167993 0.0636807 -0.045340914 0.06103725
-0.048033677 -0.065532155 0.08682924 -0.16752227 -0.08281742 -0.07302211 -0.13067153 0.105607376
-0.031966142 0.12116362 -0.05972551 0.10867957 -0.07243482 -0.0012053009 -0.10176344 0.010061377
-0.06870884 0.08746828 -0.014905456 -0.13016216 -0.1072159 0.004785089 -0.10346077 0.0023934918
0.042144213 0.12896703 -0.12025672 -0.013809291 0.15678589 -0.02596528 0.30567586 0.012577523
0.029782819 0.052089322 0.108170226 0.03473067 -0.085863166 -0.14366706 -0.035192944 0.12276922
0.027782105 -0.057881925 0.0027505741 0.0072922106 -0.03871483 0.23465906 -0.13706206 0.021007773
-0.0054403553 -0.10404551 0.14343569 -0.13678972 -0.049679633 -0.036827493 0.12489409 0.035301454
-0.02930329 -0.023792297 0.08702778 0.01233476 0.09909291 -0.06087963 0.079977036 0.065918304
-0.089845695 0.024415707 0.13081808 -0.13540332 -0.09431466 0.11656193 0.1204366 -0.018171828
-0.004288402 -0.03167475 -0.08136764 0.031426832 -0.046389576 0.0026341472 -0.035595387 -0.087557636
0.12533997 -0.10044158 -0.014809313 0.0015979748 0.08938334 -0.034629423 -0.08681732 -0.027941477
-0.14354199 -0.09142346 0.06345507 0.07347727 0.13442117 0.14120278 -0.0018529254 -0.09411368
0.12515168 0.045334015 -0.09009371 -0.10198387 0.03166638 0.15354885 -0.031054934 -0.07723623
0.14945236 -0.01264364 -0.11661533 -0.03530983 -0.04535635 0.08145988 -0.10008843 -0.004624933
-0.016466236 0.010490289 -0.046402257 -0.030012388 0.168649 0.029602861 -0.07288394 -0.10248564
-0.12395099 0.0034294366 -0.08622088 0.16436993 -0.033971645 -0.09727224 -0.008184546 0.13144705
0.110559575 -0.10393202 -0.10069979 -0.060482297 0.004461047 0.09229415 0.016052583 0.043021534
0.09200523 -0.1158255 -0.060587283 0.06637757 -0.12831965 0.005516637 0.029828463 0.12875643
0.16804372 -0.15163477 0.19139206 -0.00024009214 -0.0004912217 0.09890661 0.15976629 0.021079712
0.10685423 -0.058467824 0.16674326 -0.04896507 -0.037796766 0.02414106 -0.12134312 0.07653619
-0.11189763 -0.009410177 0.10995296 0.15693972 -0.086313695 0.021627279 -0.070452124 0.13197179
-0.056195926 -0.015848864 0.036993697 0.045009002 -0.06099263 0.060547736 -0.102113076 -0.082239516
0.06368981 0.10552686 0.122002445 0.1704709 -0.027081335 -0.02084856 -0.060764447 0.087380774
-0.11988014 -0.10819038 -0.029433098 -0.02247431 -0.031868886 0.053193323 -0.064371884 -0.0066939285
-0.003786169 0.041709103 -0.03744289 0.023172937 0.08065062 0.047583926 -0.10048491 0.12956256
-0.07165584 0.025051346 0.056864586 -0.06752741 -0.014353132 -0.07238266 0.13497406 0.05870921
00000000: f244 d8bd 7a05 c9bd 02a5 3a3a dba6 703d
00000010: 94e5 993d a5a1 553d f479 223d 1a09 63ba
00000020: fe69 e53d 0c7d 023d 69b8 103e 8870 f2bd
00000030: 1498 0339 f820 50bd 9d15 14bd 28cc 18bd
00000040: db38 07bd 8ffc 5bbd 3d20 c8bd 6c06 c3bd
00000050: 7be8 7a3d 1534 49bd 41fe b3bd 3d8d 01be
00000060: 4655 ac3d 4efe 22be 514c 84bd 02a7 1fbc
00000070: ca5b 123e 8ed3 be3d 9f8c 623d f316 98bd
00000080: 6f00 fb3d 3bf0 313d f3bd d4bd f17d 723c
00000090: c3c3 aabd 9c47 de3d dcaf c8bc d276 1cbc
000000a0: e1ba 633d 9056 d2bd 7f88 c2bd 1508 4d3d
000000b0: edcc 923d 076b 823d 65b7 39bd 3202 7a3d
000000c0: f6be 44bd b935 86bd 87d3 b13d f58a 2bbe
000000d0: 2e9c a9bd 9e8c 95bd c2ce 05be ae48 d83d
000000e0: eeee 02bd a224 f83d bda2 74bd 6593 de3d
000000f0: b558 94bd 30fb 9dba 5a69 d0bd 79d8 243c
00000100: 38b7 8cbd 9222 b33d 0436 74bc 3b49 05be
00000110: 0394 dbbd 3ccc 9c3b 3de3 d3bd 21dc 1c3b
00000120: 699f 2c3d ef0f 043e 2849 f6bd 5d40 62bc
00000130: 7b8c 203e 24b5 d4bc 8c81 9c3e f411 4e3c
00000140: 19fb f33c 9d5b 553d 5a88 dd3d bf41 0e3d
00000150: 07d9 afbd 751d 13be 7a26 10bd 6e6e fb3d
00000160: 4c97 e33c 9915 6dbd fa42 343b 7ff3 ee3b
00000170: 7193 1ebd 774a 703e ff59 0cbe 7e18 ac3c
00000180: 0245 b2bb d015 d5bd cee0 123e 9b12 0cbe
00000190: df7c 4bbd 6dd8 16bd 79c8 ff3d 4298 103d
000001a0: 740d f0bc 10e8 c2bc 9f3b b23d bc17 4a3c
000001b0: 39f1 ca3d eb5c 79bd 00cb a33d 2d00 873d
000001c0: 0501 b8bd 7303 c83c 2df5 053e 2ba7 0abe
000001d0: 0b28 c1bd 05b8 ee3d 77a7 f63d 16dd 94bc
000001e0: b985 8cbb 62bd 01bd 14a4 a6bd 6cb9 003d
000001f0: ff02 3ebd a8a1 2c3b 78cc 11bd 6b51 b3bd
00000200: 1f59 003e 51b4 cdbd c3a2 72bc 2373 d13a
00000210: 9d0e b73d 95d7 0dbd 47cd b1bd 86e5 e4bc
00000220: acfc 12be 393c bbbd bbf4 813d 407b 963d
00000230: b4a5 093e 7697 103e dcdd f2ba acbe c0bd
00000240: c327 003e 29b0 393d 0d83 b8bd ebdc d0bd
00000250: 9bb4 013d e93b 1d3e eb66 febc 072e 9ebd
00000260: 0a0a 193e 4527 4fbc 05d4 eebd 0aa1 10bd
00000270: 94c7 39bd 70d4 a63d 2afb ccbd c08c 97bb
00000280: 33e4 86bc 76df 2b3c 4b10 3ebd 8adc f5bc
00000290: 53b2 2c3e b381 f23c 2d44 95bd fee3 d1bd
000002a0: 04da fdbd 66c0 603b 9394 b0bd 9750 283e
000002b0: da25 0bbd ab36 c7bd 7918 06bc 0e9a 063e
000002c0: 0f6d e23d 50da d4bd b13b cebd 49bc 77bd
000002d0: f92d 923b b704 bd3d b580 833c 5937 303d
000002e0: 3d6d bc3d eb35 edbd 5f2a 78bd f7f0 873d
000002f0: 3a66 03be e8c4 b43b d25a f43c bad8 033e
00000300: a713 2c3e 2546 1bbe 48fc 433e 3ec1 7bb9
00000310: 55c5 00ba 8c8f ca3d c699 233e 5caf ac3c
00000320: 64d6 da3d f57b 6fbd bfbe 2a3e 998f 48bd
00000330: c8d0 1abd 79c3 c53c be82 f8bd 02bf 9c3d
00000340: 962a e5bd 252d 1abc 042f e13d ceb4 203e
00000350: 3cc5 b0bd b12b b13c 3449 90bd 9d23 073e
00000360: b32d 66bd 7ad5 81bc b486 173d 5c5b 383d
00000370: 68d3 79bd e700 783d a920 d1bd 316d a8bd
00000380: ce6f 823d 771e d83d 6bdc f93d ec8f 2e3e
00000390: add9 ddbc 99ca aabc 24e4 78bd b1f4 b23d
000003a0: b883 f5bd eb92 ddbd ae1d f1bc 0b1c b8bc
000003b0: f388 02bd 3ee1 593d 68d5 83bd be58 dbbb
000003c0: 6021 78bb 2ad7 2a3d b75d 19bd 2cd5 bd3c
000003d0: 272c a53d 5de7 423d 08cb cdbd 0cac 043e
000003e0: 4cc0 92bd 7b38 cd3c d7ea 683d d04b 8abd
000003f0: 6629 6bbc 5c3d 94bd a436 0a3e 1279 703d

encoder.2.bias f4 [8]
0.008820462 -0.07286332 0.0006828589 0.019472381 -0.058011413 -0.009555829 -0.1675951 -0.08197456
00000000: b383 103c 5d39 95bd e301 333a 8b84 9f3c
00000010: 609d 6dbd 0d90 1cbc 0d9e 2bbe 47e2 a7bd

decoder.0.weight f4 [47, 8]
-0.3046698 -0.16727121 0.3215939 0.20084961 0.27223432 0.21522309 -0.3623854 0.19297722
-0.14095688 -0.2969153 -0.06704066 -0.3370707 0.3246088 0.08179374 0.12228247 0.06495828
0.1617864 -0.21866249 -0.20097229 0.115155056 -0.3682409 0.020550126 -0.09653391 -0.20067331
0.0020994174 -0.26253378 -0.18070532 -0.30331045 -0.11635019 0.20126046 -0.16945305 -0.06531336
0.112655416 -0.19079599 0.1418748 -0.19921783 0.25621635 0.025067342 0.19397978 0.17459975
-0.1669308 0.3531246 0.2292124 -0.051717114 -0.25348687 -0.26564434 0.052384485 -0.101435795
-0.29632014 -0.11927444 -0.10141315 0.08900692 0.04682409 0.08926925 0.12972596 -0.07450864
-0.09773793 0.10965368 0.23244368 0.15638022 -0.0716238 0.0687975 0.075345375 -0.22144003
0.045686774 0.07236127 0.15456651 -0.1459385 0.120249756 -0.32806706 0.33343762 0.21984005
0.12609641 -0.1677226 -0.13502885 0.123490304 0.26688528 0.11152194 -0.25013125 -0.2023849
-0.08872712 -0.12697676 0.041971534 0.28089595 0.034465943 0.2118653 -0.029921154 -0.22218643
-0.28983268 -0.18419886 0.18683301 0.32639164 0.1330874 0.17597839 0.14960185 0.19018303
-0.025464322 0.31341565 -0.28175336 -0.12746681 -0.23819141 -0.2138492 -0.12793507 0.31933692
0.3267893 -0.04465458 -0.47922957 -0.315604 -0.37779725 0.014336487 0.3629192 -0.1664327
0.3766858 0.11090593 -0.31403363 -0.20842601 -0.28858906 0.02233444 0.39357543 -0.11655778
-0.047582924 -0.21361591 0.23156655 0.27386102 -0.20290409 0.303214 0.021664755 -0.21606795
-0.23099922 0.27484778 0.10559874 0.07295523 -0.04394037 -0.18993545 0.18329722 -0.031194882
-0.09034979 -0.20571391 0.27705276 0.12179694 0.36474186 0.2799999 0.18897901 0.13610084
0.032419834 -0.07675607 0.076168746 -0.19010156 0.29300627 0.025279006 0.23344271 -0.06610167
0.19256936 -0.062711485 0.073289536 0.30813605 0.3229456 0.22280361 0.045439668 0.29717755
-0.30193067 -0.2912989 -0.014516928 -0.24169089 0.14166024 -0.31639805 -0.22742057 -0.07591685
0.21552448 -0.120401844 -0.051079158 -0.2684822 -0.022992905 0.09160733 0.023987886 0.2323377
0.14893027 0.2494208 -0.2799667 0.11830837 -0.23648098 -0.11015368 -0.13295142 -0.28880206
0.074557945 0.25798917 0.26320842 0.17722477 0.2849934 0.14831355 0.48385304 0.07863886
-0.019400256 -0.072278604 -0.21280101 -0.2861326 0.2336189 -0.2806508 0.20009199 0.22608443
0.18383677 0.049721915 -0.04946479 0.31686652 0.02163428 -0.14388867 -0.040409617 0.1176624
0.3146963 0.08287253 0.15678747 0.30503646 0.10327259 0.23568928 -0.09996007 0.24049295
-0.12804589 0.26575962 0.31814435 -0.15262559 0.081555635 -0.18607487 0.09622095 -0.24845712
0.21405734 0.19512337 -0.060295653 -0.036938075 0.07595319 -0.32896784 0.27532238 0.09125261
-0.22457965 0.0214198 -0.19150612 -0.19238888 -0.18378954 0.35922715 -0.007834255 0.3218081
-0.14736988 -0.2811767 -0.10200859 -0.22020169 0.30713224 -0.0759024 0.17346066 -0.36420032
0.25402156 -0.26242396 -0.20867567 0.2599703 -0.2665342 -0.048518233 0.27721614 0.014721472
00000000: aefd 9bbe 2549 2bbe f5a7 a43e 85ab 4d3e
00000010: 4c62 8b3e 7163 5c3e 948a b9be d29b 453e
00000020: 0057 10be 4805 98be 9d4c 89bd 8894 acbe
00000030: 2033 a63e 7a83 a73d 3b6f fa3d d908 853d
00000040: 56ab 253e 0fe9 5fbe aecb 4dbe 6ad6 eb3d
00000050: 128a bcbe bd58 a83c 92b3 c5bd 4e7d 4dbe
00000060: 6196 093b d46a 86be d10a 39be 824b 9bbe
00000070: 0249 eebd 3917 4e3e 1a85 2dbe 03c3 85bd
00000080: e2b7 e63d 0660 43be a147 113e c2ff 4bbe
00000090: ca2e 833e 075a cd3c a3a2 463e 47ca 323e
000000a0: e8ef 2abe bfcc b43e a8b6 6a3e 53d5 53bd
000000b0: 08c9 81be 8902 88be 1d91 563d 92bd cfbd
000000c0: 46b7 97be 2846 f4bd b3b1 cfbd 4349 b63d
000000d0: 9eca 3f3d ccd2 b63d e2d6 043e fc97 98bd
000000e0: d32a c8bd 1c92 e03d b705 6e3e 2322 203e
000000f0: 80af 92bd b4e5 8c3d ad4e 9a3d 2dc1 62be
00000100: 0e22 3b3d 2532 943d af46 1e3e e770 15be
00000110: 8145 f63d 68f8 a7be 56b8 aa3e c01d 613e
00000120: 6b1f 013e 79bf 2bbe 0145 0abe 7ce8 fc3d
00000130: 30a5 883e 9d65 e43d 3411 80be fd3d 4fbe
00000140: 90b6 b5bd 3206 02be 58ea 2b3d 98d1 8f3e
00000150: 292c 0d3d 38f3 583e 351d f5bc d784 63be
00000160: f364 94be a09e 3cbe 2751 3f3e ce1c a73e
00000170: 1048 083e ae33 343e 3a31 193e 57bf 423e
00000180: 8e9a d0bc 0478 a03e fa41 90be a986 02be
00000190: 73e8 73be 49fb 5abe 6901 03be 2180 a33e
000001a0: ed50 a73e b9e7 36bd 945d f5be d996 a1be
000001b0: a46e c1be 96e3 6a3c 8cd0 b93e 556d 2abe
000001c0: f6dc c03e a622 e33d 04c9 a0be a16d 55be
000001d0: f2c1 93be b7f6 b63c b882 c93e d8b5 eebd
000001e0: 50e6 42bd 21be 5abe c81f 6d3e 8337 8c3e
000001f0: 17c6 4fbe de3e 9b3e 497a b13c eb40 5dbe
00000200: 0f8b 6cbe d9b8 8c3e 2744 d83d 8d69 953d
00000210: d1fa 33bd 707e 42be 44b2 3b3e 698c ffbc
00000220: 5009 b9bd aba6 52be dcd9 8d3e ad70 f93d
00000230: 72bf ba3e 265c 8f3e b783 413e 055e 0b3e
00000240: a9ca 043d 4932 9dbd 5cfe 9b3d fca9 42be
00000250: eb04 963e eb15 cf3c 9b0b 6f3e 5060 87bd
00000260: e730 453e e16e 80bd d318 963d 02c4 9d3e
00000270: 2059 a53e a126 643e f21e 3a3d a827 983e
00000280: a896 9abe 2125 95be 69d8 6dbc d17d 77be
00000290: 620f 113e edfe a1be f0e0 68be 4b7a 9bbd
000002a0: 73b2 5c3e 3e95 f6bd 6138 51bd 8076 89be
000002b0: 9e5b bcbc a09c bb3d 3e82 c43c efe9 6d3e
000002c0: 2d81 183e 2b68 7f3e cc57 8fbe a94b f23d
000002d0: 1228 72be 4198 e1bd 6b24 08be dddd 93be
000002e0: d6b1 983d 2817 843e 41c3 863e 697a 353e
000002f0: a8ea 913e 82df 173e 96bb f73e 690d a13d
00000300: 49ed 9ebc ce06 94bd 82e8 59be f97f 92be
00000310: cb39 6f3e 76b1 8fbe eae4 4c3e ad82 673e
00000320: b53f 3c3e 35a9 4b3d 979b 4abd 543c a23e
00000330: 603a b13c 8d57 13be 8e84 25bd fcf8 f03d
00000340: e01f a13e 13b9 a93d e58c 203e bd2d 9c3e
00000350: 9480 d33d 8858 713e ddb7 ccbd c943 763e
00000360: 761e 03be a511 883e d1e3 a23e e249 1cbe
00000370: a406 a73d 698a 3ebe 7d0f c53d 8b6b 7ebe
00000380: d931 5b3e 6cce 473e 93f8 76bd 614c 17bd
00000390: 598d 9b3d 796e a8be 0ef7 8c3e a6e2 ba3d
000003a0: 35f8 65be 9478 af3c 2e1a 44be 9701 45be
000003b0: 5333 3cbe 9fec b73e 3f5b 00bc 08c4 a43e
000003c0: 21e8 16be 64f6 8fbe e1e9 d0bd 8d7c 61be
000003d0: 7040 9d3e b872 9bbd ac9f 313e 7778 babe
000003e0: 1d0f 823e 6f5c 86be 13af 55be d41a 853e
000003f0: 2c77 88be 0ebb 46bd 46ef 8d3e 5432 713c

decoder.0.bias f4 [47]
-0.042710133 -0.035847824 -0.05647213 -0.14858055 0.032309115 -0.09599781 0.06409498 -0.097323805
0.1447947 -0.034877997 0.024785306 0.18489368 0.046890613 0.019669876 0.21844684 0.023183197
0.14057145 0.1555744 -0.07625483 0.051596 -0.059066433 0.10118554 -0.12249794 0.18821795
-0.03173272 -0.15188572 -0.105564654 -0.0726708 0.1322714 0.115357436 -0.12835981 -0.3398955
0.13258831 -0.060386375 -0.019222278 0.10773413 0.16667335 0.08245623 -0.0072610755 -0.09956355
-0.0058140783 -0.08220103 -0.115685575 0.04629555 -0.08918779 -0.10289576 0.00033240052
00000000: d2f0 2ebd 2bd5 12bd 524f 67bd 8025 18be
00000010: 9056 043d 809a c4bd 3b44 833d b451 c7bd
00000020: 1045 143e 3bdc 0ebd 8e0a cb3c c554 3d3e
00000030: 5f10 403d b822 a13c 87b0 5f3e b0ea bd3c
00000040: f6f1 0f3e e54e 1f3e 7e2b 9cbd 5456 533d
00000050: a5ef 71bd 5d3a cf3d 33e0 fabd 35bc 403e
00000060: 2bfa 01bd ee87 1bbe 4832 d8bd 6ed4 94bd
00000070: 2772 073e 8540 ec3d c170 03be c806 aebe
00000080: 3bc5 073e b457 77bd 0a78 9dbc b6a3 dc3d
00000090: 6bac 2a3e d0de a83d 51ee edbb f9e7 cbbd
000000a0: 0684 bebb 0359 a8bd 8fec ecbd 67a0 3d3d
000000b0: 17a8 b6bd 03bb d2bd 0b46 ae39

decoder.2.weight f4 [282, 47]
-0.02919618 -0.09574851 0.08754147 0.08609761 -0.013903945 -0.06814355 0.17450134 0.057631027
-0.10009176 0.01759325 0.16811739 -0.036983807 -0.061028715 -0.00444668 -0.07115683 -0.07865318
0.058680665 -0.04094167 0.039454285 0.092522226 -0.027577927 0.06343715 -0.0307734 0.088141255
-0.041590635 0.05379828 -0.09063097 -0.033210505 -0.08345054 -0.10061557 0.17264974 -0.005794716
0.051962696 -0.12758689 0.11119119 0.09241577 -0.022555932 -0.19160435 0.17766835 -0.028195098
-0.20688444 -0.08377555 -0.025633259 -0.15844807 0.013766122 0.024405116 -0.07342443 0.1068655
0.051181827 0.14146166 -0.047211416 0.010469011 -0.037231702 0.21626617 -0.048992142 0.01332815
0.07452336 -0.05708515 0.08105753 -0.14391789 -0.15985209 0.13497068 -0.0055062687 0.07007353
-0.1389375 -0.11938189 -0.11368227 -0.08620625 0.10648696 0.14091401 -0.09169889 -0.12200942
0.09528219 0.023335092 0.09329789 0.05433802 -0.11666096 0.0284219 -0.027898083 -0.02441928
0.01735861 0.111867376 -0.0114197405 0.04825982 -0.124650985 0.08664695 -0.03781165 -0.21355137
0.098721534 -0.02722697 0.07154604 -0.02390954 -0.13710088 -0.04645253 0.020330697 -0.16222313
-0.04762954 0.120854214 -0.063197635 0.15673973 0.09931785 -0.08389306 0.06661809 -0.061908588
-0.07608603 -0.055440947 0.011602091 0.04585892 -0.020179864 0.120459475 -0.04143191 0.084256925
0.018436564 -0.20724499 0.05085091 -0.086272195 0.15968814 -0.02612265 0.039377082 -0.1173076
-0.11789032 -0.05469138 0.030348757 -0.15888779 0.15698288 -0.046046108 0.063860975 -0.15656824
0.061938867 0.064884275 0.13277142 -0.14084955 -0.04197328 0.013843347 -0.16185386 -0.10934662
0.020106597 0.07235375 0.101064324 0.012656253 0.003076916 0.10588284 0.093227744 0.04290984
0.10689519 -0.10063465 -0.08897494 -0.07201165 -0.06737344 0.074930646 -0.012754283 -0.073783554
0.042335153 -0.020999277 -0.114096224 0.11890838 0.12426616 0.030062001 -0.10113475 -0.090584934
-0.12267595 0.037125394 -0.13089854 0.1578977 0.10607937 0.08177747 -0.10147235 -0.070530884
0.15250881 0.016887631 -0.0803531 -0.008077875 -0.013433535 0.029415721 0.05431971 0.15961902
-0.0974938 0.1539975 -0.12624566 0.009910449 0.18951409 -0.21735834 0.03132338 -0.12625898
0.041408066 -0.0028898937 -0.116340294 0.022958867 -0.0798808 0.07473498 0.13762367 0.0026193734
-0.11168922 -0.048823822 0.1709534 0.032556754 -0.0007843421 0.07250269 0.14280844 -0.07521267
0.0026866668 0.04818318 0.09568536 0.037027404 0.15009364 -0.0055659423 -0.17373097 -0.021440528
-0.098589905 0.011712133 0.09602555 -0.019547697 0.0096538905 0.07992136 -0.0013614494 0.036873013
-0.058892775 -0.13037035 0.006453683 -0.1138091 -0.016063947 -0.1490618 -0.08321043 0.04200585
-0.038697965 0.033489447 -0.06937503 -0.12212661 -0.20344462 -0.1377643 0.022077613 -0.049433082
0.13622697 -0.088532835 0.011287955 0.116205506 0.110179916 -0.007560729 -0.039476752 -0.11152195
-0.05957585 -0.05468558 0.07997372 -0.07202663 0.08588766 0.05119296 -0.0053212377 -0.16117859
-0.1144504 -0.03512567 -0.09980069 0.16208099 0.0037664576 -0.24026728 0.034030993 0.12970187
00000000: d42c efbc cb17 c4bd f148 b33d f253 b03d
00000010: 5fcd 63bc d88e 8bbd 7bb0 323e 830e 6c3d
00000020: e9fc ccbd b81f 903c f726 2c3e 557c 17bd
00000030: 3ff9 79bd 75b5 91bb acba 91bd eb14 a1bd
00000040: 235b 703d 74b2 27bd d19a 213d 4b7c bd3d
00000050: 1beb e1bc 56eb 813d 7f18 fcbc 6783 b43d
00000060: f15a 2abd 965b 5c3d bb9c b9bd bd07 08bd
00000070: 1ee8 aabd 890f cebd 18cb 303e 9ae1 bdbb
00000080: d6d6 543d 23a6 02be 35b8 e33d 7b44 bd3d
00000090: 38c7 b8bc ee33 44be b1ee 353e 68f9 e6bc
000000a0: 84d9 53be 8492 abbd d7fc d1bc 3640 22be
000000b0: 4d8b 613c 3ded c73c 8c5f 96bd 4ddc da3d
000000c0: 09a4 513d 53db 103e c260 41bd 3786 2b3c
000000d0: 4580 18bd e174 5d3e fcab 48bd 505e 5a3c
000000e0: b49f 983d 1ed2 69bd 7e01 a63d 365f 13be
000000f0: 44b0 23be c135 0a3e ee6d b4bb b682 8f3d
00000100: a245 0ebe 7e7e f4bd 40d2 e8bd e78c b0bd
00000110: d615 da3d c34b 103e a1cc bbbd 13e0 f9bd
00000120: 4f23 c33d 3c29 bf3c f712 bf3d 8b91 5e3d
00000130: f1eb eebd 0bd5 e83c 858a e4bc f10a c8bc
00000140: a533 8e3c b91a e53d dd19 3bbc 17ac 453d
00000150: 0449 ffbd f573 b13d 64e0 1abd 36ad 5abe
00000160: 842e ca3d 180b dfbc bb86 923d f1dd c3bc
00000170: 2c64 0cbe 0245 3ebd 908c a63c d21d 26be
00000180: 3117 43bd 6a82 f73d c36d 81bd 6180 203e
00000190: 2867 cb3d 20d0 abbd 116f 883d dc93 7dbd
000001a0: fed2 9bbd 0c16 63bd b216 3e3c 90d6 3b3d
000001b0: 3e50 a5bc 75b3 f63d 82b4 29bd e58e ac3d
000001c0: 4708 973c 0838 54be 0b49 503d 7aaf b0bd
000001d0: 4a85 233e 2bff d5bc dd49 213d f83e f0bd
000001e0: 7b70 f1bd 1204 60bd f59d f83c 7bb3 22be
000001f0: 1fc0 203e d89a 3cbd 8bc9 823d 6d53 20be
00000200: 9cb3 7d3d 0ce2 843d 3bf5 073e dd3a 10be
00000210: 2dec 2bbd 35cf 623c 05bd 25be 1ff1 dfbd
00000220: 97b6 a43c 342e 943d d0fa ce3d 2c5c 4f3c
00000230: 16a6 493b 1ad9 d83d 30ee be3d 3ac2 2f3d
00000240: deeb da3d 8a19 cebd 7e38 b6bd d87a 93bd
00000250: 16fb 89bd 3d75 993d 57f7 50bc d51b 97bd
00000260: a067 2d3d ad06 acbc 48ab e9bd 3d86 f33d
00000270: 427f fe3d 9644 f63c bc1f cfbd 9884 b9bd
00000280: 873d fbbd cc10 183d 440a 06be efaf 213e
00000290: 2440 d93d f27a a73d bcd0 cfbd 7f72 90bd
000002a0: 452b 1c3e ee57 8a3c 2b90 a4bd 1059 04bc
000002b0: 5418 5cbc 3df9 f03c 587e 5e3d 2b73 233e
000002c0: d4aa c7bd 85b1 1d3e 8b46 01be 705f 223c
000002d0: fb0f 423e 2f93 5ebe f24c 003d 094a 01be
000002e0: 819b 293d 5f64 3dbb d243 eebd 3c14 bc3c
000002f0: 8b98 a3bd a70e 993d 38ed 0c3e cba9 2b3b
00000300: 51bd e4bd 7dfb 47bd 680e 2f3e 3b5a 053d
00000310: 4f9c 4dba 4a7c 943d 603c 123e 1a09 9abd
00000320: ca12 303b ba5b 453d b0f6 c33d 0caa 173d
00000330: 26b2 193e 8262 b6bb 88e6 31be 0ca4 afbc
00000340: 81e9 c9bd 3fe4 3f3c 0ba9 c43d 7e22 a0bc
00000350: 5a2b 1e3c cfad a33d a972 b2ba 2808 173d
00000360: 8d39 71bd ce7f 05be 6b79 d33b bf14 e9bd
00000370: 8a98 83bc a8a3 18be 3b6a aabd 530e 2c3d
00000380: c281 1ebd 3b2c 093d 7f14 8ebd 841d fabd
00000390: c953 50be 1612 0dbe 1cdc b43c 587a 4abd
000003a0: 157f 0b3e b450 b5bd 1df1 383c 27fd ed3d
000003b0: 02a6 e13d febf f7bb 60b2 21bd 9f65 e4bd
000003c0: ce05 74bd fdfd 5fbd 43c9 a33d b382 93bd
000003d0: dfe5 af3d b6af 513d c75d aebb 000c 25be
000003e0: f964 eabd efdf 0fbd 4e64 ccbd 8ff8 253e
000003f0: acd6 763b a008 76be 1564 0b3d 91d0 043e

decoder.2.bias f4 [282]
0.017611489 -0.006928697 0.026744515 0.0038184738 -0.006585283 0.028549626 -0.012704061 -0.025538187
0.020813474 -0.02534003 0.04291721 0.036039516 -0.009928582 0.047634 0.036015388 -0.05608525
-0.023995774 -0.018561762 -0.02737895 0.009455644 0.020233363 -0.006847402 0.004963069 -0.063117646
-0.033607118 0.017736986 -0.014703516 0.0032206238 -0.0061396235 0.029711928 0.008988683 -0.02991438
0.014782473 0.021702465 0.006222962 -0.010289651 -0.02910559 -0.00042931363 0.009930655 0.031578887
-0.002005604 -0.018822327 0.027767865 -0.015226903 -0.021722693 -0.022925287 0.009848771 -0.0121954335
0.039399963 0.023689846 -0.017782925 0.0021311229 -0.0077505326 -0.025131991 0.02177372 0.022776945
0.042017378 -0.0076443804 0.005274327 -0.007257003 0.0061268075 -0.009820763 0.0022023926 -0.057204593
0.010900116 0.008331817 0.026346019 0.0030590368 0.02617911 -0.0025268106 -0.039495815 0.005842718
0.022926694 -0.0022892891 -0.02792419 0.03772919 -0.004002775 -0.01231404 0.016052691 -0.05021318
0.017703671 0.014585806 0.013324643 0.0007754497 0.031410012 0.007325571 0.025690095 0.00033510188
0.016377179 0.027803414 0.031553276 0.010505536 0.0034792365 0.03788254 0.03557503 0.051575694
-0.01120228 0.025675109 -0.005196891 -0.0022582174 0.0120158335 0.017992228 0.0040891054 0.0016395773
0.02305608 0.0051254095 0.046138637 0.0072216587 0.0074556363 0.015212503 0.020032201 0.023422891
-0.0049569295 0.0050378907 -0.0052749664 -0.034116346 0.047225226 -0.026475562 0.026849521 0.07201341
0.06706892 0.019236758 -0.012062352 0.050502736 0.007920896 -0.014337257 0.027817035 -0.015849689
0.018834082 0.019879146 0.005763643 0.0007469269 -0.027190559 0.0130232405 -0.019018248 0.021446096
-0.030812457 0.0066617797 0.051642656 -0.008788525 0.004466468 -0.012783712 -0.032365885 0.026112784
-0.010265569 0.03560214 -0.019858532 -0.040234134 -0.037944395 0.014641844 -0.015644137 -0.021712948
-0.0032045895 0.006969199 0.005157445 0.003859935 -0.0019023655 -0.018639188 -0.018366143 0.0021307883
-0.0123084765 0.042284362 0.011671513 -0.011621324 0.0019438121 0.01003364 0.011139741 0.0681504
0.015380208 0.012998483 -0.03298378 0.019151794 0.010613396 -0.024022201 -0.041769642 -0.018562084
0.023703085 -0.011081149 0.006703164 -0.040960565 0.033861794 0.03245504 0.007196999 -0.014610078
0.039723583 -0.000987215 -0.015663778 -0.010698036 0.03709245 0.02285949 0.013695681 -0.024439178
0.0002809008 0.009848541 0.016927334 -0.013484239 -0.007835474 -0.044398937 0.031464808 -0.010735158
-0.024329308 0.013717727 -0.005372999 -0.0013739127 -0.032734018 -0.035889827 -0.0009374286 0.027733816
0.007389858 -0.010674436 -0.0051996945 0.0192124 -0.006689841 0.015831629 0.004137278 0.0034720947
-0.016273499 0.038475268 0.062531084 -0.0024736284 -0.01716837 0.017206432 0.015235776 -0.01021301
0.011134098 0.006645807 0.01339983 0.016550647 -0.009558497 -0.009756956 0.0021594802 -0.05265371
0.062464207 -0.008089485 -0.022004798 0.009901499 0.026803313 0.017994186 0.0043547153 -0.04012566
0.006652944 -0.0028533675 0.00093630544 0.0021972442 0.021999564 -0.02301892 -0.003426586 0.009084108
0.011118814 -0.02571471 0.016212126 0.027722444 -0.031988565 0.028225323 -0.024281178 -0.023109183
00000000: f845 903c 200a e3bb 5017 db3c 5c3f 7a3b
00000010: 5cc9 d7bb e8e0 e93c b224 50bc 7635 d1bc
00000020: 0581 aa3c e595 cfbc f5c9 2f3d 2c9e 133d
00000030: 7eab 22bc df1b 433d df84 133d a6b9 65bd
00000040: c992 c4bc d60e 98bc d249 e0bc d8eb 1a3c
00000050: 70c0 a53c 2c60 e0bb 3ea1 a23b d343 81bd
00000060: 9ea7 09bd 284d 913c 04e7 70bc 1a11 533b
00000070: e52e c9bb 6e66 f33c 4545 133c 000f f5bc
00000080: 3032 723c 5ec9 b13c fde9 cb3b ed95 28bc
00000090: d96e eebc 8015 e1b9 30b4 223c dd58 013d
000000a0: 7470 03bb 4831 9abc 6f79 e33c 437a 79bc
000000b0: caf3 b1bc d0cd bbbc bd5c 213c 5bcf 47bc
000000c0: db61 213d 3511 c23c 7fad 91bc 4faa 0b3b
000000d0: 2ef8 fdbb 9be1 cdbc cd5e b23c b796 ba3c
000000e0: 6a1a 2c3d b67d fabb 43d4 ac3b 27cc edbb
000000f0: 63c3 c83b 44e7 20bc 0456 103b 5d4f 6abd
00000100: 6696 323c 2c82 083c 9bd3 d73c 1f7a 483b
00000110: 9375 d63c d998 25bb 5dc6 21bd 4574 bf3b
00000120: c3d0 bb3c e607 16bb 45c1 e4bc ec89 1a3d
00000130: b629 83bb d4c0 49bc ef80 833c 56ac 4dbd
00000140: 4a07 913c 4ef9 6e3c 9a4f 5a3c 8c47 4b3a
00000150: c9a7 003d 580b f03b 0974 d23c 9db0 af39
00000160: 6f29 863c fcc3 e33c 023e 013d 691f 2c3c
00000170: e703 643b b92a 1b3d 1fb7 113d 0941 533d
00000180: c589 37bc 9b54 d23c ae4a aabb 9afe 13bb
00000190: 0fde 443c 7064 933c e7fd 853b 16e7 d63a
000001a0: 1be0 bc3c 0df3 a73b defb 3c3d aaa3 ec3b
000001b0: 694e f43b dd3d 793c 921a a43c 5de1 bf3c
000001c0: bd6d a2bb e414 a53b a0d9 acbb 95bd 0bbd
000001d0: 3d6f 413d 47e3 d8bc 87f3 db3c c47b 933d
000001e0: 6e5b 893d 6896 9d3c 2ca1 45bc f5db 4e3d
000001f0: a5c6 013c d0e6 6abc 8de0 e33c 35d7 81bc
00000200: ef49 9a3c 97d9 a23c f1dc bc3b 6acd 433a
00000210: bcbe debc 6e5f 553c 28cc 9bbc b9af af3c
00000220: 686a fcbc 0f4b da3b 4087 533d bffd 0fbc
00000230: 735b 923b c672 51bc 1792 04bd 7aea d53c
00000240: eb30 28bc 8dd3 113d 5cae a2bc 8ccc 24bd
00000250: 956b 1bbd 58e4 6f3c 2228 80bc 5adf b1bc
00000260: 1704 52bb e15d e43b c9ff a83b f7f6 7c3b
00000270: cb58 f9ba 36b1 98bc 9874 96bc b2a4 0b3b
00000280: 7ea9 49bc 5e32 2d3d e039 3f3c 5e67 3ebc
00000290: 83c7 fe3a 2364 243c 7683 363c 7092 8b3d
000002a0: 45fd 7b3c 97f7 543c 001a 07bd 39e4 9c3c
000002b0: cfe3 2d3c 35ca c4bc a516 2bbd 830f 98bc
000002c0: f92c c23c b58d 35bc 37a6 db3b 44c6 27bd
000002d0: aab2 0a3d 93ef 043d ced4 eb3b 1c5f 6fbc
000002e0: 32b5 223d 7065 81ba 5351 80bc d146 2fbc
000002f0: 41ee 173d d343 bb3c d963 603c ac34 c8bc
00000300: de45 9339 c65b 213c 31ab 8a3c ffec 5cbc
00000310: 5c60 00bc a9db 35bd 3ee1 003d 84e2 2fbc
00000320: 424e c7bc 51c0 603c fb0f b0bb dc14 b4ba
00000330: 1b14 06bd 3601 13bd c5bd 75ba 0732 e33c
00000340: 9f26 f23b d4e3 2ebc 3362 aabb 5363 9d3c
00000350: 7436 dbbb 55b1 813c 0192 873b 158c 633b
00000360: 0050 85bc 3e98 1d3d 4c10 803d 991c 22bb
00000370: aea4 8cbc 81f4 8c3c 7a9f 793c 7854 27bc
00000380: cb6b 363c 12c5 d93b f68a 5b3c 3995 873c
00000390: 3e9b 1cbc a4db 1fbc 1186 0d3b 6bab 57bd
000003a0: 78da 7f3d c289 04bc 6843 b4bc e639 223c
000003b0: 9f92 db3c 8b68 933c 00b2 8e3b ce5a 24bd
000003c0: f000 da3b 90ff 3abb 6572 753a a4ff 0f3b
000003d0: 6e38 b43c 2d92 bcbc 9390 60bb 83d5 143c
000003e0: b02b 363c a8a7 d2bc 4bcf 843c 2e1a e33c
000003f0: 7106 03bd cb38 e73c 52e9 c6bc 784f bdbc
