autoencoder_0.pth (torch, 113736 bytes, 8 tensors)

encoder.0.weight f4 [47, 282]
00000000: ae7d a13b 4fa2 52bd 849c f6bc 6d48 2fbd
00000010: b388 0d3d ac7a 943c d968 8bbb 8cf4 023c
00000020: 22ad 11bd b5fd 0e3d 6b70 133d 83bd a9ba
00000030: 1b2a 523c c300 54bb 50c8 29bd 9529 67bd
00000040: 7321 79bd dc3a 993b b05b 35bd cf6e 693d
00000050: 50b5 20bd 894b 913c 7931 bbbc a059 c9bc
00000060: a1bd 40bd d09e 683c ee5a bcbc b582 2fbd
00000070: 2a7a 813c 03a5 833d 12ef d0bc e626 9f3c
00000080: e972 5d3d 80ed 1b3d f343 1bbc 7c0f 14bd
00000090: 11f5 07bd 8b3d 0bbb 0d9f a8bc 6231 06ba
000000a0: e520 1abd fc86 e6ba 1b9c 6fba 4cfe 35bd
000000b0: eb7b bf3c 50ff 993c c937 323c 9be4 5a3d
000000c0: 9fd8 b7bc 27f4 7a3d 8f1b 5f3d 8dec 323d
000000d0: d213 1cbd 72ad 4dbd 475a 3bbd 777a f8bc
000000e0: 7139 2d3d f4b8 7d3d 0f45 59bd 6f76 803d
000000f0: 717f 903c 6d8b 21bd 9f8f dc3b 581f 933c
00000100: aeb5 313c f7f4 b7bc fc54 363c aa55 e13c
00000110: f401 013d 863c 30bd 04d9 d8bb e743 3b3c
00000120: 7ef0 b6bc 87e5 79bd 52fb 3b3d 576c 9e3c
00000130: ddd5 7dbd da3b 9f3c 4aa2 1b3b 80b4 2f3a
00000140: ec8d 7abd 0857 a73c b823 84bd f8e4 86bc
00000150: e8d1 4dbb 0782 5ebd 1728 60bd 3906 86bd
00000160: c142 dbbb a6a9 b0bd 44e1 b8bc a05c b0bb
00000170: 94ac 05bd a3cb 2fbc 7d6f 73bd 2b84 59bc
00000180: b124 c5bc 93e2 95bb 7040 bfbd 357a 93bd
00000190: ac96 abbd e951 aabd c468 2bbc bbaf 883c
000001a0: aea4 5fbd 90bb 31bd 1a1c ba3c 405c a1bd
000001b0: 8a32 80bc 5b5e 32bd 094c 25bd 1331 12bc
000001c0: e982 a1bd 8857 a8bd 567d 46bc 7157 01bd
000001d0: 85e3 aebd 58d4 703c e994 a3bd acb9 bbbc
000001e0: 0143 3a3c e0b2 843a 64d5 923c 44e9 a6bd
000001f0: 18b4 1bbd 850e a4bd 9c66 d7bc e5de 32bd
00000200: c13e 953b 0701 07bd d313 2b3d fcf1 c2bc
00000210: fed3 c43b 0952 243d a1aa e43c d441 3c3b
00000220: 7dc3 0abd 7e48 3c3d 0593 ccb9 28ca 53bd
00000230: a24d 173d 424f 7cbc a3ef b13a b086 da3c
00000240: 6a8e 17bd e634 2cbd 1f89 06bd 3956 4f3d
00000250: 6568 943b 8e98 193d 1810 00bc 5dcc 38bb
00000260: 04a1 903c d9a0 0cbd d228 b5bc 8b05 02bd
00000270: 1e41 56bc 0d5b b4bb 2f4b 623d e8ee 81bb
00000280: c58b 9e3c b72a 4e3d 6c4e 3c3c 6c2b 3d3d
00000290: be7e 68bd f544 33bc 469a 53ba 2cbc 16bd
000002a0: e654 833a 9223 10bc 23ae 363b 8df8 7d3d
000002b0: 3297 00bd 7355 00bd 6680 03bd d628 273c
000002c0: 222d a1bb 6b9b e1bc 1048 3a3d 7e30 55bd
000002d0: 30bf 7bbd 195a 19bd ede0 293c a3aa eebb
000002e0: 2f83 943c b728 acbb 87d6 24bd 8fa6 5fbb
000002f0: a5dc 09bd 4f25 65b9 fc42 003d d4a6 39bd
00000300: 9d04 38bd 85f6 21bd 3453 f33b a224 b23c
00000310: 4815 f3ba 316e 13bd ab98 d53c 7227 4fbd
00000320: b7c8 493d 8036 fa3b 52de 213d 9e03 043d
00000330: 5387 083d 02b0 9aba d944 39bc 3663 503d
00000340: d4a2 4e3d cc67 87bc 7cf1 d23b 7dd3 3a3d
00000350: 4350 0fbd b81e 873c 817d d43a 6079 293c
00000360: b3ee fc39 57e1 55bc c85d e9bb e287 cbbc
00000370: 8469 823d 1a68 a2bc 38b5 f33c 8337 193d
00000380: 0d0e 403d 2b3b 4ebc f1df d2bc 8a8c 8c3d
00000390: e11e 97bc 60da 88bc cfc1 fa3b 5994 99bc
000003a0: dfdd 193d 3c94 673d 21fe 243c eb2f 593c
000003b0: 01f5 903d 57bc a5bc d078 36bd 93c8 d9bc
000003c0: 3094 563d b8de 4a3d a976 8bbc 3e6a ba3c
000003d0: fc8b 303b 481f 1cbc 057c abbc 02a3 fbbc
000003e0: 0b19 ac3c 2b04 e7bc 6e8b d7ba 0d13 903d
000003f0: bbfa 6c3d 0875 d3bc 91e4 36bd 2e1b ed3b
0.0049283123 -0.05142432 -0.03010393 -0.04279368 0.034554195 0.0181249 -0.004254442 0.007992875
-0.035565503 0.034909923 0.035995882 -0.0012950156 0.012827422 -0.0032349087 -0.0414508 -0.05643614
-0.060822915 0.004676206 -0.044276893 0.05699044 -0.039235413 0.017736213 -0.022850739 -0.02457887
-0.047055844 0.01419802 -0.022992577 -0.04284926 0.015805323 0.06427958 -0.025504623 0.019427728
0.054064665 0.038068295 -0.00947665 -0.03614758 -0.033192698 -0.00212464 -0.020583654 -0.0005119053
-0.037629027 -0.0017587836 -0.0009140388 -0.04443197 0.023374518 0.0187985 0.010877558 0.05344067
-0.02244216 0.061267998 0.05446964 0.043682624 -0.03810484 -0.05021424 -0.045740392 -0.030331833
0.04229111 0.061943963 -0.053044375 0.062725894 0.017638894 -0.039439607 0.006730988 0.017959282
0.0108465385 -0.022455676 0.01112866 0.027506668 0.031496003 -0.04302647 -0.006617667 0.011429763
-0.022331472 -0.06100991 0.045893975 0.01933877 -0.061971534 0.01943772 0.0023747855 0.0006702617
-0.061170503 0.020427242 -0.06452125 -0.016466603 -0.0031405631 -0.054323222 -0.054725733 -0.06544156
-0.0066913073 -0.08626108 -0.022568353 -0.0053821355 -0.032635286 -0.010729703 -0.059432495 -0.01327614
-0.024065347 -0.004574129 -0.09338462 -0.072010435 -0.08378348 -0.08316404 -0.01046199 0.016685357
-0.05460041 -0.043391764 0.022718478 -0.078789234 -0.015649099 -0.043547016 -0.040355716 -0.008922833
-0.07886297 -0.0821982 -0.012114843 -0.03157753 -0.0853949 0.014699064 -0.07987387 -0.022915684
0.011368514 0.001012411 0.017924018 -0.08149961 -0.038013548 -0.08010582 -0.026294045 -0.0436696
0.0045546 -0.032959964 0.041766953 -0.023797028 0.0060067168 0.040117297 0.027913393 0.002872576
-0.03387784 0.04596757 -0.0003901945 -0.051706463 0.03693927 -0.015399756 0.0013575446 0.026675552
-0.03700105 -0.042042635 -0.032845613 0.050619338 0.0045290464 0.037499003 -0.007816337 -0.0028197982
0.017654903 -0.034333084 -0.022114191 -0.031743567 -0.013077049 -0.005504018 0.055247482 -0.0039652474
0.019353757 0.050333705 0.011493307 0.04618399 -0.056761496 -0.010941734 -0.0008072 -0.03680055
0.0010019809 -0.008797543 0.002787479 0.062004615 -0.03139419 -0.03133149 -0.032104872 0.010202607
-0.0049187103 -0.02753993 0.04547888 -0.0520482 -0.061461627 -0.03743944 0.010368568 -0.007283525
0.01812896 -0.005253877 -0.04024365 -0.0034126376 -0.03365769 -0.0002185304 0.03131388 -0.045325115
-0.044926275 -0.03954174 0.00742569 0.021745984 -0.0018545771 -0.03599376 0.026073774 -0.050574727
0.049263682 0.0076358914 0.03951866 0.032230012 0.03333218 -0.0011801722 -0.0113079185 0.050875865
0.050448254 -0.016528986 0.0064374786 0.045611847 -0.034988653 0.01649414 0.001621172 0.010343879
0.0004824303 -0.0130542135 -0.0071217753 -0.024845067 0.06367782 -0.01982503 0.029749498 0.037406456
0.0468884 -0.012587349 -0.02574155 0.06862743 -0.018447341 -0.016705692 0.0076524983 -0.018747495
0.03756511 0.05653785 0.010070355 0.013256053 0.07077981 -0.020231409 -0.04454881 -0.026584899
0.052387416 0.049528807 -0.017024355 0.022755738 0.0026938906 -0.009528942 -0.02093316 -0.030717377
0.021008035 -0.02820023 -0.0016444752 0.07034884 0.057856303 -0.02581264 -0.04465157 0.007235906

encoder.0.bias f4 [47]
00000000: ce8f 22be 1359 413e a1fd 93bc 30bb 5c3c
00000010: b7d1 b93d a96c 16bd 76b5 21bd 8577 873d
00000020: 705e 963c d241 90bc 5aea babd 6786 4fbc
00000030: 7249 ddbb 0021 61bc 256a 263d 9dac 9b3d
00000040: 0a89 05bd 04f3 6bbd 1289 22bd 8fbb d33c
00000050: 19c1 9f3c 3344 4b3d b12f 91bd c78d 163c
00000060: a5f0 613d f332 adbd 11e6 c6bd 1594 563d
00000070: e816 003e ff8f a03c 3ddb e83d 636f bc3d
00000080: a4b1 063d 1a09 6dbd 5b10 913d 5e99 5abd
00000090: f298 513d 092c 24bd a46b e7bc 4c8b 333c
000000a0: bc50 99bd 353c 2cbd cedd dd3d 8491 11bd
000000b0: 7091 18bc 1230 3c3e d5ef 0fbd
-0.1587517 0.18881635 -0.018065276 0.013472363 0.09073203 -0.03672472 -0.039479695 0.066145934
0.018355578 -0.01760951 -0.0912673 -0.012666321 -0.00675314 -0.013740778 0.04062857 0.07601283
-0.032601394 -0.057604805 -0.0396815 0.02584627 0.019501256 0.049625587 -0.070891745 0.009189076
0.055161137 -0.084569834 -0.097118504 0.052387316 0.12508738 0.019599913 0.113699414 0.09200933
0.032884255 -0.057870008 0.07083198 -0.05336892 0.05117125 -0.040081058 -0.02824957 0.010958504
-0.07486102 -0.042049605 0.108333215 -0.035539165 -0.009312019 0.18377712 -0.03514083

encoder.2.weight f4 [8, 47]
00000000: 4707 c93d dd7b 113e eaac 8ebc 84ac b5bd
00000010: d6fc b23d b82f 423d 5426 28be f679 f13d
00000020: 6bba 19bd 338e 4f3d 5ae1 0d3e 8467 063e
00000030: 7bf7 d8bd 6b0c d23d 4146 87bc 017a 093e
00000040: e06e 4c3d 77f7 0ebc bd26 ab3d 7ec0 80bd
00000050: bb1c a0bd 93ac 693c b9db 063e 78a2 afbd
00000060: f3ac 413d b895 7fbd f6d4 af3c 538b 3fbd
00000070: a30f 71bd c975 e8bd c27b 4d3e f426 933d
00000080: 9602 f03d 030f 50bd 34d6 793d f7ee 83bc
00000090: de59 b3bd e063 453b 040f c4bd 7367 acbd
000000a0: 7131 9bbd 9366 6e3d 73b3 23bd 93a9 abbc
000000b0: 946d 823d f65b a43b 42ad 0bbd eb4d d53d
000000c0: 2e9b fa3d bca1 e93d 6caa 453c 4ae4 60bd
000000d0: 2bda d9bd 6a59 e6bd 7cdd cc3c bc90 debc
000000e0: 6718 a53d 59b4 d1bd a038 973d 6264 043e
000000f0: c9bb d7bd 8016 173d 673e fd3d 7a21 b6bc
00000100: f5a6 353d d09e 92bd 4bd1 0b3e 7c75 d7bd
00000110: 08a9 c03d 4d1a a63b 4a3e 02bc 40cb 02be
00000120: 02d3 663d fa13 253d c541 d0bd 646e 2ebc
00000130: 809c 65bd 71c8 753d c892 913d 7207 f0bd
00000140: c77d 033c a30b 3cbd e3d3 8fbc f7da 88bb
00000150: 52b4 92bc 9d0e 05bd 40ce 953c 6e0d 803d
00000160: 236a 15be 5d5f e3bd 8b24 623d 060a 143e
00000170: 9253 e5bc 8710 f7bd 9d90 683d 2e8e 35bd
00000180: 906c 0bbd 2074 f2bc 82f0 84bd 23bd d83d
00000190: ccba c03d f6b3 6bbd 31e1 a5bd d168 cbbd
000001a0: de0a 9e3d 5b09 433d c512 8c3d 4ed5 7fbd
000001b0: cb23 a33d b954 723c 6c96 2f3d df27 243d
000001c0: 29e5 9ebd 5f12 cbbd 5742 d3bc 92ad eabc
000001d0: 7158 3ebc c4ee fd3c 8b12 05be 788d c7bd
000001e0: 59fa 233d 32e2 b8bd 2b86 e53c 215c 933d
000001f0: 5448 1bbe 9191 163e adae ebbc ec8c ea3d
00000200: 5937 07be 6159 843d 5ed1 efbb cfdd 48bd
00000210: e1b1 b4bd 5f54 ae3d 3193 aebc b411 ca3c
00000220: a518 c4bd 7b25 a73d ce50 04be 5e27 ec3c
00000230: 5afb 363d 4f48 a0bd d116 803d 9ad2 3c3d
00000240: 49b7 ecbd a2ab b6bd 461a 77bc b0ac 06be
00000250: d09a e53d e23f d43c e11a 9abd a121 b5bd
00000260: f14b 633d b9b7 bcbd 2641 0d3e 1bcc 55bb
00000270: b594 81bc ea18 f1bd ecbd f4bd aa83 d9bd
00000280: 0eb3 a43c 005b 4c3d fdbf 48bc 1633 06be
00000290: 5949 9d3d c5f0 4a3d aeda 4abd f4e4 be3d
000002a0: ecae 46bd d4fe 2f3e 7e96 923d 7ae3 d33d
000002b0: 2def ebbd 92f5 4cbb 53d8 a53d 19d6 53bd
000002c0: 1721 1ebc c11e d63d 20d5 0fbc f78a dabd
000002d0: 32e1 94bb 7364 0dbd 0d0f 043d 3f05 fd3d
000002e0: 573b 3bbc e0f9 b33d 04c0 133e bcd9 f6bd
000002f0: 336a c1bd 371c 1e3e f42d ee3d 6ec9 b1bd
00000300: 16d7 f7bc 7f85 773d 6045 09be e12f 01bd
00000310: b1d2 b43d c91c fdbc 29a4 e8bd 3ed0 0a3e
00000320: f59f bcbd b46f 7b3d cbd4 8e3c f105 c73a
00000330: 7623 b3bd 8f11 1dbd ca6e f63d 3c92 7fbd
00000340: 0b07 163d 03c1 903d 8ed3 ec3c cc19 4cbd
00000350: 6367 c8bd feb3 c9bd 1788 9fbd 0b45 82bc
00000360: 8101 303d 83c1 1a3e a9d9 af3d cff1 d83d
00000370: 547b 093d 4f78 febd d9f2 c83d 5be7 8e3d
00000380: 6895 3d3d 82b2 353c 3d65 0b3e 8e94 3dbd
00000390: 7009 6fbc fb71 5b3c 8493 553b 4ce8 44bd
000003a0: f9a1 66bc a72d 6bbd ab3f 5cbd a874 863d
000003b0: 335f 8abd d751 a5bd 8dbf dd3b 0c05 3ebd
000003c0: ac0f 8b3c 86b1 aa3c 9d48 9c3d f851 82bd
000003d0: 1981 b3bd a60f e33d 46c9 8bbd 8efc acbd
000003e0: 6c21 053e 425c 62bd e571 3f3d ba10 de3c
000003f0: 4b54 733d faa9 3cbd dc1f ebbd c33c ff3c
0.09815841 0.14207406 -0.017416436 -0.08870795 0.08739631 0.04740879 -0.16420871 0.1179084
-0.037531298 0.05067272 0.13855496 0.13125426 -0.10594078 0.10256275 -0.016512992 0.13425447
0.049910426 -0.008725992 0.08356998 -0.06286715 -0.0781798 0.014262336 0.13169755 -0.0857591
0.047284078 -0.062398642 0.021463852 -0.04676373 -0.058852803 -0.11350591 0.20066741 0.07185164
0.11719243 -0.050795566 0.060995296 -0.016105158 -0.08757375 0.0030119345 -0.095731765 -0.08418169
-0.075777896 0.05820329 -0.039966058 -0.020954883 0.063685566 0.0050158454 -0.03410078 0.10415252
0.122366294 0.114078015 0.0120645575 -0.054905213 -0.10637315 -0.11247523 0.025007956 -0.027168624
0.08061295 -0.10239477 0.07383847 0.12928918 -0.10533864 0.036886692 0.12365418 -0.02223276
0.044348676 -0.07159197 0.13654058 -0.10520455 0.0940724 0.0050690533 -0.007949421 -0.12772846
0.056353576 0.040302254 -0.101687945 -0.010646436 -0.056057453 0.06000561 0.071080744 -0.1172017
0.008025593 -0.045909535 -0.01755709 -0.0041764933 -0.017908249 -0.03248464 0.018286824 0.062525615
-0.14591269 -0.111021735 0.05521063 0.14456949 -0.027993951 -0.12063699 0.05677854 -0.044325046
-0.03403908 -0.029596388 -0.06491186 0.1058295 0.09410629 -0.05754467 -0.080995925 -0.099321015
0.077169165 0.047616344 0.068395175 -0.062459283 0.07965811 0.014790707 0.042868063 0.040077087
-0.077585526 -0.099156134 -0.02578847 -0.028647218 -0.011617766 0.030997641 -0.12995355 -0.0974378
0.040033672 -0.09027518 0.028018078 0.071953066 -0.1516431 0.14703967 -0.028769815 0.1145266
-0.13204707 0.0646236 -0.0073186597 -0.04903966 -0.0882299 0.08512186 -0.02131042 0.024666645
-0.09575013 0.08161446 -0.1292145 0.028827365 0.0446733 -0.07826292 0.06254352 0.046099283
-0.11558396 -0.08919455 -0.015081948 -0.13151813 0.11211169 0.025909368 -0.07524658 -0.08844305
0.055492345 -0.0921473 0.13794383 -0.0032622877 -0.01581798 -0.1177233 -0.11950287 -0.10620816
0.020104911 0.049891472 -0.012252805 -0.13105425 0.076800056 0.049546022 -0.049524955 0.09321013
-0.048506662 0.17187053 0.0715761 0.10346122 -0.115202285 -0.00312743 0.08097901 -0.05171785
-0.009651444 0.104550846 -0.00877884 -0.10671037 -0.004543447 -0.034519624 0.032240916 0.12354516
-0.011427722 0.08787894 0.14428717 -0.12053248 -0.09444084 0.1544045 0.116298586 -0.08680998
-0.030253928 0.060430046 -0.1340537 -0.0315398 0.08829249 -0.030897515 -0.11359436 0.13556
-0.09210197 0.061385825 0.017435452 0.0015184266 -0.08746998 -0.038346823 0.1203285 -0.06239532
0.03662781 0.07068064 0.02890947 -0.04982929 -0.097853445 -0.09848784 -0.07789629 -0.015902063
0.042970184 0.15112881 0.08586437 0.10592996 0.03356488 -0.12425291 0.098119445 0.06977721
0.046285063 0.011089923 0.13612838 -0.04628425 -0.014589652 0.013393874 0.0032589147 -0.048073098
-0.014076703 -0.057416584 -0.053771656 0.06565219 -0.06756439 -0.0807225 0.0067672194 -0.04639153
0.016975246 0.020836603 0.076310374 -0.063632905 -0.08764858 0.11086969 -0.06825499 -0.084466085
0.1300103 -0.055263765 0.046739478 0.027107585 0.05940656 -0.04606054 -0.11480686 0.031156903

encoder.2.bias f4 [8]
00000000: cb45 5ebd 94f7 b2bd 98ee 06be 35bf 7f3d
00000010: db9e 203e 6399 453d 7dd7 1e3e 7dde cb3d
-0.05426578 -0.08738628 -0.13176954 0.06243821 0.15685599 0.048241984 0.1551189 0.09954546

decoder.0.weight f4 [47, 8]
00000000: e702 8abd 2117 d43d 0fbc 68be 02ab fdbd
00000010: 06c9 793e 20c8 433d cbfa 8d3d 8c74 95bc
00000020: 8a85 bfbd 08e9 c2bc 2934 f4bd 5913 71be
00000030: 00d1 613e 5682 0e3e 3bc5 56be 2037 82be
00000040: 205f f53d 8bbe 02be 201b 79bd e167 d93d
00000050: cbb2 8d3e 7fb5 cd3d cb32 bcbe ea70 1d3e
00000060: 8a13 debd 03fd b23e 904c 083e e283 3ebe
00000070: e97f 9ebe 4867 783e 0622 b73c 7234 45be
00000080: 4180 453e 5aa0 aabd cd46 863e 8d4a 713e
00000090: 4052 c5bd 5543 eb3d 93d6 863e c665 83be
000000a0: 09e2 48be 192e 063e 9089 0ebe 9ef8 f13d
000000b0: e54c 3abc 7472 2f3e 8ae6 f33d c268 133d
000000c0: d2f2 623e b698 bdbd 7441 8c3e 1374 0ebe
000000d0: 7ddd 4c3e a492 123e b160 2cbe 0538 2c3e
000000e0: 5f83 0c3e e05e 943d d061 8a3d 7912 21be
000000f0: 303e 4cbe 86b2 12be 97f9 863e 2a24 a1bd
00000100: c2d8 883e b4a8 5dbd 7d1a 643e 6a91 25be
00000110: f05d b9bd 4c93 1abd e623 823d d052 973e
00000120: 3c88 85be 73c5 b3be 5ff7 85be 78ad 933e
00000130: df4e 34be 77cb 0e3d 77ef 48be 7030 debb
00000140: f245 083c 8c57 6bbe bb50 963c f068 77be
00000150: e2a0 5a3e 20db 0c3e 3ac8 933d 72e2 f43c
00000160: ab19 5ebe c534 7abe d780 453d a0dd 48be
00000170: 0623 313d 0af7 a53e 6cb4 67be aac0 1c3e
00000180: 1e32 5a3c d386 45be 8595 bbbd 5f32 73be
00000190: c9c5 91be 3d19 fa3d be4f 5b3e 90e8 8e3e
000001a0: baca 73be 38ce 52be 3c5f d93d fde8 9b3e
000001b0: a9bb 8bbd 109c d8bb 3f63 b3be 7692 1abe
000001c0: 1db1 d93d f3e7 a93e 5fc1 2a3e d3bb b63d
000001d0: a400 82be baea 363d f37d 84be ce41 f03c
000001e0: ed6a 0abe ccf3 b73d beb6 22bd 30b2 2c3e
000001f0: dc02 26be 7d39 743d 98a7 1a3e bcb1 923e
00000200: 0819 bdbe 5440 55be 1f86 173e 5840 71be
00000210: a829 593e fba7 91bd 5bd4 27be c9cd df3e
00000220: 3150 573b aa19 833e b9a6 7cbe cbdd c7bd
00000230: c815 473e 33c1 66be 7806 79be 2918 c4be
00000240: 43f5 b0be 5654 443e 556b cc3d ceed 083f
00000250: eac0 26bd 3e19 b3be 0a67 97be 1ef7 a6bd
00000260: 0eab 833e 6ee5 8e3e c256 303e 51a3 45be
00000270: 96d6 763e b23f 1fbd 316e 353d 4007 663e
00000280: 59ee 1a3e 4c61 8b3d b197 c43d 6ddb 62be
00000290: 0da4 ae3e b8c6 96be 27ea 643e 9079 78be
000002a0: 21b7 113d 8650 7e3e d37d c53a fada b9bc
000002b0: c417 063e 5186 bf3d 2f36 e13c 0f71 623c
000002c0: 1faa 9f3e 193c ad3e c25a 07be 679b 5f3e
000002d0: 1238 a53e ef16 24be a6ea debd e7b2 95bd
000002e0: 33d1 4a3e d6cf a1bd 577d 913d 10c6 6b3e
000002f0: 3afb 46be 03ae debd 8251 bf3e 2dc6 4b3e
00000300: 75a0 f03d e27c 9ebe fa72 0f3e f97a 2e3e
00000310: fb04 533e 3919 d4bd 4484 a93d 054a 41be
00000320: f221 34bd 4477 863e 4e4b 793d 6aaa 7ebe
00000330: 33fe cc3d 7a3b 6bbe c3b0 8e3d 7d87 213e
00000340: da7f 113c 620d 903d 5ba2 25be c233 fbbb
00000350: ff77 a53e 220a 123e ee61 8e3d 7707 8c3e
00000360: c849 86be 7c4a 573d 7d8c 753e 1986 843d
00000370: 1813 87bd d2a8 283e abb2 29be 6d42 9c3e
00000380: b972 ddbc 1aaa 88be 386c 85bd 2767 8cbe
00000390: 6ff3 0cbe 2a37 97be 15cb c63d 9fc1 8ebe
000003a0: f6be 3cbe e992 d93c c2b5 9dbe bad8 0dbd
000003b0: 186a 0cbe 8f11 5dbd e927 9abe 45fd 4d3e
000003c0: 1ad0 9f3e b551 79be 5e74 073e e7b5 58be
000003d0: 9e46 923e 29a5 99be ce43 6e3e 9f3a f73d
000003e0: 6415 803d 5e00 243e 6fd2 ffbd a0a2 8b3d
000003f0: ebc6 55be 3bf0 92be dc6b 9abe 4898 013d
-0.06738835 0.10355974 -0.22727989 -0.12386133 0.2439309 0.047798276 0.069326006 -0.01824405
-0.093516424 -0.023792759 -0.11924011 -0.23542537 0.22052383 0.13916907 -0.20973675 -0.25432682
0.11981034 -0.12767999 -0.060816884 0.106155165 0.2767547 0.10044383 -0.36757502 0.15375105
-0.108435705 0.34958658 0.13310456 -0.18604997 -0.30956963 0.24258149 0.02235509 -0.19258288
0.19287206 -0.08331366 0.26225892 0.23563595 -0.096348286 0.11487452 0.26335582 -0.25663584
-0.19617476 0.13103522 -0.13919663 0.11814998 -0.011370872 0.17133504 0.11909206 0.035988577
0.22162941 -0.09257643 0.27393687 -0.13911466 0.20006366 0.14313751 -0.1683376 0.16818245
0.13721989 0.072446585 0.067569375 -0.15729703 -0.19945598 -0.14325914 0.26362297 -0.07868226
0.26727873 -0.054115966 0.2227573 -0.16168752 -0.0905112 -0.03773813 0.06354503 0.29555368
-0.260805 -0.3511158 -0.26165292 0.28843284 -0.17608212 0.034862008 -0.19622599 -0.0067806765
0.0083174575 -0.22982615 0.018349042 -0.24161124 0.21350434 0.13755465 0.072159246 0.029893134
-0.21689479 -0.24434192 0.048218574 -0.19615793 0.04324629 0.32415038 -0.22627419 0.1530787
0.013317613 -0.19289713 -0.09159378 -0.23749684 -0.2847121 0.12211845 0.21417138 0.27911806
-0.23807803 -0.20586479 0.10613868 0.30451193 -0.06822903 -0.006610401 -0.35036656 -0.15094933
0.10629485 0.33184776 0.16675328 0.089225434 -0.25391114 0.044657446 -0.25877342 0.029328253
-0.13517351 0.089820474 -0.039725058 0.16864848 -0.16212028 0.059625138 0.15102994 0.28651226
-0.3693316 -0.2082532 0.14797257 -0.23559701 0.21207297 -0.07112118 -0.16389601 0.4371169
0.0032854194 0.25605518 -0.24672975 -0.097591005 0.19441903 -0.22534637 -0.24318874 -0.38299683
-0.3456212 0.19172797 0.099814095 0.5348786 -0.04071132 -0.34980196 -0.295708 -0.081526026
0.25716442 0.27909416 0.17220595 -0.19300582 0.24105296 -0.038879104 0.04429454 0.22463703
0.15129985 0.06805667 0.09599245 -0.22154017 0.34109536 -0.29448485 0.22354947 -0.24265122
0.035575036 0.24835405 0.0015067406 -0.022687424 0.13095003 0.09351791 0.027491657 0.013820901
0.3118448 0.33834913 -0.13218215 0.21836625 0.3226934 -0.16024373 -0.108845994 -0.073095135
0.19806366 -0.0790097 0.07103985 0.23024774 -0.19431773 -0.10873034 0.37366873 0.19899817
0.11749355 -0.30954653 0.14008704 0.17039098 0.20607369 -0.10356373 0.08277181 -0.18875892
-0.043977685 0.26262867 0.06086283 -0.24869695 0.10009422 -0.22971907 0.06967308 0.15774341
0.00888058 0.070338026 -0.16175215 -0.007666082 0.32318112 0.14261678 0.06952272 0.27349445
-0.26228166 0.05256127 0.23979373 0.064708896 -0.06595439 0.1647065 -0.16572063 0.3051943
-0.027032243 -0.26692277 -0.06514782 -0.2742245 -0.13764738 -0.29534274 0.097067036 -0.27882096
-0.18432221 0.02655931 -0.30802733 -0.034630515 -0.13712347 -0.053971823 -0.30108574 0.20116146
0.31213456 -0.24347575 0.13227984 -0.2116314 0.28569502 -0.3000882 0.23268053 0.12071728
0.0625408 0.16015765 -0.12491309 0.06818128 -0.20876662 -0.28698906 -0.30160415 0.031639367

decoder.0.bias f4 [47]
00000000: 65fa 0cbc 29ee 04be fb07 93be a729 713e
00000010: a193 a63d 969e 0dbe cfab ca3d 00e5 a1bd
00000020: 2f05 883d aac6 0b3e 9377 ca3d c8d5 4e3d
00000030: bdc6 103c 5313 6d3c e3b1 153e f8e9 5a3c
00000040: 0a5c 3e3e c4a2 a0bd 440a 493d c1d7 cdbd
00000050: 5159 92bd f89f 50bc 8cc0 b43d bcde 2cbc
00000060: 3ae0 79be 8f12 183e a8c0 6bbe 5bd3 1e3e
00000070: bc3f 323e 791c f6bc db0f 583c dfd2 b33d
00000080: 7954 11be 2668 2c3c b972 6e3c ee9b 0f3e
00000090: 3453 13be 16f5 0a3d 3efc 243e 60eb 4c3e
000000a0: 457f febb 5e84 9ebe 1df9 97bc c51e 45be
000000b0: 8487 14be 4f64 23be d728 e9bd
-0.008604621 -0.12981476 -0.28717026 0.23551045 0.08133627 -0.13830027 0.09896051 -0.079050064
0.06641614 0.13650003 0.09886088 0.050496846 0.008836445 0.014469939 0.1461864 0.013361447
0.18589798 -0.07843545 0.049082056 -0.100509174 -0.07145942 -0.012733452 0.08825788 -0.010551151
-0.24401942 0.1485083 -0.23022711 0.15510313 0.17407125 -0.030042874 0.013187374 0.08780455
-0.1419238 0.010522878 0.014553719 0.14024326 -0.14387208 0.03392514 0.16111848 0.20011663
-0.0077666366 -0.30960363 -0.018551404 -0.19250019 -0.1450482 -0.15956233 -0.11384743

decoder.2.weight f4 [282, 47]
00000000: 059b 86bc b29f 873c 63e6 b0bd e6fb a4ba
00000010: 00cc ca3d 4cd5 483d d690 79bc ab7c ef3d
00000020: 2908 153e 5244 f7bc 2aa2 92bc f775 093e
00000030: 23e9 ff3d d936 ecbd 12d9 103e 9379 e93d
00000040: e327 ca3c d5fc c0bc f80c 10be c0bb af3a
00000050: a972 afbd dbaf 903d 1cca 82bd 887f b03d
00000060: a5b3 20be 60a5 1f3c 9152 81bd c706 f13d
00000070: 3b0e 9cbb ba49 863d 5afb 2cbd 1df4 65bd
00000080: 9a64 343d 5466 05be 0a82 d63d 2a92 b53d
00000090: 86b4 9ebd b367 9bbd 5e48 45bc e77a 573d
000000a0: e078 04bd 29fe 6a3e 0555 b1bd 1b9f 0abd
000000b0: 3a68 8d3c c9b9 4cbd 4243 99bd 7b79 e0bd
000000c0: 5b47 3a3d a9b1 91be 2c66 0d3e 76f2 de3c
000000d0: a37f bdbd 64ca 883d 96a5 27bd 9b0e 323d
000000e0: 9b20 4c3e 44c2 953b 47e9 6a3d abd2 67bd
000000f0: a757 b4bd fdb8 d83d 8d64 e53d 4fe2 133c
00000100: 6013 62bd 4246 6bbd 1073 d33d ae14 8cbd
00000110: 46eb 9ebd 9d6d c5bd fb97 37bc 9291 a93d
00000120: a75b a1bc b7c8 cc3d 4716 253e 6b13 15be
00000130: 171c db3d 3c03 363d 0657 3f3c fc6d f9bd
00000140: ddb5 663d 6acf c2bc 70d4 2b3e 2cc2 8b3d
00000150: edd6 4abe 603f eb3c be7a 2fbe 6b57 ffba
00000160: 6987 1d3e be7b babc fc02 e638 49f1 f9bc
00000170: 0397 903d 4414 0fbd 8f0b 0bb9 2121 babd
00000180: 8a21 30be 757a 6cbc 3926 35bb 94ce 1c3e
00000190: 2093 57bd 8d37 9abd 3792 0c3e 657f 2f3e
000001a0: e057 d8bd cd41 4c3e ef6c 9c3d 53da 90bd
000001b0: f8af a2bc 7833 353d 507b 683e 418c 93bd
000001c0: 68d9 8cbd 6802 a2bd 56dc dc3c 978e a83d
000001d0: 48d5 0fbd 9e8f 9fbd d2bd 0fbd ed71 063e
000001e0: e448 e53d a3b8 4abb 5ff1 f63c fcbe 443e
000001f0: 6d1c 473d 087c e33d 1d52 bdbb 6b24 843d
00000200: a9e8 a5bc 1bf4 bfbb a1d0 10be f99c c8bd
00000210: 942f 733d e9c6 ccbd 7972 2b3e 5c02 7abd
00000220: 83da 36bd acd7 bcbd 5caf c73c 1220 b73d
00000230: 845f b2bd 37fc 05be dd92 553c 2719 9cbe
00000240: d853 4a3e 314a 30be e0ca 273e 2aa2 443c
00000250: 3bb7 19bd 4471 2c3e 88ec c3bb 7222 7e3d
00000260: 13b2 083d 4f69 1ebd 462e 2bbd 94dc 96bd
00000270: 1906 6eba 1f5b 513e 8c87 e0bd c7c9 b53c
00000280: 1a02 9d3d bc2f 043d 5611 e9bd 54af 0fbe
00000290: dcc7 0f3d 50ae b73d 8889 6f3d 7c48 8a3d
000002a0: e27c 0f3e 4c3d 743d 2b14 c8bd 08fb 0cbd
000002b0: 4af0 f93d 8eb8 d13d 8cbb fa3c e7c9 763c
000002c0: ea89 a0bd c0d8 c9bd 67d6 dfbd 30c8 0dbd
000002d0: ed72 0abe 2ce9 2ebd 66f4 32bd caa1 ea3d
000002e0: f48e f33d f7a8 0c3c fe05 9fbc f34a d33d
000002f0: 3700 06be fdc2 c539 29fa 55be 97fb e33d
00000300: 5287 50bd f995 b73d c0a5 c8bc b87f d13d
00000310: 94b7 9a3d 89f5 0b3e d778 b6bd 23a8 843d
00000320: a23e 153e 2702 debd 9c37 5cbd db1b 703d
00000330: f093 f33c df98 213b 1cd1 b0bc 723b df3c
00000340: 526c 14bd ee22 893d 730a 1dbd 7f97 b43c
00000350: 2617 1939 8688 c83d c107 00be b9c3 debb
00000360: 77d0 433d 31dd 953d 297b cebb 1139 163d
00000370: 70a4 f43b 2b85 87bd 89b7 153e 39a5 24bd
00000380: a666 17be c0df 0abd dd2a f53d 85c9 94bd
00000390: 21b9 c23d 926a 553d 9eb8 87bd a55a dd3c
000003a0: d9d8 4ebd d12f 93bc 3554 eebc cc79 d2bd
000003b0: 9655 cb3b 0e81 31be fd0b 9cbd f6fb f9bc
000003c0: ce50 09bd 4ff4 e13d 8997 df3d afc0 1d3e
000003d0: a84f 273d a949 9bbd 34d7 d93d c79c 5c3d
000003e0: 43bc 10bd 0456 8b3d d6e7 8ebc d946 933d
000003f0: c15e 993d c4a8 96bd 67ef aebd 3561 a8bc
-0.016431341 0.01655564 -0.08637693 -0.0012587279 0.09902191 0.04903154 -0.0152322855 0.116937004
0.14553894 -0.030183945 -0.017899591 0.13423906 0.12495639 -0.11533899 0.14145306 0.114001416
0.024677223 -0.02355806 -0.14067447 0.0013407394 -0.085667916 0.07064792 -0.063862056 0.08618075
-0.15693529 0.009744018 -0.063145764 0.11768871 -0.0047624386 0.06557031 -0.042231895 -0.056141008
0.044041254 -0.13027316 0.10474022 0.08865769 -0.07749276 -0.075881384 -0.012041179 0.052607443
-0.032341838 0.22948517 -0.08658794 -0.03384314 0.017261613 -0.049981866 -0.074835315 -0.109606706
0.045478206 -0.28455856 0.13808507 0.027215224 -0.092528604 0.06679228 -0.0409294 0.04347096
0.19934313 0.0045702774 0.057351377 -0.056597393 -0.08805781 0.10582159 0.11200819 0.009026124
-0.05519426 -0.05744005 0.10324681 -0.06839882 -0.077597186 -0.09640048 -0.011205669 0.082797185
-0.019697024 0.09999221 0.1612178 -0.14558189 0.10698717 0.04443668 0.011678463 -0.12179181
0.056325782 -0.023780543 0.16780257 0.06824145 -0.1980855 0.028716743 -0.17136666 -0.0019481009
0.15383686 -0.022764083 0.000109678105 -0.030510562 0.07060053 -0.034931436 -0.00013260379 -0.0908835
-0.17200294 -0.014433493 -0.002764119 0.15313178 -0.052630544 -0.07530127 0.13727652 0.17138441
-0.10563636 0.19946976 0.07637965 -0.07072892 -0.019859299 0.044238538 0.2270329 -0.07204486
-0.068774045 -0.07910615 0.026960533 0.08230322 -0.03511551 -0.07791065 -0.035093136 0.13129397
0.111955434 -0.0030932806 0.030144392 0.1921348 0.048611093 0.111076415 -0.005777611 0.06452259
-0.020252543 -0.005857957 -0.14142086 -0.09795565 0.059371546 -0.099988766 0.16742887 -0.061037406
-0.044641983 -0.09220824 0.02437561 0.08941664 -0.087096244 -0.13084494 0.013035503 -0.3048794
0.19758546 -0.17215802 0.16385984 0.012001554 -0.037528258 0.16840082 -0.0059791245 0.06204457
0.03337295 -0.03867465 -0.041792177 -0.07366291 -0.0009079888 0.20444916 -0.109633535 0.022190941
0.076664165 0.032272086 -0.1138026 -0.14031726 0.03510271 0.08968794 0.05848077 0.067521065
0.14012483 0.05962877 -0.09769472 -0.03441909 0.122040346 0.10240279 0.030607007 0.015062786
-0.07838805 -0.09855795 -0.10929566 -0.03461474 -0.13520403 -0.04270284 -0.043690108 0.1145664
0.118925005 0.008585206 -0.019412037 0.1031703 -0.1308602 0.00037720046 -0.2089621 0.11131971
-0.0509103 0.08964152 -0.024493098 0.102294385 0.07554546 0.13667883 -0.08909767 0.06477382
0.14574674 -0.10840254 -0.05376397 0.058620315 0.029733628 0.0024657769 -0.021584086 0.027250025
-0.036236115 0.066961154 -0.038340043 0.022044895 0.0001459984 0.09791665 -0.12502958 -0.0067982343
0.04780623 0.073175795 -0.006301303 0.036675517 0.0074658915 -0.06617197 0.14620794 -0.04019663
-0.14785251 -0.03390479 0.11971066 -0.07264999 0.09507967 0.052103586 -0.0662701 0.027020762
-0.05049977 -0.017967137 -0.029092887 -0.10277137 0.006205271 -0.17334387 -0.07619474 -0.030515652
-0.033524327 0.11032926 0.10917575 0.15405534 0.04084745 -0.07582409 0.1063675 0.053860452
-0.03533579 0.068035156 -0.017444532 0.071912475 0.07488776 -0.07356408 -0.08541756 -0.020554164

decoder.2.bias f4 [282]
00000000: 8f48 f3bc dfaf abbc ad35 8bbd 3be9 b6bc
00000010: 3b88 20bd bcdb bbbc d055 133d 4945 8fbb
00000020: 2bc6 0fbd c153 68bd 9c5c 6b3d 77ca 27bd
00000030: 8f26 ae3b caa5 83bd d958 393c 81a3 953b
00000040: 4afa 5abd a81e 033d 4f1a 8abd 8595 833d
00000050: ce35 973c bb69 cdbc a1f9 313d fc10 2ebd
00000060: c887 043d 8b8d 7bbd bc14 213d e50c ca3c
00000070: 4386 273c 78a4 03bc 4972 a7bd 5ccf 233d
00000080: 4bdf c13b d6d0 a73c 71dd 6bbd 14c4 873b
00000090: dbe1 cc3c 5d19 1eb9 fd93 333d c537 50bc
000000a0: c3ea 733d 9369 00bb 4eb4 5e3d 98c1 1cbb
000000b0: 96f4 003c 3b17 dc3c 2572 373d 6a17 b13d
000000c0: ba91 13bb d95c 43bc 92de 14ba 587d f6bc
000000d0: 9946 a53d 92fe 9ebb 890a 54bc ab9c c8bc
000000e0: d24b 383d 473d 1eba 0c79 333d 0cac 413d
000000f0: be47 1abc 820e b03b 0291 1d3d 12f4 18bc
00000100: a8d3 3c3d a422 053d b5ba 08bc ca6b 11bd
00000110: 0d50 4e3b 3da0 823b 056b 3abd 3940 963c
00000120: de27 a93c 2286 e53c 0a98 e03c 5e90 90bd
00000130: 7aaf 5bbd 9dab 2d3d 99fb 47bd 6704 05bd
00000140: 1700 76bd 1976 053d 6d47 0f3d 5a09 13bd
00000150: 9777 84bd accb 80bc 16f7 5cbc 080b cf3c
00000160: 5b25 0dbd 6403 8d3c 1682 91bd 504c b6bd
00000170: 308f 53bd 7d4c 1bbd cd12 8abd 9eec aabd
00000180: 6f65 74bc b6cc 9fbc 12c3 bfbc 9b11 c7bd
00000190: 51b6 02bd 3cca b8bd 80df 3abd 8183 a83b
000001a0: 828a 103d e944 92b9 df17 53bd 71ef f23c
000001b0: 02a9 51bc 89bd 98bd 112f 533d afad babd
000001c0: c18e 54bd 397e c1bc 7098 a1bc a6aa 413b
000001d0: 6e94 ff3c e035 72bd 74ad 273c 7a96 ebbc
000001e0: 84be 2bbd d211 d1bb e2bd 873b 3b74 55bc
000001f0: abb2 4fbd 3241 853d 5706 3cbc 6fe2 92bc
00000200: 3e23 9fbd 8a28 69bc b842 4bbd fd51 363b
00000210: e016 e436 fff2 8abc 020a b73c cbe4 75bd
00000220: 60ab 1ebc 7e96 a23c c345 afbb ada8 893a
00000230: f016 fb3c 9ce4 0cbd 9e7d 583d 791a 553d
00000240: cb32 023d 8e35 513c 10aa 253d cb11 2fbd
00000250: d212 6b3d a1ab cf3b a274 843d ace9 39bd
00000260: 4e20 983b 990d 573d 66ec 30bd a37d 673d
00000270: adb9 fc3c e676 c4bb 0582 e13c 4906 00bc
00000280: 0eb3 203c 41e6 5dbc 0681 a53b 9a01 d0bc
00000290: 5bbb 9ebc e65c 65b9 cb72 a0bd 51db 043d
000002a0: be5a 47bd 9cfc 3c3d 9d02 cfbc 6ce7 6cbd
000002b0: 6b4d 923c 18ed 893c e8ad 723d 29e1 ebbc
000002c0: b18c 1bbd 50f1 fd3c e088 0cbd 2313 443d
000002d0: b4b8 a7bc c3a9 7e3d bc97 f9bc 2ccc 473d
000002e0: c9c7 ee3c 92b8 f9ba 814e b4bc a7fc 8f3c
000002f0: 3342 18bd 2b45 6b3d 4a97 833d 124e 09bc
00000300: 3dc7 59ba a8ad 593d aa6f 863c b8b9 d63c
00000310: 10c4 8fbc 0b0c b03c 23af c8bb f750 fcbb
00000320: 3b5d 0c3b b7be c73c b44d 4dbd 77d5 fe3c
00000330: 24d2 49bd 3e3c 6dbd 970b 95bc fbf2 39bd
00000340: 3a5e a23b 06d0 db3a 6c5f 103d 413c 69bc
00000350: 96bd 933c 98ef 2a3d d8c4 983c 6909 a73d
00000360: 5b19 11bd b817 0bbc 1081 203d 2e9d 96bd
00000370: e92d cf3c 70c6 863c 80ac ca3c 28ff f73c
00000380: 7b9a 30bd e179 f73c 2d0b 12bc 6889 1bbd
00000390: 99db 54bd e8c8 22bd bc16 063b 6145 fc3c
000003a0: 7b2e 173d 6e71 26bd bc3a b5bc 5baa eb3a
000003b0: 5e72 753c e090 663d 65a2 f1bb bb59 153d
000003c0: 6e83 d63c f691 003d ab2f 50bc 36b0 4f3d
000003d0: 0513 863d 4656 bf3c c6f0 08bc 5f8b 2f3d
000003e0: 1d51 a4bc 832f 233d 7328 1f3c 7446 ec3c
000003f0: 775d 913c b64b 883d 7ba8 063d cb50 983d
-0.029697685 -0.020957885 -0.06797347 -0.02232801 -0.03919242 -0.022931926 0.03597051 -0.004372273
-0.035101097 -0.0567205 0.057461366 -0.04096457 0.005314655 -0.06428106 0.011312687 0.0045666103
-0.05346135 0.032011658 -0.06743299 0.06425003 0.018458273 -0.02507483 0.043450955 -0.042496666
0.032356054 -0.061414283 0.039326414 0.024664352 0.010224882 -0.008034818 -0.08176095 0.039992675
0.005916511 0.020485323 -0.05758423 0.0041432474 0.02501004 -0.00015077503 0.043842304 -0.012708609
0.059550058 -0.0019594177 0.05437117 -0.0023919102 0.007870814 0.026866546 0.04478659 0.08647044
-0.002251728 -0.011923992 -0.00056789175 -0.030089065 0.08070106 -0.0048521245 -0.012941965 -0.024488768
0.044994183 -0.0006036353 0.04381661 0.047283217 -0.009416519 0.005372823 0.03846837 -0.009335535
0.04610029 0.03250374 -0.008345296 -0.035503186 0.003148082 0.003986387 -0.045512218 0.01834117
0.020648893 0.028018061 0.027416248 -0.07058786 -0.053634144 0.04239999 -0.048823927 -0.0324749
-0.06005868 0.03258333 0.034980226 -0.03589759 -0.064681225 -0.015722118 -0.013486644 0.025273815
-0.034459453 0.01721353 -0.0710489 -0.08901274 -0.051650226 -0.03791474 -0.06741867 -0.083459124
-0.014916762 -0.019506793 -0.023408446 -0.09720155 -0.03191215 -0.09022948 -0.045623302 0.0051426296
0.03528834 -0.00027898632 -0.051536437 0.02965519 -0.012796642 -0.07458026 0.051558558 -0.09115159
-0.051893953 -0.023619758 -0.019726008 0.0029551177 0.031198706 -0.05913341 0.010234226 -0.028758276
-0.041929737 -0.006380298 0.004142509 -0.0130282 -0.0507075 0.06506576 -0.011476121 -0.017930238
-0.07770394 -0.014230857 -0.049624175 0.0027819865 6.7975925e-06 -0.016961573 0.02234364 -0.060032647
-0.009684414 0.01984715 -0.0053488924 0.001050254 0.030650586 -0.034397706 0.052854173 0.0520272
0.03178672 0.012769116 0.040445387 -0.042741578 0.057390995 0.0063375984 0.064675584 -0.045388862
0.004642523 0.052503202 -0.043194197 0.0565163 0.030850256 -0.005995619 0.027527818 -0.0078139985
0.009808315 -0.013543666 0.005050781 -0.025391389 -0.019376447 -0.00021873749 -0.07834395 0.03243572
-0.048670523 0.046139345 -0.0252698 -0.05783789 0.017859181 0.016836688 0.05924788 -0.028793888
-0.03797597 0.030998856 -0.03431022 0.047869813 -0.020473816 0.062173616 -0.03046786 0.048778698
0.029148 -0.0019052199 -0.02201009 0.017576529 -0.037172507 0.05743901 0.064253405 -0.00838043
-0.0008307582 0.053144127 0.016410667 0.026211604 -0.017549545 0.021490118 -0.0061243935 -0.0077000814
0.0021417874 0.024382932 -0.05012293 0.031107647 -0.04927267 -0.05791878 -0.018194003 -0.04539774
0.0049550803 0.001677037 0.03524725 -0.014235557 0.018034738 0.0417324 0.01864855 0.08156092
-0.03542457 -0.008489542 0.039185584 -0.073541984 0.025290446 0.016452044 0.024740458 0.030273035
-0.043116074 0.030209484 -0.008913797 -0.037972838 -0.051967237 -0.03974238 0.0020460328 0.030794801
0.03690956 -0.04063552 -0.022122733 0.0017979847 0.014980881 0.056290507 -0.0073740953 0.036462527
0.026185717 0.0313892 -0.012706677 0.050705157 0.065465964 0.023356568 -0.008358186 0.042857524
-0.02005821 0.039840233 0.009714234 0.028842188 0.017744763 0.06655066 0.03287552 0.07437285
