autoencoder_3.pth (torch, 121160 bytes, 8 tensors)

encoder.0.weight f4 [50, 282]
-0.0088717695 0.014441301 -0.029180171 -0.026122078 0.011853116 -0.051452897 0.049076665 0.030107683
-0.0123781115 0.045271136 -0.02628209 0.05962731 -0.018560432 0.036933377 0.05404541 0.036536817
-0.008308902 -0.025689125 0.00029145024 -0.0144286705 0.037944794 -0.016812066 0.014687709 0.063513696
-0.032375034 0.024701979 -0.007722899 -0.049005892 0.028724855 -0.012005097 -0.019227052 0.04661843
0.0003102454 -0.015721431 -0.039484333 -0.033837277 -0.053386457 -0.02690042 0.009606151 0.033943947
0.033077646 -0.02038817 -0.028991656 0.0012779506 0.0037707253 0.0034851073 0.057409465 -0.05177763
0.043493997 0.04816109 0.060154367 0.031082142 0.038635433 0.015928159 0.054492336 0.04682804
0.03434432 0.038038533 -0.055245694 0.010928854 0.0074205087 -0.0049886387 -0.024420789 -0.03185683
0.0027971757 -0.05557458 0.044924006 -0.046552964 0.027333103 -0.038192723 -0.048982088 -0.038221236
-0.05064846 -0.048557647 0.013740822 -0.013370393 0.05202782 0.0002309369 0.03907386 0.019409815
0.023271512 0.053203523 -0.037899647 -0.027389327 0.02292309 -0.053839106 0.02803692 0.022232959
0.018605312 -0.041387096 0.04349236 -0.042647026 -0.062175762 0.031666804 -0.0056836405 -0.028696202
-0.031405035 0.0087512415 -0.060288742 -0.016754933 0.033557214 -0.044450402 -0.057292808 -0.057827566
0.027245736 -0.02103126 0.029435392 -0.018598624 -0.04703926 -0.0693913 -0.004128955 0.040257793
0.037531886 0.006231178 -0.02244685 -0.057447307 0.02899573 -0.042306244 -0.04622386 0.020432774
-0.07488405 -0.044486605 -0.054003846 -0.049030174 0.04149379 0.0096971905 0.021260653 0.01915634
0.015618842 0.022302667 -0.0011294199 -0.0677285 0.0224895 -0.068277635 -0.038161807 -0.052323494
-0.02259757 0.025261106 0.010724473 0.025717378 -0.044573516 0.02611522 -0.037391514 -0.0039117206
-0.043189712 -0.006963852 -0.031646855 0.023068905 0.035398558 -0.053684678 -0.04030797 -0.03156346
0.007529763 -0.015553174 -0.012108004 -0.071648754 0.04502017 0.040534467 -0.07045262 -0.012712065
0.02212459 -0.03376556 0.03562605 -0.013170927 0.017090948 0.028771112 0.002584832 -0.03338924
-0.0077294027 -0.022431761 -0.050603673 0.00574046 0.037909936 -0.011205165 0.0046578394 0.001996559
0.03419307 0.050674558 -0.06860308 -0.04342592 -0.017887242 0.033947833 0.027694207 -0.006405742
-0.041756134 0.03221366 -0.01198155 -0.060340684 0.04056957 -0.021606008 0.034521587 -0.053604558
0.03976853 0.015863394 0.041394595 0.0060844896 -0.016092597 -0.064811476 0.026319783 -0.054491006
-0.03949833 -0.039668567 0.028558167 0.0053327396 0.02248678 0.020923756 0.04558128 -0.060135562
0.039654 0.037404083 -0.010289429 0.011427635 -0.0646769 -0.02170037 -0.004782346 -0.0397736
0.0214973 0.045721617 0.0040238053 -0.03432312 -0.027315779 0.03318724 0.01548718 0.050501883
-0.013350897 0.01169698 -0.012952433 0.013331315 0.04682645 0.04790436 -0.04543211 0.028251868
-0.06350454 -0.047952127 -0.05520685 -0.005996473 0.029418277 -0.059407562 0.017988987 -0.0511919
0.0026663144 -0.026682137 0.0069872634 -0.017706586 0.04353919 -0.021242747 0.04131821 0.04249269
0.01916666 0.0032996328 -0.058437068 0.03746907 -0.014551499 -0.03231221 0.03409223 -0.02712151
00000000: e65a 11bc 359b 6c3c 410b efbc f8fd d5bc
00000010: 9233 423c 46c0 52bd 9d04 493d 63a4 f63c
00000020: 90cd 4abc 3a6e 393d 8a4d d7bc c43b 743d
00000030: 0c0c 98bc 7447 173d b85e 5d3d a1a7 153d
00000040: 1022 08bc 0072 d2bc cacd 9839 3b66 6cbc
00000050: 006c 1b3d 75b9 89bc b7a4 703c 7813 823d
00000060: af9b 04bd ce5b ca3c 5f10 fdbb 67ba 48bd
00000070: 6350 eb3c 07b1 44bc 0d82 9dbc f8f2 3e3d
00000080: 6fa8 a239 3bca 80bc 53ba 21bd f598 0abd
00000090: c2ab 5abd 455e dcbc 1e63 1d3c cf08 0b3d
000000a0: 6d7c 073d 1705 a7bc e97f edbc e880 a73a
000000b0: 461e 773b 6666 643b 3026 6b3d c814 54bd
000000c0: c326 323d 9044 453d 6d64 763d fa9f fe3c
000000d0: 3040 1e3d c57b 823c 5b33 5f3d c2ce 3f3d
000000e0: a1ac 0c3d 4bce 1b3d 4f49 62bd f00e 333c
000000f0: bd27 f33b bc77 a3bb 1b0e c8bc 4f7c 02bd
00000100: d250 373b 2ca2 63bd 3c02 383d 52ae 3ebd
00000110: ace9 df3c f96f 1cbd 71a1 48bd df8d 1cbd
00000120: c274 4fbd 62e4 46bd 2f21 613c 7e0f 5bbc
00000130: 201b 553d a727 7239 e90b 203d 5501 9f3c
00000140: e6a3 be3c f0eb 593d a93c 1bbd 955f e0bc
00000150: 34c9 bb3c 6586 5cbd afad e53c e521 b63c
00000160: 2b6a 983c 8485 29bd 0b25 323d a6ae 2ebd
00000170: 03ac 7ebd 0db5 013d d53d babb 4c14 ebbc
00000180: 91a2 00bd 5e61 0f3c 54f1 76bd a441 89bc
00000190: 4a73 093d a011 36bd ddab 6abd 99dc 6cbd
000001a0: 7332 df3c c049 acbc 7e22 f13c 245c 98bc
000001b0: 3dac 40bd 071d 8ebd 2f4c 87bb 5be5 243d
000001c0: 09bb 193d e92e cc3b 75e2 b7bc de4d 6bbd
000001d0: 7488 ed3c 5049 2dbd 3b55 3dbd a262 a73c
000001e0: cf5c 99bd 9637 36bd 2333 5dbd ddd3 48bd
000001f0: 64f5 293d f7e0 1e3c d22a ae3c c2ed 9c3c
00000200: 2ce6 7f3c 15b4 b63c 0b09 94ba 3db5 8abd
00000210: e63b b83c 25d5 8bbd 8e4f 1cbd 2951 56bd
00000220: 8a1e b9bc 61f0 ce3c b3b5 2f3c 40ad d23c
00000230: b892 36bd 96ef d53c d827 19bd e42d 80bb
00000240: b2e7 30bd 0631 e4bb 22a0 01bd 00fb bc3c
00000250: 14fe 103d 77e4 5bbd f819 25bd b048 01bd
00000260: 3bbc f63b bdd2 7ebc a660 46bc 95bc 92bd
00000270: 1267 383d 7807 263d 7749 90bd 4446 50bc
00000280: a13e b53c c14d 0abd 9fec 113d dfca 57bc
00000290: 5102 8c3c 65b1 eb3c 4966 293b 28c3 08bd
000002a0: ee46 fdbb d0c2 b7bc cc45 4fbd 781a bc3b
000002b0: 7347 1b3d de95 37bc caa0 983b b4d8 023b
000002c0: 080e 0c3d 2090 4f3d c67f 8cbd 61df 31bd
000002d0: 4488 92bc e20c 0b3d f6de e23c 42e7 d1bb
000002e0: 7b08 2bbd 79f2 033d 434e 44bc cb27 77bd
000002f0: 472c 263d 15ff b0bc 8266 0d3d 7490 5bbd
00000300: 53e4 223d f3f3 813c 618d 293d 6660 c73b
00000310: 9fd4 83bc e1bb 84bd 969c d73c f631 5fbd
00000320: 00c9 21bd 827b 22bd d1f2 e93c 43be ae3b
00000330: 3236 b83c 4c68 ab3c 70b3 3a3d b550 76bd
00000340: 3c6c 223d 0635 193d fe94 28bc fa3a 3b3c
00000350: 5375 84bd f9c4 b1bc 3ab5 9cbb a4e9 22bd
00000360: 1b1b b03c 9746 3b3d 20da 833b 6696 0cbd
00000370: 57c5 dfbc 58ef 073d f1bd 7d3c 10db 4e3d
00000380: b8bd 5abc b1a4 3f3c 7136 54bc 966b 5a3c
00000390: 17cd 3f3d 5d37 443d 0517 3abd 7670 e73c
000003a0: ab0e 82bd 7369 44bd 9420 62bd 107e c4bb
000003b0: 99fe f03c 5855 73bd a45d 933c 99ae 51bd
000003c0: 55bd 2e3b 7f94 dabc 6af5 e43b 670d 91bc
000003d0: 2656 323d 4505 aebc 493d 293d d10c 2e3d
000003e0: 6603 9d3c a73e 583b b55b 6fbd 2b79 193d
000003f0: 6969 6ebc cf59 04bd 4ba4 0b3d ee2d debc

encoder.0.bias f4 [50]
-0.014934193 -0.029621959 -0.06368777 -0.07587291 0.018987888 0.012323559 0.032492466 -0.054000046
-0.113029115 -0.064993836 -0.023991302 0.14561367 -0.059604112 -0.019483665 -0.034370445 -0.19136064
-0.1375384 -0.16191667 -0.2592053 -0.056361992 0.02187265 -0.23226658 -0.1454543 -0.2607796
-0.09062809 -0.06428518 -0.32891256 -0.14282806 0.6670519 -0.027846603 -0.118530005 -0.021753147
0.016694982 -0.06779485 -0.1320578 -0.15708981 -0.02750211 0.06772068 -0.055939376 0.34089148
0.23598586 -0.041331243 0.2248951 -0.16728495 -0.13536225 -0.03023908 0.065992 -0.06733456
-0.105965056 0.20272346
00000000: 8cae 74bc c0a9 f2bc bc6e 82bd 4263 9bbd
00000010: 7d8c 9b3c c1e8 493c d216 053d 272f 5dbd
00000020: cf7b e7bd 7d1b 85bd 6889 c4bc c01b 153e
00000030: 7123 74bd 359c 9fbc 06c8 0cbd 0bf4 43be
00000040: ded6 0cbe 7ccd 25be 8fb6 84be d5db 66bd
00000050: 462e b33c 4ad7 6dbe f9f1 14be e784 85be
00000060: 389b b9bd f3a7 83bd 3a67 a8be 8541 12be
00000070: eac3 2a3f 8f1e e4bc dcbf f2bd a833 b2bc
00000080: eac3 883c 07d8 8abd 293a 07be 27dc 20be
00000090: 1b4c e1bc 24b1 8a3d b020 65bd 5489 ae3e
000000a0: 47a6 713e f34a 29bd e74a 663e bf4c 2bbe
000000b0: 679c 0abe f2b7 f7bc d026 873d b4e6 89bd
000000c0: 3504 d9bd bd96 4f3e

encoder.2.weight f4 [9, 50]
0.069508225 0.02087755 0.08588447 0.019980196 -0.024012454 -0.026535423 0.08115717 0.032168623
0.076260835 0.029531777 0.029551992 -0.03761699 0.0029773142 0.10193499 0.0013658351 -0.08409482
0.110802434 0.08956545 -0.09333889 0.015238269 -0.005792262 0.08854913 -0.120947 0.03273475
-0.024830451 -0.012363256 0.01074078 -0.034660403 -0.019686794 -0.07754305 0.037023507 0.0286968
0.011958237 -0.0154749155 0.01720598 -0.03354627 0.014188669 0.014654015 0.017408412 0.019359661
-0.16445956 0.043425683 -0.031962324 0.10127104 0.008417579 -0.037807003 0.038309745 0.060551923
-0.02733274 -0.08427816 0.079768024 -0.14660467 -0.09441191 -0.07369534 -0.06441293 0.027347239
0.033838265 -0.09807372 0.044189446 -0.13570048 0.01445255 -0.07677633 0.10582071 -0.11952973
-0.036891278 -0.08687688 0.09597036 -0.07546045 -0.009788031 0.023280453 -0.011872784 0.03880443
0.008115325 -0.10377111 -0.02273352 0.058415305 -0.021713385 0.081488006 0.008366667 -0.062715225
0.023124324 -0.041975737 -0.009662879 -0.028147897 0.0075133136 -0.09887949 0.0027830135 0.09613601
-0.02921255 0.07832628 -0.06881775 0.01239602 0.0017826596 0.013755734 0.09072127 -0.11962274
0.06045019 0.13473235 -0.01565144 -0.10444678 -0.027938971 0.04617795 -0.01526731 0.04803244
-0.015940348 -0.0385577 0.038608734 -0.03600949 -0.044690114 0.03421085 0.037813243 -0.065620035
0.03345266 0.053167094 -0.0066822832 0.05576088 -0.08821313 -0.01124306 0.030434005 0.04374726
-0.095931694 -0.11090531 0.009499437 0.10330721 -0.010618594 -0.025610203 0.06897311 0.03590271
-0.2590402 0.0018205842 -0.05469335 -0.088414386 0.043707635 -0.035700575 -0.061698034 0.07562572
-0.07682204 0.042744465 0.072239205 0.048878077 -0.028241888 0.022234049 0.11926092 -0.031331714
-0.0037522493 -0.08286081 0.012938694 0.122073315 -0.02567768 -0.07170303 -0.0717908 0.050604485
0.011159327 -0.025864303 -0.07940582 -0.075849146 0.022847338 0.046983268 0.054559574 0.07023
0.040245995 0.10515161 0.13760284 -0.07574891 -0.14331439 0.050917048 0.091685496 -0.07850906
0.022194732 0.0018003336 -0.13133633 -0.035060953 -0.10200374 0.0055125733 -0.042638518 0.06986327
-0.019899994 0.05202747 0.011274407 0.04053611 0.010457033 0.033627126 0.013332723 0.002424497
0.07002022 -0.049215507 0.07795344 -0.13035086 -0.049230907 -0.054055933 0.107894346 0.004312811
-0.082498826 -0.018148342 0.041943986 -0.10899511 -0.13449943 -0.03892715 -0.029352138 0.0736889
0.02065466 0.018131407 0.07475718 -0.035891883 -0.0759864 0.09329154 0.03584007 0.044150807
0.039453957 0.07744696 -0.043441884 0.07979887 -0.13115041 -0.034414794 -0.016322812 -0.096683875
0.041221168 -0.07663466 0.009848017 -0.005249687 0.1588941 -0.10967899 0.015876025 -0.058095552
-0.048347134 0.005928516 -0.06322373 0.10479205 0.029339503 0.10278742 -0.093004785 0.026863884
0.118797 0.017607145 -0.0055580307 -0.0033626212 -0.007272862 0.12213896 -0.010354483 0.010648861
0.053422477 0.06424506 -0.05224519 -0.06858191 -0.005599414 -0.075366095 0.052102532 -0.02693573
0.012409494 -0.08836254 0.05805319 -0.027252551 -0.06993983 0.013223283 -0.10766266 -0.037828717
00000000: 545a 8e3d 6507 ab3c 32e4 af3d 82ad a33c
00000010: c4b5 c4bc d160 d9bc bb35 a63d 3fc3 033d
00000020: a42e 9c3d a0ec f13c 0517 f23c 4614 1abd
00000030: 0b1f 433b 4bc3 d03d d205 b33a e839 acbd
00000040: 63ec e23d 176e b73d 7628 bfbd efa9 793c
00000050: 04cd bdbb 3f59 b53d 10b3 f7bd e014 063d
00000060: 3b69 cbbc 418f 4abc 19fa 2f3c 11f8 0dbd
00000070: 3346 a1bc e4ce 9ebd f6a5 173d 8d15 eb3c
00000080: 7bec 433c 808a 7dbc 8ef3 8c3c d067 09bd
00000090: 9777 683c 6517 703c 169c 8e3c 2798 9e3c
000000a0: 1668 28be 21df 313d edea 02bd 3167 cf3d
000000b0: e3e9 093c 84db 1abd aeea 1c3d 4b05 783d
000000c0: e9e8 dfbc 079a acbd 6b5d a33d 891f 16be
000000d0: 085b c1bd 95ed 96bd edea 83bd 5107 e03c
000000e0: fe99 0a3d e0da c8bd feff 343d 11f5 0abe
000000f0: 63ca 6c3c e93c 9dbd 87b8 d83d 01cc f4bd
00000100: 4f1b 17bd 81ec b1bd 1c8c c43d 028b 9abd
00000110: fa5d 20bc a6b6 be3c 1186 42bc 65f1 1e3d
00000120: 24f6 043c f385 d4bd a63b babc e344 6f3d
00000130: 45e0 b1bc 2fe3 a63d 5814 093c d770 80bd
00000140: 396f bd3c c0ee 2bbd 0d51 1ebc 6b96 e6bc
00000150: 3e32 f63b 5481 cabd 3863 363b f5e2 c43d
00000160: 284f efbc 8769 a03d 52f0 8cbd ad18 4b3c
00000170: 21a8 e93a bb5f 613c 13cc b93d c4fc f4bd
00000180: 9e9a 773d 47f7 093e 7337 80bc 32e8 d5bd
00000190: 45e0 e4bc 1725 3d3d bd23 7abc aabd 443d
000001a0: 5595 82bc aeee 1dbd 3124 1e3d b07e 13bd
000001b0: fb0c 37bd ad20 0c3d 0fe2 1a3d cc63 86bd
000001c0: a805 093d bdc5 593d 0ef7 dabb 8565 643d
000001d0: 16a9 b4bd d034 38bc bc50 f93c 5430 333d
000001e0: d677 c4bd 5322 e3bd 87a3 1b3c bb92 d33d
000001f0: 9cf9 2dbc 7dcc d1bc c641 8d3d b80e 133d
00000200: eba0 84be aba0 ee3a 2206 60bd 9a12 b5bd
00000210: c706 333d c43a 12bd 14b7 7cbd a8e1 9a3d
00000220: e054 9dbd d214 2f3d 26f2 933d 6134 483d
00000230: 885b e7bc 2e24 b63c 123f f43d af55 00bd
00000240: 4ce8 75bb eeb2 a9bd d1fc 533c 9301 fa3d
00000250: ff59 d2bc 0ad9 92bd 0e07 93bd a646 4f3d
00000260: 9cd5 363c 60e1 d3bc 859f a2bd cc56 9bbd
00000270: 572a bb3c 8771 403d dc79 5f3d bfd4 8f3d
00000280: fcd8 243d ba59 d73d c2e7 0c3e 3f22 9bbd
00000290: 02c1 12be 658e 503d 9bc5 bb3d 5cc9 a0bd
000002a0: bad1 b53c 2cf9 eb3a 087d 06be 139c 0fbd
000002b0: 56e7 d0bd d1a2 b43b baa5 2ebd 7914 8f3d
000002c0: 5005 a3bc c21a 553d 4ab8 383c 3109 263d
000002d0: fa53 2b3c 99bc 093d 7e71 5a3c 4fe4 1e3b
000002e0: c366 8f3d 3396 49bd 0ea6 9f3d b27a 05be
000002f0: 59a6 49bd c169 5dbd b6f7 dc3d 7b52 8d3b
00000300: 25f5 a8bd d5ab 94bc 75cd 2b3d d438 dfbd
00000310: 38ba 09be 1372 1fbd e573 f0bc 35ea 963d
00000320: f633 a93c 5188 943c 4b1a 993d 5e03 13bd
00000330: c29e 9bbd a30f bf3d 0acd 123d 7ad7 343d
00000340: 799a 213d 839c 9e3d 1ef0 31bd 976d a33d
00000350: 4b4c 06be 87f6 0cbd 6bb7 85bc 3202 c6bd
00000360: 87d7 283d a2f2 9cbd 9459 213c 9105 acbb
00000370: 23b5 223e 619f e0bd 700e 823c 9af5 6dbd
00000380: a507 46bd ff43 c23b 717b 81bd 379d d63d
00000390: 6659 f03c 3682 d23d 4b79 bebd a611 dc3c
000003a0: d74b f33d dc3c 903c 2420 b6bb 6c5f 5cbb
000003b0: 3051 eebb fe23 fa3d d9a5 29bc 8f78 2e3c
000003c0: 87d1 5a3d ea92 833d 0dff 55bd ac74 8cbd
000003d0: 4a7b b7bb 8a59 9abd 7769 553d 52a8 dcbc
000003e0: 3151 4b3c 6bf7 b4bd 2fc9 6d3d be40 dfbc
000003f0: 9d3c 8fbd 78a6 583c 3e7e dcbd 49f2 1abd

encoder.2.bias f4 [9]
0.026695771 -0.054375798 0.15237413 -0.095158935 -0.03293768 -0.041819353 -0.010524463 -0.07659457
-0.0016170788
00000000: 17b1 da3c 28b9 5ebd f707 1c3e b0e2 c2bd
00000010: a9e9 06bd c54a 2bbd cc6e 2cbc 9ddd 9cbd
00000020: 29f4 d3ba

decoder.0.weight f4 [50, 9]
0.16769145 -0.08450807 -0.27483818 0.1662527 -0.018884908 0.12747997 0.12912843 -0.16347957
-0.2394518 0.26481572 0.41002837 -0.28594917 0.20392187 0.15740316 0.12151033 -0.12679245
-0.027617501 -0.043746356 -0.049572572 -0.28491494 0.08420343 -0.017284703 -0.03509872 -0.091219805
0.16433802 0.33364767 0.0659506 -0.12774324 -0.06726894 -0.18515398 0.21684664 -0.13150822
-0.076676436 0.22052285 -0.20005703 0.106122196 0.1422445 0.19946969 -0.23844157 0.06448151
-0.16751748 -0.029881123 -0.18458967 -0.27679935 -0.07718218 0.21135947 -0.15295716 -0.15438606
0.29276028 0.33187553 0.09893673 0.002130351 -0.014393005 -0.12787558 0.028604222 0.15873691
-0.039925538 -0.1965812 0.28097725 0.23939013 0.121220276 -0.30596605 0.28002715 0.16438656
0.2385863 0.20803028 -0.21698931 0.26925555 0.21734266 -0.27464458 0.21764879 -0.0061797933
0.15608811 0.17136957 -0.30485433 0.19245042 0.26456308 -0.15502165 -0.14868279 0.058017794
0.05999267 0.10818598 -0.15146177 0.23492853 -0.2566069 0.21341951 0.21353866 -0.014173112
0.14876148 -0.048710037 0.0027329237 0.099493735 -0.0032635347 -0.2688402 0.10037863 -0.14795421
-0.07026835 0.23657644 -0.094098024 -0.055316284 0.2727538 0.00017842825 -0.14187197 -0.28468966
0.029005483 0.08340929 0.30810088 0.071564205 0.034864962 -0.28127337 0.3131522 0.102351286
-0.07552884 0.15503107 0.08213526 0.08409189 0.2503624 -0.19076884 0.23046483 -0.1415821
-0.052505 0.15020752 0.19202788 0.04108597 -0.07563892 -0.17663628 0.13095011 -0.1118396
-0.124456875 -0.07010832 -0.01821955 0.06549791 -0.14987934 0.15847686 0.21978211 0.046505608
0.07822829 -0.1320391 -0.3236303 -0.010431582 -0.13149309 0.025900247 -0.18448985 -0.14751096
-0.074437626 -0.0498656 -0.266949 -0.06438079 -0.19857493 0.2638902 0.052844986 0.07612764
-0.19188128 -0.13944453 0.127831 -0.1942857 -0.010433267 -0.0011377766 -0.10533354 -0.09997543
0.24233839 0.13303319 0.1615292 -0.14231525 0.03358523 0.104301885 0.2947803 0.16329195
0.082258545 0.03489686 -0.08548228 0.13282739 -0.05047609 -0.20441763 -0.14274856 0.012540759
-0.2046305 -0.04800745 -0.116267234 0.11778182 0.21685584 -0.03896989 0.26839736 -0.12479834
0.28315312 0.027647536 -0.10465668 0.16754939 -0.045041066 -0.118133515 -0.0391387 -0.32213557
0.17739217 -0.11790706 0.16247956 -0.022827921 0.10290204 -0.04961728 -0.17851062 0.07500157
-0.35895863 0.080192685 0.0949843 -0.327692 -0.08893811 -0.28991494 -0.04482735 -0.03141941
-0.10431028 0.032413445 -0.07068119 -0.23294526 0.14727756 -0.034278773 0.28067368 -0.06719297
0.15011568 0.109528355 0.099130094 0.29802933 0.24141738 -0.05437256 0.06520451 -0.13033026
-0.059609078 -0.2805895 -0.047102172 -0.21283126 0.22796212 0.31987375 0.25910005 0.42538524
-0.19239722 -0.013106808 -0.058555722 -0.14059731 0.20565754 0.14744611 -0.21129249 0.11582387
-0.0044705737 0.02580414 0.026005875 0.21268925 0.3786819 0.09345143 0.2736865 0.20238598
0.15507166 0.12776443 0.19720662 -0.015085361 0.0060581504 0.088154495 0.26586545 0.23848619
00000000: 4fb7 2b3e 9112 adbd 97b7 8cbe 263e 2a3e
00000010: 86b4 9abc 1c8a 023e 3e3a 043e 3067 27be
00000020: da32 75be ed95 873e 3def d13e ee67 92be
00000030: e5d0 503e 4b2e 213e 68da f83d e1d5 01be
00000040: 193e e2bc 612f 33bd 9c0c 4bbd 5fe0 91be
00000050: d972 ac3d a698 8dbc adc3 0fbd 73d1 babd
00000060: 3a48 283e ded3 aa3e 1c11 873d 20cf 02be
00000070: 4cc4 89bd 0199 3dbe 0c0d 5e3e 17aa 06be
00000080: 8908 9dbd bed0 613e c0db 4cbe 9856 d93d
00000090: 8ba8 113e c841 4c3e 072a 74be e20e 843d
000000a0: b489 2bbe 42c9 f4bc 1305 3dbe a5b8 8dbe
000000b0: b111 9ebd 9e6e 583e cda0 1cbe 6117 1ebe
000000c0: ade4 953e 97eb a93e 579f ca3d 5c9d 0b3b
000000d0: a3d0 6bbc d1f1 02be 6753 ea3c ee8b 223e
000000e0: f688 23bd 954c 49be 40dc 8f3e b022 753e
000000f0: 5642 f83d 95a7 9cbe b85f 8f3e f354 283e
00000100: f84f 743e e405 553e 7232 5ebe dddb 893e
00000110: 138f 5e3e 379e 8cbe 53df 5e3e dd7f cabb
00000120: 90d5 1f3e 817b 2f3e de15 9cbe b911 453e
00000130: d074 873e ffbd 1ebe 4d40 18be 11a4 6d3d
00000140: e0ba 753d 9c90 dd3d cb18 1bbe 1b91 703e
00000150: fb61 83be a58a 5a3e e1a9 5a3e 5736 68bc
00000160: ee54 183e 2d84 47bd da1a 333b 5fc3 cb3d
00000170: 07e1 55bb 6ca5 89be 5093 cd3d 4f81 17be
00000180: dae8 8fbd 1841 723e 77b6 c0bd 5493 62bd
00000190: 63a6 8b3e 7818 3b39 e346 11be d8c2 91be
000001a0: e89c ed3c 7dd2 aa3d 66bf 9d3e 4190 923d
000001b0: 90ce 0e3d 1003 90be 7c55 a03e 8d9d d13d
000001c0: ddae 9abd 77c0 1e3e 8836 a83d 5e38 ac3d
000001d0: 802f 803e e858 43be f9fe 6b3e e6fa 10be
000001e0: 7c0f 57bd 00d0 193e f5a2 443e c349 283d
000001f0: 94e8 9abd 24e0 34be c917 063e 290c e5bd
00000200: 3fe3 febd f394 8fbd 2a41 95bc c523 863d
00000210: f879 19be c247 223e 900e 613e aa7c 3e3d
00000220: 2736 a03d 4235 07be dfb2 a5be 3ae9 2abc
00000230: 20a6 06be c12c d43c e8ea 3cbe 1d0d 17be
00000240: c172 98bd df3f 4cbd 8aad 88be 13da 83bd
00000250: 3a57 4bbe 9e1c 873e fc73 583d cfe8 9b3d
00000260: 877c 44be 8cca 0ebe 21e6 023e d5f2 46be
00000270: 4bf0 2abc 7321 95ba 1cb9 d7bd ebbf ccbd
00000280: 8e27 783e da39 083e e967 253e 17bb 11be
00000290: ab90 093d 3a9c d53d 72ed 963e 0136 273e
000002a0: 2b77 a83d 03f0 0e3d 5511 afbd e703 083e
000002b0: 04c0 4ebd db52 51be ae2c 12be c177 4d3c
000002c0: a88a 51be 76a3 44bd 841d eebd 9837 f13d
000002d0: 750f 5e3e e49e 1fbd 616b 893e 4696 ffbd
000002e0: 72f9 903e 167d e23c 3e56 d6bd 1192 2b3e
000002f0: fb7c 38bd fcef f1bd e74f 20bd f4ee a4be
00000300: 4ba6 353e 4279 f1bd 0b61 263e 9f01 bbbc
00000310: 4ebe d23d 7d3b 4bbd 7dcb 36be 6c9a 993d
00000320: 6dc9 b7be 103c a43d 2187 c23d 3fc7 a7be
00000330: 2f25 b6bd bb6f 94be e29c 37bd a4b1 00bd
00000340: a1a0 d5bd f6c3 043d 4dc1 90bd 3489 6ebe
00000350: eecf 163e e667 0cbd 76b4 8f3e 789c 89bd
00000360: edb7 193e 6750 e03d b804 cb3d 4d97 983e
00000370: 1e36 773e c3b5 5ebd f189 853d 4c75 05be
00000380: a628 74bd 6da9 8fbe 35ee 40bd 70f0 59be
00000390: e76e 693e 7ec6 a33e c3a8 843e 18cc d93e
000003a0: c703 45be f0bd 56bc 20d8 6fbd bef8 0fbe
000003b0: e497 523e 1dfc 163e 0f5d 58be 1135 ed3d
000003c0: e47d 92bb 3463 d33c 460a d53c 36cb 593e
000003d0: 98e2 c13e 7763 bf3d a320 8c3e 453e 4f3e
000003e0: 1bcb 1e3e aed4 023e 88f0 493e 9728 77bc
000003f0: 7383 c63b 588a b43d 841f 883e b935 743e

decoder.0.bias f4 [50]
0.07073606 -0.0952983 0.15761419 -0.089550905 0.041037966 -0.28138518 -0.022009278 0.0065574907
0.16063292 -0.054765254 0.025290007 0.2060444 0.02973765 -0.28927734 0.123090304 0.017804753
0.18556657 0.026249746 -0.34962246 0.103195146 -0.0076939296 0.08709148 -0.034147482 0.093619466
-0.15335992 -0.28589517 0.09323244 0.09061627 0.036336776 -0.16274182 -0.30778763 -0.21448317
-0.027958037 -0.10300903 0.12526873 -0.17938516 0.09523547 -0.3358267 -0.040391028 0.077497125
-0.09718072 -0.13227637 -0.021260576 0.04286512 0.006815915 -0.33574358 -0.12566765 -0.09102685
-0.112268254 -0.036646675
00000000: 11de 903d c12b c3bd 9d65 213e 7766 b7bd
00000010: 6d17 283d b811 90be cd4c b4bc 38e0 d63b
00000020: f57c 243e 8851 60bd fd2c cf3c 4efd 523e
00000030: 5f9c f33c 291c 94be c516 fc3d 46db 913c
00000040: 2a05 3e3e b509 d73c b701 b3be fa57 d33d
00000050: 5c1d fcbb 055d b23d 3bde 0bbd 90bb bf3d
00000060: 620a 1dbe da60 92be a6f0 be3d 0695 b93d
00000070: dfd5 143d cba5 26be 5796 9dbe 7aa1 5bbe
00000080: 4108 e5bc 66f6 d2bd 7246 003e beb0 37be
00000090: d00a c33d 7af1 abbe 1071 25bd d0b6 9e3d
000000a0: af06 c7bd 7573 07be a92a aebc 5693 2f3d
000000b0: 0a58 df3b 95e6 abbe 05af 00be 496c babd
000000c0: e6ec e5bd d31a 16bd

decoder.2.weight f4 [282, 50]
-0.10113094 0.2997139 -0.14584182 -0.021259103 0.119970925 -0.1538145 -0.11623158 0.009268839
-0.0099034915 -0.025175741 0.046212766 0.0027571642 0.023223054 -0.15421095 0.049549133 -0.023033146
-0.042460088 -0.16585577 0.130432 -0.08701284 0.0034308855 0.052604217 -0.10590106 -0.090948805
0.15797663 -0.050396003 0.195681 -0.013536355 -0.0065492946 0.01607556 0.016069125 0.0034442989
0.019399948 -0.0997807 -0.10167464 -0.021368776 0.07098225 0.09598019 -0.12668185 -0.035055667
0.03489775 -0.07667977 0.04288063 0.1991729 -0.028327644 -0.035065684 -0.016962677 0.10391068
0.011247971 -0.10461796 0.10156581 0.10889015 -0.15760805 0.10177611 0.0155552 -0.023489352
0.058022294 0.017029664 -0.07589773 -0.055691585 0.03359167 0.006080701 0.13655062 -0.15095231
-0.05660631 -0.19411592 0.00047829445 -0.19831015 -0.10385173 -0.090152405 -0.0041888477 0.03241999
-0.08408105 -0.07028169 0.051533736 0.07453561 0.042654425 -0.10854417 0.11552869 -0.042909548
-0.16204317 -0.20847353 -0.015918275 -0.0032817195 -0.0073341383 0.027878659 -0.03669427 0.058356635
0.013142804 0.04316949 0.16956316 0.011400767 0.064070486 0.12364188 0.045393616 -0.09484396
0.13177134 0.12938228 0.0599371 0.077624455 -0.10423744 0.049363997 -0.14172484 0.07805788
0.10876193 -0.11052743 0.013656588 -0.085716955 -0.12906921 -0.028283682 -0.1346904 0.061504163
0.15189502 -0.032971155 -0.14471805 0.024233654 -0.07038929 0.055675693 -0.080317505 -0.07477212
0.12175921 0.045210693 -0.14483958 -0.07358014 0.03556641 -0.008653322 0.082493916 -0.04107549
0.01949847 -0.08001156 -0.06064805 0.041430764 0.14701521 -0.05659369 0.09339867 0.1626784
0.025255378 -0.039940543 0.047604606 0.06265356 0.11154549 -0.09231346 -0.049197618 0.0566079
-0.095005766 -0.048009776 -0.039386954 0.0006327869 0.066699736 0.14281887 0.0658115 -0.073446706
-0.108010545 -0.030426523 0.03289158 -0.05940009 -0.09305723 0.016937532 -0.06460953 -0.0011730541
-0.13849182 0.033468455 0.20980695 -0.02358089 0.061787177 -0.106190346 -0.043707002 -0.07563517
-0.03614821 0.005986183 -0.01661489 -0.0017192356 -0.14789808 -0.07004936 0.059569534 0.17161572
-0.018778488 0.10790453 0.14889926 0.031961948 -0.0145139145 -0.0189945 0.1974599 0.0029668738
-0.017185118 0.019656308 0.0056508994 0.12344337 -0.051500224 0.06608742 0.043971483 -0.06845957
-0.051739577 0.05641479 0.0038943067 -0.033332586 0.081277035 0.002649507 -0.07201722 0.032629564
-0.046445042 0.100808 -0.0047212904 0.120372504 0.0010653972 0.049898487 0.03948317 -0.0047189756
0.022646913 -0.055124357 0.039898474 0.026679449 0.13332367 -0.01114107 -0.11565533 -0.1186926
-0.07067418 -0.16736671 -0.075094014 -0.029076861 -0.01606734 0.012916886 -0.14599213 -0.007002579
-0.006393981 -0.11218958 0.038626757 0.09991672 0.08794482 -0.06489885 -0.08993861 0.054591455
0.14717002 -0.06373058 0.052200954 -0.0146305915 0.0025063788 -0.10099039 -0.05462973 0.049956292
-0.067588866 -0.06841837 -0.13788308 0.052702915 0.09637238 -0.03605476 -0.11172945 0.09807444
-0.109119676 0.03575223 -0.019174557 0.15777922 -0.09944578 -0.046995264 0.010166642 -0.08207626
00000000: bd1d cfbd 1a74 993e 8f57 15be 9227 aebc
00000010: 51b3 f53d 8c81 1dbe d30a eebd 54dc 173c
00000020: 4142 22bc 5b3d cebc 9949 3d3d 8ab1 343b
00000030: 463e be3c 7ae9 1dbe 08f4 4a3d 02b0 bcbc
00000040: a1ea 2dbd 18d6 29be f78f 053e ca33 b2bd
00000050: b5d8 603b 8577 573d a8e2 d8bd 5e43 babd
00000060: a0c4 213e 0a6c 4ebd 9a60 483e 97c7 5dbc
00000070: 779b d6bb e5b0 833c 66a3 833c bfb9 613b
00000080: a4ec 9e3c d359 ccbd cb3a d0bd 920d afbc
00000090: 245f 913d 4391 c43d e3b8 01be 8896 0fbd
000000a0: f1f0 0e3d 490a 9dbd 99a3 2f3d fbf3 4b3e
000000b0: 600f e8bc 09a1 0fbd 50f5 8abc 1fcf d43d
000000c0: 6949 383c f141 d6bd bc01 d03d cd01 df3d
000000d0: 0164 21be fe6f d03d 3ddb 7e3c be6c c0bc
000000e0: c9a8 6d3d cb81 8b3c 4570 9bbd dc1c 64bd
000000f0: 6b97 093d 9e40 c73b edd3 0b3e 3e93 1abe
00000100: 05dc 67bd 53c6 46be 98c3 fa39 d111 4bbe
00000110: 37b0 d4bd d3a1 b8bd 9a42 89bb d3ca 043d
00000120: af32 acbd d9ef 8fbd 0a15 533d 20a6 983d
00000130: 68b6 2e3d 684c debd 4e9a ec3d ecc1 2fbd
00000140: a5ee 25be 167a 55be 0b67 82bc 1e12 57bb
00000150: 3653 f0bb c961 e43c bb4c 16bd 5e07 6f3d
00000160: ea54 573c 7ed2 303d f7a1 2d3e 48ca 3a3c
00000170: 6337 833d f437 fd3d a8ee 393d 8d3d c2bd
00000180: 11ef 063e ca7c 043e 9b80 753d 92f9 9e3d
00000190: 707a d5bd e731 4a3d 5120 11be cfdc 9f3d
000001a0: 93be de3d 355c e2bd e2bf 5f3c 5f8c afbd
000001b0: b82a 04be 2eb3 e7bc 48ec 09be caeb 7b3d
000001c0: 5e8a 1b3e c30c 07bd f830 14be a885 c63c
000001d0: 4328 90bd 320c 643d 817d a4bd 2022 99bd
000001e0: e55c f93d d92e 393d d450 14be 2fb1 96bd
000001f0: 15ae 113d aac6 0dbc 92f2 a83d c63e 28bd
00000200: 41bb 9f3c 1add a3bd 176a 78bd 4eb3 293d
00000210: 288b 163e c9ce 67bd cd47 bf3d 2b95 263e
00000220: 5ee4 ce3c b298 23bd 0cfd 423d 8250 803d
00000230: f671 e43d d70e bdbd 7183 49bd afdd 673d
00000240: 6292 c2bd e6a5 44bd 3754 21bd 9ce1 253a
00000250: df99 883d 1c3f 123e 2ec8 863d 3a6b 96bd
00000260: a234 ddbd 0b41 f9bc 52b9 063d 824d 73bd
00000270: ca94 bebd 94c0 8a3c 0052 84bd 2ac1 99ba
00000280: cdd0 0dbe 3816 093d a2d7 563e b62c c1bc
00000290: 8d14 7d3d 537a d9bd 1d06 33bd 9de6 9abd
000002a0: 2510 14bd be27 c43b f31b 88bc f957 e1ba
000002b0: 9872 17be 0a76 8fbd 2fff 733d 08bc 2f3e
000002c0: 58d5 99bc 0dfd dc3d 0c79 183e 88ea 023d
000002d0: c5cb 6dbc 5b9a 9bbc ee32 4a3e e26f 423b
000002e0: cec7 8cbc 4406 a13c 2e2b b93b e1cf fc3d
000002f0: e6f1 52bd d758 873d 711b 343d 8834 8cbd
00000300: e1ec 53bd 3213 673d a037 7f3b c087 08bd
00000310: 9374 a63d 5aa3 2d3b c47d 93bd 94a6 053d
00000320: 283d 3ebd 6d74 ce3d 0eb5 9abb dc85 f63d
00000330: cca4 8b3a 5b62 4c3d 1bb9 213d a3a1 9abb
00000340: 0586 b93c 14ca 61bd 956c 233d dc8e da3c
00000350: 0086 083e 0989 36bc b4dc ecbd 1b15 f3bd
00000360: a0bd 90bd 2e62 2bbe e4ca 99bd 9932 eebc
00000370: a79f 83bc 59a1 533c f67e 15be e475 e5bb
00000380: 9a84 d1bb a7c3 e5bd 1737 1e3d 23a1 cc3d
00000390: 6a1c b43d b0e9 84bd bc31 b8bd 4a9b 5f3d
000003a0: bdb3 163e 2e85 82bd abd0 553d 26b5 6fbc
000003b0: 0f42 243b 0dd4 cebd 6cc3 5fbd f89e 4c3d
000003c0: 086c 8abd ee1e 8cbd 3931 0dbe 03df 573d
000003d0: e25e c53d 28ae 13bd 69d2 e4bd 41db c83d
000003e0: 237a dfbd ee70 123d f613 9dbc e090 213e
000003f0: 3baa cbbd 1b7e 40bd fd91 263c 9917 a8bd

decoder.2.bias f4 [282]
0.04299616 0.06814265 0.061687514 0.03971761 0.020358056 0.0632374 0.055499926 0.026152814
0.025228966 0.083037205 0.05064886 0.026528373 0.02817148 0.034435112 0.038626958 0.019597976
0.051588193 0.039066583 -0.0035926292 0.041655824 0.048880454 0.056808457 0.03567395 0.027437866
0.00965259 0.062396258 0.030957088 0.052522458 0.042609498 0.059722777 0.04664985 0.03585811
0.027253663 0.045132313 0.047768462 0.022106636 0.041539606 0.029541522 0.031819355 0.04858329
0.013715703 0.028943127 0.05023714 0.06783041 0.041603696 0.015346305 0.008070497 0.024988903
0.015513488 0.0311145 0.052243434 0.022633431 0.047423746 0.048197646 0.033799898 0.04931068
0.04273833 0.03415222 0.0023263758 0.023111846 0.031498007 0.03484131 0.029614981 0.040477626
0.045517303 0.040063843 0.04448634 0.036943708 0.033496346 0.01994325 0.045041077 0.06855563
0.029461108 0.033835378 0.065813795 0.037555322 0.06559851 0.012103681 0.0206294 0.03202839
0.03338682 0.031682163 0.018733248 0.0077066957 0.03390576 0.045812383 0.05150877 0.004434051
0.033524014 0.05266648 0.021591652 0.0016440707 0.0243036 -0.0116703585 0.016475776 -0.005276165
-0.021014681 0.010372277 -0.011386809 0.011507353 0.0095052 0.016748477 0.02440125 0.045976635
-0.0017441392 0.017894091 0.04814255 0.03105467 0.0071246657 0.025891403 0.0230305 0.033655018
0.014770661 0.026055908 0.020519981 0.021701926 0.008912462 0.027202757 0.016479852 0.04573026
0.016901 0.03914651 0.014846276 0.022637572 0.044844054 0.008948968 0.04678968 0.034373283
0.012320532 0.042820293 0.037445024 0.028941886 0.012815509 0.004890863 0.013863625 0.033396084
0.04123717 0.0017290653 0.012112257 0.018574016 0.028293395 0.04399874 -0.033262458 -0.00016062903
0.048592508 0.019453848 0.011128982 0.025166696 0.0021762738 0.02781056 -0.0032200736 0.013114972
-0.001457009 0.027183264 0.016765397 0.0019949966 0.013686813 0.0010276374 -0.0014579281 0.007935514
-0.015490717 0.008030603 0.013349037 0.0059683523 0.0039360914 0.022138199 0.013732421 -0.011589324
-0.011415799 0.009929201 0.014494108 -0.018791512 0.019758422 0.022382965 0.012840222 0.0137663735
-0.019696979 -0.012451691 0.017710607 0.017350793 0.0042921905 -0.0513035 0.020302601 -0.0051423926
-0.030970726 -0.013082858 0.022112263 -0.023338085 0.050140623 0.02747162 0.007699145 -0.0020201055
0.018526807 0.014851695 0.012197444 0.03564564 0.04042053 0.018777624 0.021242347 0.006393598
0.020235673 0.02422866 0.02260301 0.008437477 -0.013997618 0.027033417 0.02217721 0.017733606
0.01490954 0.0022750108 0.035803515 0.024238842 -0.0031577414 -0.025857545 0.022084396 0.0011185782
0.009755801 -0.002689249 0.026530957 0.00034237074 0.06262507 0.016361492 0.016487375 0.02122005
0.05215869 0.014474401 0.048402987 -0.0022808558 0.0080087865 0.048797987 0.03341835 0.031437386
0.011083658 0.04528054 0.013417156 0.0114398785 0.053741995 0.038304035 0.0014176212 0.017256675
0.035860386 -0.0017435715 0.008391044 0.005698843 0.044283774 0.018474728 0.028813766 0.054893922
0.052459437 0.04658621 0.011939669 0.036866408 0.010588452 0.040852834 0.006871931 0.019480638
00000000: be1c 303d 608e 8b3d 0cac 7c3d efae 223d
00000010: f0c5 a63c 9c82 813d e453 633d 6d3e d63c
00000020: faac ce3c 690f aa3d 2e75 4f3d 0852 d93c
00000030: e0c7 e63c d50b 0d3d 4d37 1e3d ef8b a03c
00000040: 244e 533d 4804 203d 5172 6bbb 4c9f 2a3d
00000050: df36 483d fcaf 683d d91e 123d 60c5 e03c
00000060: e625 1e3c 3893 7f3d b899 fd3c ca21 573d
00000070: 4c87 2e3d df9f 743d ea13 3f3d f4df 123d
00000080: 1343 df3c a9dc 383d dda8 433d fa18 b53c
00000090: 6f25 2a3d 1001 f23c 0355 023d 46ff 463d
000000a0: d4b7 603c 231a ed3c 76c5 4d3d acea 8a3d
000000b0: a368 2a3d 126f 7b3c 1e3a 043c 87b5 cc3c
000000c0: 492c 7e3c d6e3 fe3c 36fd 553d bf69 b93c
000000d0: 673f 423d e56a 453d c371 0a3d fff9 493d
000000e0: 630e 2f3d 33e3 0b3d 1c76 183b 0e55 bd3c
000000f0: 0e04 013d c3b5 0e3d 1e9b f23c decb 253d
00000100: 5a70 3a3d fc19 243d 4f37 363d 4952 173d
00000110: 7733 093d 0760 a33c fe7c 383d e566 8c3d
00000120: 6c58 f13c f796 0a3d 62c9 863d 9cd3 193d
00000130: 8358 863d 854e 463c fdfe a83c 3330 033d
00000140: 9ec0 083d 28c5 013d 7876 993c 7388 fc3b
00000150: c4e0 0a3d c4a5 3b3d dcfa 523d 844b 913b
00000160: 7a50 093d cfb8 573d fae0 b03c dc7d d73a
00000170: 5818 c73c 0835 3fbc 35f8 863c aee3 acbb
00000180: fb26 acbc 7cf0 293c bd8f 3abc 5689 3c3c
00000190: b3bb 1b3c 1a34 893c 21e5 c73c ff51 3c3d
000001a0: 9a9b e4ba a196 923c 1f31 453d 5d66 fe3c
000001b0: 0776 e93b 351a d43c 76aa bc3c d8d9 093d
000001c0: a400 723c 3373 d53c 8519 a83c 3dc8 b13c
000001d0: 9305 123c 51d8 de3c c100 873c a74f 3b3d
000001e0: f773 8a3c 1758 203d cb3d 733c 6e72 b93c
000001f0: 66ae 373d b19e 123c 89a6 3f3d 00cb 0c3d
00000200: 0fdc 493c 5564 2f3d f45f 193d 8917 ed3c
00000210: 24f8 513c 8843 a03b 4224 633c 55ca 083d
00000220: 4fe8 283d cea1 e23a 7d72 463c 8928 983c
00000230: 8dc7 e73c 0638 343d 373e 08bd 876e 28b9
00000240: f008 473d ad5d 9f3c 5556 363c 632a ce3c
00000250: d19f 0e3b f9d2 e33c df07 53bb 2ee0 563c
00000260: 1cf9 beba 70af de3c 9657 893c 7dbe 023b
00000270: a83e 603c cab1 863a f317 bfba f503 023c
00000280: c7cc 7dbc ca92 033c ebb5 5a3c 2b92 c33b
00000290: 54fa 803b 2b5b b53c f3fd 603c 26e1 3dbc
000002a0: 5509 3bbc 16ae 223c b278 6d3c a8f0 99bc
000002b0: 6adc a13c 7b5c b73c cb5f 523c 5b8c 613c
000002c0: 8f5b a1bc 2d02 4cbc d615 913c 4023 8e3c
000002d0: 81a5 8c3b 9e23 52bd a451 a63c 8481 a8bb
000002e0: 52b6 fdbc 7c59 56bc c724 b53c 832f bfbc
000002f0: 4160 4d3d 2a0c e13c 1c49 fc3b bf63 04bb
00000300: 88c5 973c 8654 733c cad7 473c 2a01 123d
00000310: ff8f 253d 88d3 993c 6e04 ae3c 6381 d13b
00000320: 48c5 a53c 2f7b c63c f329 b93c 583d 0a3c
00000330: 4456 65bc 2f75 dd3c fbac b53c 1146 913c
00000340: 2547 743c 5918 153b b5a6 123d 8990 c63c
00000350: 1cf2 4ebb 34d3 d3bc 56ea b43c 429d 923a
00000360: ccd6 1f3c 1d3e 30bb 7357 d93c 3980 b339
00000370: 9341 803d 8908 863c 8810 873c acd5 ad3c
00000380: 5aa4 553d 0a26 6d3c 3642 463d 697a 15bb
00000390: 4937 033c 66e0 473d aee1 083d 7dc4 003d
000003a0: 3b98 353c 1678 393d a2d3 5b3c 546e 3b3c
000003b0: 9120 5c3d b1e4 1c3d 79cf b93a df5d 8d3c
000003c0: 57e2 123d 8d88 e4ba 977a 093c 5cbd ba3b
000003d0: e762 353d 5058 973c d90a ec3c 73d8 603d
000003e0: b5df 563d 2fd1 3e3d 9a9e 433c 3b01 173d
000003f0: 307b 2d3c 4d55 273d ef2d e13b dc95 9f3c
