autoencoder_1.pth (torch, 113736 bytes, 8 tensors)

encoder.0.weight f4 [47, 282]
00000000: ead2 913c 7bff 3abd 665e 00bd f159 163d
00000010: 34ea 283d e311 49bc 7011 5a3c 801c 64bd
00000020: 8ee7 243d 660c 283d 009d 283c 4c0e 8fbd
00000030: 78ec c0bc 007c 72bd e9b2 cabb f615 60bd
00000040: 2457 42bc 4be3 09bd 9d26 6dbd 3ff3 36bc
00000050: 0da4 41bd 195b 7cbd 6bfa cf3c fa4a debc
00000060: ed98 f4bc 0432 54bd c835 cebc af66 cc3c
00000070: eea6 95bd 68f2 3cbd 7441 8cbd e354 85bc
00000080: 52b3 c13c cb76 7ebc bb75 e9bc 4014 81bd
00000090: b9af 9f3c 677b 8abc b775 aabd 2280 71bd
000000a0: cc9a 95bd 8f55 2ebd 8130 e83a 7b3a b9bd
000000b0: 235f b738 6303 49bc 03a6 dabc 4c61 66bd
000000c0: 3e43 09bd 90e7 a8bd 366a 8fbd 14eb b4bd
000000d0: 4daa 85bc a51c 84bd abc1 a1bd 1688 743b
000000e0: d763 a5bc a132 0dbd d830 3ebc 072a babd
000000f0: 41f1 de3b a0dc e23c 7277 9cbd 3b05 60bc
00000100: ba52 fb3b 2617 b4bc 8a8c 86bd a78e 183c
00000110: 22a2 c43c 9f18 82bd 4936 babb 2847 92bd
00000120: 9aca 74bd 82e6 6f3c 7ba4 033d cae2 57bd
00000130: bb95 4c3c 6280 cdbc 11f2 093d 7319 73bc
00000140: d531 5e3a b653 79bd 84b1 8dbd 3110 e6bc
00000150: e383 303c a5f7 913c 7795 2e3d a71e 1a3d
00000160: 4eb7 953c b986 d13b c166 c7bc d886 12bc
00000170: b44a 043b 74f8 653d 69ab 15bd b4c1 8d3d
00000180: 31f3 7e3c 567f 423c c7a6 843d f226 593c
00000190: 75b1 783d 3954 e63c 0286 0ebd 5828 cb3c
000001a0: 8e9d d83c 79a0 1f3d 97f6 373d 0b40 753c
000001b0: fdc8 0cbd 6966 afbb df78 833c 162e b4bc
000001c0: ad16 9ebc 011f 9fbc e556 9e3b 8ff9 9fbc
000001d0: fb54 50bd 612f 6f3c bcf6 e3bc 7e76 3cbb
000001e0: 9775 d6bc f1dc bc3a f22d 453d 0ace d63c
000001f0: 7636 49bd a799 893b b6c7 51bd 57cf aa3b
00000200: 28f6 613d a992 cd3c 44bb 0a3c e2fd a63c
00000210: 0c22 2fbd fd4a 57bd 191a 093c addc 32bc
00000220: 8330 523c f591 113d e992 86bc ac36 bc3b
00000230: 111e 79bd c511 04bb db5d ccbb e55d 41bd
00000240: c1e9 8ebd c9f9 08bd c3ec 47bc 56dd e23b
00000250: 7132 e5ba f626 953c e286 33bd 5386 253c
00000260: 27e8 acbc e266 86bd 87f3 29bd 34d5 d73c
00000270: cc42 c93c d331 b53c c5cc eebc 1564 e83c
00000280: 44d5 e43b bc62 b33c 4771 bf3c dea4 45bc
00000290: c419 ea3c 67ac 92bc 95ce 55bc a7d1 b33a
000002a0: 8250 813b 7545 6abc f049 893c 0c1d 89bd
000002b0: 176c b3bc 10e2 a83c 4357 debc a6c9 42bd
000002c0: 97b6 42bb a609 5cbd 963a 32bd d4d2 43bd
000002d0: 024a 0ebc 83fb 00bd adcc 1abc 8883 82bd
000002e0: 6e06 fa3a 0484 63bd 1e5e 33bc 7c81 91bd
000002f0: 9ab0 173c 853b fcbc 8c2b d8bb 5d94 32bd
00000300: ccf9 05bd ba69 86bd d3e0 5fbd c877 45bd
00000310: d874 6bbd b98c 95bd 4b1b 33bd ad49 44bd
00000320: 3f70 dc3c dc41 24bd 06f7 93bd 412e 16bc
00000330: 1729 0abc 4929 6fbd 9f9a b8bc d535 04bd
00000340: 6f95 9abc 0066 81bc 913a b43b b006 aebd
00000350: b614 75bd a9f9 b0bc 2488 9abd d2f1 02bd
00000360: ca92 b7bd 3e3c b5bd d22c c2bb 3cab 38bd
00000370: 541d 403c be6a 99bd d757 bf3c d4e2 3f3b
00000380: 3795 9bbb f84d 0d3c e640 87bc 89fe b5bb
00000390: 5f5a 9dbd a2d0 e8bc dd53 b83b 929f 94bc
000003a0: 1159 b8bd a45e 16bd a68b 8cbc eea1 393c
000003b0: 8182 1dbc 1864 d4bb 2505 bebd 4a27 05bd
000003c0: 84e0 2fbc 3876 b1bc 3d55 75bd 3792 b0bc
000003d0: 9d90 cc3b 109d 98bc f184 c1bd 72d7 ccba
000003e0: e248 37bd da2b b9bd a9a0 3a3b 3567 0ebc
000003f0: 1466 0ebd 00e6 bebd 14d2 d3bc 828e a6bb
0.017800767 -0.0456538 -0.031340025 0.03670687 0.04123898 -0.012272331 0.0133098215 -0.055691242
0.04025989 0.04102745 0.010291338 -0.06985149 -0.023550257 -0.059200287 -0.0061858785 -0.054708444
-0.011861596 -0.03366403 -0.057898153 -0.011166393 -0.04727559 -0.061610315 0.025387963 -0.027135361
-0.029858077 -0.05180551 -0.02517213 0.024951307 -0.0730723 -0.046129614 -0.06848422 -0.016275829
0.023645077 -0.015531252 -0.028498521 -0.063026905 0.01949297 -0.016904546 -0.083232336 -0.058960088
-0.07304916 -0.042562064 0.0017714651 -0.090443574 8.7438406e-05 -0.012268874 -0.026690489 -0.056245133
-0.033511393 -0.08247292 -0.0700268 -0.088339 -0.016316557 -0.06450776 -0.07898267 0.003731256
-0.020189209 -0.03447211 -0.011608325 -0.09090047 0.006803662 0.027693093 -0.0763997 -0.013673122
0.007669774 -0.021983694 -0.065697744 0.009311355 0.024003092 -0.06352352 -0.005682741 -0.07142478
-0.05976353 0.01464236 0.032139283 -0.052706517 0.01248687 -0.025085632 0.03367812 -0.014837611
0.00084760535 -0.06087085 -0.06918624 -0.028083893 0.010773632 0.017818281 0.04262301 0.03762689
0.018275883 0.006394234 -0.024340989 -0.008943282 0.0020186128 0.056145146 -0.036540423 0.069217116
0.015560911 0.01187118 0.06477123 0.013253914 0.06071611 0.028116332 -0.03479577 0.02479951
0.026442315 0.038971398 0.0449129 0.014968882 -0.034371365 -0.0053527844 0.016048847 -0.021994632
-0.019297922 -0.019423964 0.004832136 -0.019528178 -0.050862294 0.014598698 -0.027827613 -0.002875715
-0.026179118 0.0014409107 0.04813952 0.026221294 -0.049124204 0.004199225 -0.05121585 0.005212705
0.055166394 0.025094347 0.008467499 0.020384733 -0.04275708 -0.05256175 0.008368039 -0.010916871
0.012828949 0.035539586 -0.016427474 0.005743822 -0.06081969 -0.0020152193 -0.0062367744 -0.047208685
-0.06978179 -0.03344134 -0.0122024445 0.006923358 -0.0017486346 0.018207055 -0.043829806 0.010102826
-0.021106793 -0.06562592 -0.04149201 0.02634678 0.024567984 0.022118485 -0.029150376 0.028368035
0.006983431 0.021897666 0.023369445 -0.012063233 0.02857674 -0.017904473 -0.013049741 0.0013719097
0.003946365 -0.014298786 0.016758889 -0.066949934 -0.021902127 0.020615608 -0.027141219 -0.04755559
-0.0029710883 -0.05372014 -0.043512903 -0.047808483 -0.008684637 -0.03148986 -0.009448213 -0.06372744
0.0019075403 -0.05554582 -0.010947732 -0.07104775 0.009258414 -0.0307901 -0.006596988 -0.04359852
-0.032708928 -0.065631345 -0.05465777 -0.048209935 -0.057484478 -0.07302231 -0.0437272 -0.047921825
0.026908992 -0.04010187 -0.0722485 -0.009166301 -0.008432648 -0.058388982 -0.022534667 -0.0322779
-0.018870084 -0.015795708 0.0055001457 -0.08497369 -0.059834205 -0.021603422 -0.07545498 -0.0319689
-0.08963545 -0.08849381 -0.005925753 -0.045085177 0.011725742 -0.074910626 0.023357315 0.0029279487
-0.0047480124 0.008624546 -0.016510438 -0.0055540246 -0.076832525 -0.028419796 0.0056252317 -0.018142495
-0.09001363 -0.03671135 -0.017156433 0.011330111 -0.009613634 -0.0064816587 -0.09278325 -0.032508172
-0.010734681 -0.021662816 -0.059895743 -0.021554096 0.006242825 -0.01862958 -0.09449185 -0.0015628173
-0.04474724 -0.09041567 0.0028477109 -0.008691599 -0.034765318 -0.09321213 -0.025857009 -0.005082906

encoder.0.bias f4 [47]
00000000: 4ecd afbb 6142 13be deb2 20bc d574 19bd
00000010: 2d55 6bbd 09bd eebd 724b a8bd 0f17 f63d
00000020: ce37 05bd f912 38bd fc93 42bd a266 5d3d
00000030: edf1 ec3c fe0e 85bd 3b97 da3d 636f 53bc
00000040: 281f 103d 8e45 ac3d b5b8 0fbe 953c 8abc
00000050: f943 a1bd 95df 9eba d71c bdbd 3f0b 01be
00000060: 5a7c e83d 6ab8 a43d 969c 5e3e 3bff debd
00000070: 3fe9 babd cfbd 303e 8c87 dabd ffc9 ea3c
00000080: 528c ccbd 0bd4 1abc f777 8dbb 483a 4abd
00000090: 6965 003e 1ec1 c83c 8fd9 fdbd a3e6 9bbd
000000a0: 2872 98bd 32a1 26be 9f44 2f3d 8754 f0bd
000000b0: 5b27 c93d d0b8 11bd d304 d3bd
-0.0053650504 -0.1438079 -0.00980827 -0.037464935 -0.057454277 -0.11657149 -0.08217515 0.12016117
-0.032523923 -0.04493997 -0.04750441 0.054052956 0.028923953 -0.06497 0.10673376 -0.012904975
0.035185963 0.08411704 -0.14035304 -0.01687459 -0.07874293 -0.0012121076 -0.092340164 -0.12601946
0.11351843 0.08042987 0.2173942 -0.10888525 -0.091265194 0.17259906 -0.10670385 0.028660772
-0.099877015 -0.009449969 -0.0043172794 -0.049371988 0.12538685 0.024506148 -0.12395012 -0.0761235
-0.074436486 -0.16272429 0.04279005 -0.11734872 0.098219596 -0.03557664 -0.103036545

encoder.2.weight f4 [8, 47]
00000000: c83f 883d 6430 96bd 97fe ecbc 04e6 bcbd
00000010: cbdc d9bd 4460 ba3d 8a8b 473b f5b8 a3bd
00000020: 6267 1f3d bf3c 723d 2689 d83c 2e2a eabc
00000030: 81c6 c63d d1a9 e03c d7cd 9e3d ac04 043e
00000040: 6130 303d 5c79 4cbc 36f1 e4bc 2ed8 bf3b
00000050: f350 c13c 43c3 e9bc 58cb 503d 82f0 26bd
00000060: 2b86 cf3d ba74 073e fce9 463e 46a6 02bd
00000070: 108f 94bb 0c6d f3bc 219c 813d 6c17 5bbd
00000080: 38df 963d fe30 6dbc 709b fcbd e992 ed3d
00000090: daa9 febd dfa8 cdbc 6c4f 43bd a647 c13d
000000a0: 4553 98bd 3b81 8c3d 0ccb 233d 433b fbbc
000000b0: 0054 0dbd 86ac a53d 0aae 913c 4999 923d
000000c0: e15e d43c 6940 7cbd 4824 94bc 6d0a 7dbc
000000d0: bcee 773d c879 d9bc f6fa 4fbd f23c 45bb
000000e0: ae59 97bc 1491 a7bd 6bc5 503d d02c 143c
000000f0: 239d bbbd 838e ad3d fbf1 7d3d 3e8c 6c3d
00000100: 489d c6bc 5e59 853d 4d86 57bd 43fa 8abd
00000110: 4034 0abd 47ee 1dba 4ea7 82bd 6648 d53c
00000120: 2c68 c53d 6268 ba3d 54e5 033d 9ff4 b5bd
00000130: 6e6e a53d 31e3 b93d 3680 243a a5cf cebd
00000140: 026f 2cbd b13d ca3d 7269 81bd 475f bcba
00000150: 66c6 703d ada5 ea3d 86c6 e63d d66f d3bd
00000160: 78d6 f03d a567 493d a9ca adbd 03ae edbc
00000170: 77c9 093d 54d7 043e 0285 ddbd 2cfd cfbc
00000180: fdf3 a1ba bad9 ddbc e54d 1cbe 6f95 ec3c
00000190: f450 4ebb 7019 86bd 8b34 903d 0a74 8ebd
000001a0: 754c 043d 7afc 0c3d 4c14 dd3d f665 94bd
000001b0: e974 04be 2f67 913d 0d63 48bc a1ee 243d
000001c0: a733 dabb 2a40 0a3d abf0 1c3d 16a0 2a3d
000001d0: 62b2 573d 8a7e c9bd f004 efbd 303e 853d
000001e0: b1c7 233d e052 953d 9596 fcbd ae64 b73c
000001f0: c072 f1bd 7e13 4d3d 40d3 263d 53de 52bd
00000200: ec1e f23b 1e1f f9bc 349c 093e 608b 8ebd
00000210: 91ed 7bbd 18f2 86bd 7025 d0bd 14e0 0f3e
00000220: 6519 b7b8 b188 bfbd e5d1 063e ff03 7e3c
00000230: 2995 b7bd 5833 c93d cd3c e1bb 5e5c aebd
00000240: 171a dc3d 5186 2e3d a60c 963d 4de7 f3ba
00000250: 45e1 1b3e e1e1 44bc d4ce f4bc daa5 3ebd
00000260: 11aa 583d 4d22 103e 2891 07be 9d8f 673c
00000270: cd19 fa3d d2c8 d5bd a332 a1bc 9490 d83d
00000280: d00d 7bba ac17 6fbd 16b3 c8bd 25d7 9c3c
00000290: a836 293d cdc8 c1bc 6a48 f3bd a039 9cbd
000002a0: 1910 e13d 6b47 b8bd f3a4 1dbc 2051 7a3b
000002b0: 1c96 4a3c f772 693b 2cfd 833d 3dc8 0cbd
000002c0: 76c9 ee3c 1ac5 a2bd 3fbd 4ebd d6d4 c33d
000002d0: 9395 b83d 211c 9c3d e3e0 00be 3e80 683c
000002e0: 3f9b 1abd 6810 f7bd a9ab e3bd 3c4a c73c
000002f0: 8803 2d3d d05a c23d 3b12 a6bb 9c3c b83b
00000300: 55b0 46bc 9fda 283e dc84 a23d c5c5 623e
00000310: 9ff6 a43c c951 5fbd 4403 29bd deff fd3d
00000320: 93a7 e5bd 1f40 083e c40c 853d 10a6 90bc
00000330: d931 2dbc 77d3 473d ea7d fabd b9cb 27bd
00000340: 448c abbd a25c dd3c af98 95bd 4bec cc3d
00000350: 79cf 57bd 6369 f8bd 9980 ff3b 5387 eb3b
00000360: 616d c7bc ae51 a3bd 044f d2bb 027f 58bd
00000370: f066 5bbd 81ee 91bc 36c7 f6bd ffc3 47bc
00000380: f457 7f3d 8c61 e9bd 9f8e 253e fb15 ebbd
00000390: a7f9 abbd 4327 09be 26ba 43bd 9f38 033e
000003a0: 449b 5bb9 9372 013e 2022 c7bd faac 1b3d
000003b0: 3549 253e 65f6 9d3c 806b 423d 324e 943d
000003c0: c06d 83bd 6e6c c13d 0c64 0cbe 60c7 f9bd
000003d0: 78f4 063e f7de 88bd eb85 1cbd 117a 32bd
000003e0: 4963 9dbd a239 383d 25ae b23d fd56 e2bd
000003f0: ac0e 38bc e8b6 e23c dc3b 04be ee8b da3d
0.0665279 -0.073334485 -0.028929992 -0.092235595 -0.10637816 0.091003925 0.0030448162 -0.07994262
0.038916953 0.059139963 0.026432585 -0.028584566 0.0970583 0.027424725 0.077541046 0.12892407
0.043014888 -0.012480106 -0.02794705 0.005854628 0.02359817 -0.02853549 0.050975174 -0.04075671
0.101330124 0.13228121 0.19425195 -0.031896852 -0.004533656 -0.029715084 0.06328607 -0.053489134
0.07366794 -0.014477013 -0.12334335 0.116002865 -0.1243474 -0.025104938 -0.047683164 0.09437494
-0.074377574 0.06860586 0.039988562 -0.030667907 -0.034503937 0.08089547 0.017783184 0.07158143
0.025924148 -0.061584864 -0.018083706 -0.01544438 0.06053041 -0.026547328 -0.050776444 -0.003009614
-0.01847538 -0.08181968 0.050969522 0.009043887 -0.09160831 0.084744476 0.06199835 0.057750933
-0.02424492 0.06511186 -0.052618314 -0.06786015 -0.033741236 -0.0006024581 -0.06379567 0.026035499
0.0963901 0.09101941 0.032201126 -0.088845484 0.080777034 0.090765364 0.00062752084 -0.10098199
-0.042098053 0.09875048 -0.0631894 -0.0014371657 0.058782957 0.114573814 0.11268334 -0.103240654
0.11759657 0.04917111 -0.0848592 -0.02901364 0.033639397 0.12972766 -0.10816385 -0.025389276
-0.0012356039 -0.02708136 -0.1526409 0.02887985 -0.0031481357 -0.065478206 0.07041272 -0.069557264
0.032299478 0.034420468 0.10794887 -0.0724601 -0.12935223 0.07099759 -0.012230647 0.040266637
-0.0066589895 0.033752598 0.038315456 0.041656576 0.052660353 -0.098385885 -0.11670864 0.06506002
0.039985362 0.07291198 -0.12333409 0.022386875 -0.11789465 0.050067417 0.040728807 -0.051481556
0.00738894 -0.030410346 0.13438493 -0.069601774 -0.061505858 -0.065891445 -0.10163391 0.14050323
-8.73085e-05 -0.09352244 0.13166006 0.015503882 -0.08963997 0.09824246 -0.006873703 -0.085137114
0.10747164 0.042608563 0.07326631 -0.0018608362 0.15222652 -0.012016744 -0.02988378 -0.046544887
0.052896563 0.14075585 -0.13238966 0.014133361 0.12211952 -0.10438694 -0.019677466 0.10574451
-0.00095769484 -0.058372185 -0.09799783 0.019145558 0.04131189 -0.02365532 -0.11879046 -0.076281786
0.109893985 -0.08997997 -0.0096218465 0.0038195327 0.01236489 0.0035621503 0.06444773 -0.03437065
0.029148798 -0.079477504 -0.050473448 0.095620796 0.09012904 0.07622553 -0.12585787 0.014190732
-0.03774571 -0.12063676 -0.11116726 0.02432739 0.042239696 0.09489977 -0.005068091 0.0056224596
-0.012127002 0.16489647 0.07935497 0.22145756 0.02013713 -0.054521356 -0.04126288 0.124023184
-0.11213603 0.1330571 0.064965755 -0.01765731 -0.010570967 0.048785653 -0.122310475 -0.04096577
-0.08376363 0.02702171 -0.07304513 0.10006007 -0.052688096 -0.12129476 0.0077973125 0.0071877628
-0.024344148 -0.079745635 -0.006418111 -0.0528555 -0.053564966 -0.017813923 -0.12049715 -0.012192725
0.062339738 -0.11395559 0.16167687 -0.11478802 -0.08397227 -0.13393883 -0.047784947 0.12814568
-0.00020943308 0.12641363 -0.09723306 0.03800676 0.16141208 0.01928253 0.0474658 0.07241477
-0.064174175 0.094445094 -0.1371004 -0.12196231 0.13179195 -0.06683152 -0.03821365 -0.043573443
-0.07684953 0.044976838 0.08724622 -0.11051748 -0.011233967 0.027675107 -0.1291346 0.10671221

encoder.2.bias f4 [8]
00000000: 461f 07bd 8f1e 113e 0888 a4bd d9ac edbd
00000010: ffe6 26bc bd51 d33d 6686 a2bd 57a0 b43b
-0.03298881 0.14171813 -0.080337584 -0.11605234 -0.01018691 0.10318325 -0.07935791 0.005512278

decoder.0.weight f4 [47, 8]
00000000: 99bc 063e 41b6 54bc 4418 aabd be80 703e
00000010: 47ef bbbd 0a54 08be 5671 1cbe d15d 793e
00000020: 2ab6 053e 64c6 4f3e 051c 2d3e e28a 05be
00000030: 71a6 82be 907a eb3d db65 97be 85d0 9bbd
00000040: fb29 d33d af71 21be c725 77be 1b2c 813d
00000050: efb8 50bd 772b 7fbe 1cab 88be 6e18 99be
00000060: 52a8 e03d 7be1 4abe 3a75 c3be 1e32 8cbe
00000070: 223a 2b3d 40c0 023e 26ed 59be db07 773e
00000080: 4bbe 073d fb06 923e 1b17 61be 3065 6bbe
00000090: 2ac2 903e 2333 41be 543d 1a3e d1b8 27be
000000a0: a51b 953d 6c84 773e 6f50 b53d 5cde 9e3e
000000b0: 31b0 1dbe e7cd 28be 71d6 c7bd 1320 43be
000000c0: 6fd8 743e 1dcd 8fbd 76f7 8fbe d43f 8f3e
000000d0: cdc6 753e 7cd2 623e cd1e 893e 6955 52be
000000e0: 0b29 03be 8d78 a4bd b83d 94be 4710 2abe
000000f0: f4ab 84bd 04f2 bc3d 83ef 1abc 32c7 aabe
00000100: 76fb 27bd 9404 5d3e 00e6 9c3e bfec aa3e
00000110: 5ef3 cabd 88b9 0e3e da5d cbbd a1ec 2c3e
00000120: d610 84bd 1e71 343e b279 0f3e 1a87 1b3e
00000130: c45b 77be 0aad f03c 1101 6dbe 6037 dbbd
00000140: 125a f23d 816a 75be 5bd2 ac3e 1af9 433e
00000150: 0f23 68be 7351 e63d f2fc 9d3e 7581 143e
00000160: a74b 8a3e 234b 57be 9594 86be fe3a 27be
00000170: 2928 9c3e 6e18 1b3e 2778 bbbc c537 883e
00000180: cac6 92be 7fbb 46be 2b07 7abe c8fe 73be
00000190: e6ba b0be f70d 3d3e 9a6a 753d 5dc1 bbbd
000001a0: dfcd f5bd 234b 33be 194b 5abe 48dc e93d
000001b0: 393e 75bc 098e 81be fc99 913d 3f41 9c3d
000001c0: d0bd 993e cf39 103e d6a7 77be eb1e 60be
000001d0: 3642 743e cdae 25bd e64e 22bb 244d 4fbe
000001e0: 7c81 a83e e145 f23a 1820 c23e da51 5f3e
000001f0: 199e 0c3e 2ff6 27be 5956 2cbe e80a a33a
00000200: ecb2 213e 3ea4 babe 47bd b33e 0d3c 393e
00000210: 4e4c ca3d 4b83 2a3e 86ca 173e a864 78be
00000220: 11ee 5bbe 6e8b 153d 02b9 82bd 07fe 32ba
00000230: f0e1 05be 3e29 5c3b 5774 613d 072d 3e3d
00000240: 0b10 f5bd 36b2 63be a514 1b3e 1782 38be
00000250: bc01 90be 5490 553d 7d0f a93e 5f2c 873e
00000260: 8403 463d 8045 afbe 2644 7cbd cd15 35bd
00000270: a8f6 463e 077d 4b3e fef4 8fbd 2204 b23d
00000280: 4bea ffba e6a6 323e cdb7 9ebe 5f6b 00be
00000290: ea2c 063e 9a0b 59bd aba1 2dbe 8a88 573e
000002a0: 632e 463e efe7 8f3e 785d 92be 6a60 833d
000002b0: 0548 9fbd 6efe 2cbe 4e8a 353e 092e 6bbd
000002c0: 0c6f c33e 6cdf 913e 4110 febc 248d 06be
000002d0: 04f7 8c3e 1949 babe 192c c8bc acec 083e
000002e0: d9f7 9e3e 7533 ecbd 321a 93bd 7e16 8c3e
000002f0: 3f39 21be 95e5 aebd 4234 773e cfe0 eabc
00000300: 7c02 40be a49e f6bc 894e 91bd cc27 873b
00000310: 7a50 91be 1593 203d 1546 edbd b83c 2c3e
00000320: 1690 dd3d 05eb 1fbe 6df4 8abe 4578 1fbe
00000330: 446d 91be d691 173e 4a6e 403e 29d1 c5bd
00000340: 8450 183e 0c46 7e3e afd3 27be 9111 38bd
00000350: 4690 5f3c 26b4 a5bd bbfd 3d3e c103 3e3e
00000360: 798e 7cbe 3318 1d3d 94a6 a9bc af28 213e
00000370: 37d4 66be 177c 03be acc5 423e 8a31 853e
00000380: db8e db3e 171e fbbc d413 1f3e 39d4 23be
00000390: ed04 aebe 0a9c 9d3e b4d9 ad3d 3cfb debd
000003a0: c973 0ebe 6b6b 9b3e fc2c ffbd fba1 cc3d
000003b0: d6fb 4d3e 310c 1fbe 6632 123e 1290 4f3e
000003c0: cfb0 32be 30e5 28be a892 873e 1c36 8e3e
000003d0: fa73 84be 798f 7fbe 44aa 9ebe 00d7 0abe
000003e0: db92 09be 550b d2bd e7bd 393a 3887 57be
000003f0: b9be f1bd 8bd6 743e b06f 81be 1a53 313e
0.13157882 -0.012982906 -0.083054096 0.23486611 -0.09176498 -0.13313308 -0.15277609 0.24352194
0.13057771 0.20290524 0.1690522 -0.13041261 -0.2551761 0.11497986 -0.29569897 -0.07608131
0.103107415 -0.15766023 -0.24135505 0.063072406 -0.050957616 -0.24918924 -0.26693046 -0.2990145
0.109696046 -0.19812576 -0.38175374 -0.27381986 0.041803487 0.1276865 -0.21281871 0.2412409
0.033140462 0.2852095 -0.2198147 -0.22987819 0.28273135 -0.18867163 0.15062457 -0.16379096
0.072806634 0.24171609 0.08853232 0.31029022 -0.15399243 -0.16484796 -0.09757698 -0.19055204
0.23910688 -0.07021544 -0.28118485 0.27978384 0.24001618 0.22150606 0.26781312 -0.20540394
-0.12808625 -0.08030806 -0.28953338 -0.16607772 -0.0647811 0.09225848 -0.009456518 -0.333551
-0.041011296 0.21583778 0.30644226 0.33383748 -0.099097 0.13937962 -0.0993001 0.16887142
-0.06448524 0.17621276 0.14011267 0.15188256 -0.241561 0.029379386 -0.23144938 -0.10703921
0.11833586 -0.2396641 0.33754238 0.19137993 -0.22669624 0.11246004 0.30857044 0.14502509
0.27010843 -0.21024756 -0.26285234 -0.16331097 0.3049939 0.15146038 -0.022884442 0.2660505
-0.2866729 -0.19407462 -0.24416797 -0.2382766 -0.34517592 0.18462358 0.059916116 -0.091677405
-0.120021574 -0.17509131 -0.2131771 0.114189684 -0.014968448 -0.25303677 0.07109448 0.07629632
0.30027628 0.14084552 -0.24185118 -0.21886794 0.23853382 -0.040449906 -0.0024766265 -0.2024427
0.3291129 0.001848396 0.3791511 0.21808568 0.13732184 -0.16402505 -0.16829814 0.0012439163
0.1579091 -0.36453432 0.35105345 0.18089314 0.09877835 0.16651647 0.1482335 -0.24257147
-0.21477534 0.036509924 -0.06382944 -0.0006828014 -0.1307447 0.0033593918 0.05504259 0.04642966
-0.119659506 -0.22235951 0.15144594 -0.18018375 -0.28126323 0.052139595 0.3301963 0.2640104
0.048343197 -0.34232712 -0.06158843 -0.044210244 0.1943003 0.19871913 -0.070291504 0.086921945
-0.0019524781 0.17446479 -0.30999604 -0.12540959 0.13103071 -0.05298958 -0.16956203 0.2104818
0.19353633 0.2810664 -0.28586936 0.06414874 -0.077774085 -0.16893932 0.1772854 -0.05741695
0.3817066 0.2849077 -0.03101361 -0.13139778 0.27532208 -0.36383894 -0.02443509 0.13371533
0.31048468 -0.11533252 -0.07182731 0.2736091 -0.15744494 -0.08539883 0.24141029 -0.02867165
-0.18750948 -0.030104943 -0.070950575 0.004124617 -0.2838171 0.03920277 -0.11585633 0.16820037
0.10818498 -0.15616997 -0.27139607 -0.15573223 -0.28403676 0.14801726 0.18792072 -0.09659035
0.14874464 0.24831408 -0.16389345 -0.044938628 0.013645237 -0.08091001 0.18553822 0.1855612
-0.24663724 0.038353156 -0.020709313 0.15738176 -0.22541891 -0.12840305 0.19020718 0.26014358
0.42882428 -0.030653996 0.15534908 -0.15998925 -0.33988133 0.3078311 0.08488789 -0.10887763
-0.13911356 0.3035539 -0.12459752 0.09991833 0.20115599 -0.15531994 0.14277038 0.20269802
-0.1745026 -0.16493678 0.26479077 0.27775657 -0.25869733 -0.24957074 -0.30989277 -0.13558578
-0.13434927 -0.10256068 0.00070854876 -0.21047676 -0.118039556 0.23909967 -0.25280523 0.17316857

decoder.0.bias f4 [47]
00000000: 65ec bc3c be74 0fbe 17a8 cebd 8c9c f23d
00000010: 0403 0e3e 4b19 26bd dc0f 9d3e 26ed 883e
00000020: c91b c6be 0e48 65bd 3070 363e 5812 a53d
00000030: f10c 2a3d 711e b13d ad9c cd3d f299 f2bd
00000040: 5b16 a5bb 34a9 df3d 61b5 1b3e 934c a53d
00000050: 064b 08bd bcff 3ebd cc2c f43c 11e9 0d3e
00000060: e0b6 f33d 139f 4f3d f83d 6c3d b459 db3d
00000070: 7a12 5d3e ec72 3bbd e080 c53d aff2 11bc
00000080: b0a0 c0be b15b 3b3d b37f 8cbd e827 b5bd
00000090: 9f4c 58bd 25f0 163d b472 133e af96 b3be
000000a0: af9e 263c 80c9 c2bd 7ee9 e7bd 302e debd
000000b0: cccf 3bbe 2f28 153e adfa 123e
0.02306194 -0.14009377 -0.10090654 0.11846265 0.13868338 -0.040551465 0.30676162 0.2674343
-0.38693073 -0.05597692 0.17816234 0.080601394 0.041516248 0.08648384 0.10039649 -0.11845769
-0.0050380654 0.10920945 0.1520591 0.08071246 -0.033274673 -0.046630606 0.029806517 0.13858439
0.11900115 0.050688814 0.057676286 0.10710469 0.2158908 -0.045763895 0.096437216 -0.008907958
-0.37622595 0.04574174 -0.06860294 -0.08845502 -0.052807447 0.036850113 0.14399225 -0.350759
0.010169669 -0.09511089 -0.11323832 -0.10848653 -0.18340987 0.1456611 0.14353438

decoder.2.weight f4 [282, 47]
00000000: bcdf 0f3e 1931 afbd 6de4 f5bd 20d5 07bc
00000010: 90c1 b6bd 8fd2 c7bd 49fd 6fbd fb36 f13c
00000020: 2056 18be 2173 b3bc 8a0b 40bd aae6 3fbd
00000030: 0e94 2d39 30cc 1f3e d005 5bbe 64cc b33a
00000040: 62cd c83d 5238 1f3e 9e19 aebc 3564 3f3e
00000050: 1439 b23d b596 b1bd ad55 39be e0c1 3f3b
00000060: 719b 2e3e a5e9 08bd e396 d83d e3ff 8ebd
00000070: ed7e a3bd 4ea7 73bd 7428 31bc 2801 8b3d
00000080: dd60 0a3e 7325 aebd 1c03 71bc 251e 8cbd
00000090: ef8b ef3d e7fb e7bc 6087 31bd 6aa6 2bbc
000000a0: 7aba 083e bc05 883d 5985 f93d b49f 363e
000000b0: 23a3 ccbd 0959 a33c dbe6 3fbd 0b1d af3b
000000c0: d1c6 13be 1585 ca3d 05b2 1e3e 8d55 5dbd
000000d0: 3aec 22be c9da f1bb 78ac e1bd 6b56 f1bd
000000e0: bd19 d8bc 4f35 513d 5db8 c53d ee70 253d
000000f0: d323 183e 8e59 803c 8d3b 22be 71dc e33c
00000100: 3a28 a83c 207c d23b 08ee 823e e6f3 0f3c
00000110: 5abe fe3d 23a0 3ebe c9d5 9abd efcb 783d
00000120: db0c 55bd 83b4 ab3d c5d2 653d 642f f2bc
00000130: 7c30 033e 054f 0dbe 5525 133e bb7a 24bc
00000140: 9510 bcbc ff14 84bd 742f e83d b8b2 d8bc
00000150: 2082 a33d ae8d adbd 38e3 20bd bbb3 a3bd
00000160: 8311 12be 6935 253c 4aed 8dbc 6e6b 2abd
00000170: 95d8 f33b c7af 92bd ead2 bdbd 0e1a 353d
00000180: 3a55 98bc a01b 9e3d 1059 f6bc 9bd0 e6bd
00000190: 7111 7a3d bb03 c23d ef31 3d3b 3123 56bb
000001a0: b12e e73d cf28 183e 63ab 92bd 0c1c 973d
000001b0: 025e 2dbe fa3c 17be a527 c6bd 76c5 94bd
000001c0: 580a 1d3e 50e1 303e 487e 38bd 6726 64bd
000001d0: 74f9 b6bd 9250 d4bd a3fb 0f3e 6a0e 4abd
000001e0: 5e97 bfbd 0288 073e 71a8 1bbd e31d be3d
000001f0: 8c68 94bd effc 353c ba13 aabd 8e5b 873c
00000200: 2a57 613d 0062 53bd 0c91 13bd 09e4 843d
00000210: 8cd5 ee3c 96ad 23bc 89dc 213d 61e7 a43d
00000220: 7c14 08be 9a48 bc3d ac9d a9bb c971 0bbd
00000230: c5b2 9d3d 6d9d 9d3d 9433 58bd d915 35be
00000240: 67db 1fbd b077 54be 731d 2d3c 1135 9f3d
00000250: 2cee c43b 685d d53c def3 0bbe 7bc5 9fbd
00000260: e01c debb 337f a9bc 0620 e73d 03ef 3d3c
00000270: 87de f3bc 569b 7fbd 919d 74bd 06ad d43d
00000280: 02ca 0b3e 0f3d ee3c 127a 653d 1a29 2fbe
00000290: 5ff1 afbd e3ae ccba d0de cd3d eb80 4d3c
000002a0: f7da ed3d 4d29 e5bd c5d0 dbbd bb4e c2bd
000002b0: 3ba9 2b3e 89e2 36bd 6e4f 2cbd 41d0 3f3c
000002c0: bbcf 893d 6b53 993d 82ba c3bd eac8 f63d
000002d0: 6305 f73d 748b 2cbc 46c3 193d 3816 8f3d
000002e0: f95b c43c bd52 f0bd b9db 903c 4e5b a23c
000002f0: 830d d0bc 24d0 c0bc e97c 86bd 627e c73c
00000300: bdd2 c1bd 4838 2d3d 8ef2 8a3d 56b3 603a
00000310: 3b8f 9dbd 9d1c 963c 8dc2 c2bd 0dec 003e
00000320: bd30 043e af89 643c da14 14be 9e94 f2bc
00000330: 7e6a 39bd 7c82 0e3d 582b fd3d d9e5 423e
00000340: 796a cabd 7710 d03d c167 33be 2db7 86bd
00000350: 0780 44bd 38a7 ad3d d9c3 a63d b843 d7bc
00000360: 74c1 bbbd 0f40 fe3c a5ca 6fbb 1587 0c3e
00000370: eda8 0fbe fbe2 303d 0a06 4cbc fdf5 a0bd
00000380: 06d6 f93c d987 ba3c 16e1 45bd c651 f23d
00000390: df5b 95bd d8d8 7ebd 9380 58bd b0e6 f33d
000003a0: b74c 61bd ad48 203d b354 183d 21b9 edbc
000003b0: d733 c6b9 d62c 06be dd52 10bd 8d6f 07be
000003c0: fb49 24be f809 8d3d 73f2 193d f7cb e43d
000003d0: 7dcd e1bd 7c91 1abd eb85 403e 649a c63b
000003e0: e5f5 993d 0d64 cfbd b7c9 42bd 2b77 f83c
000003f0: 50dc b63d 0f6c 073e af58 713e 28a1 273e
0.14050192 -0.085542865 -0.120064594 -0.008290559 -0.08923638 -0.09756958 -0.05859116 0.029445162
-0.14876604 -0.021905484 -0.046886005 -0.046850838 0.0001655372 0.15605235 -0.21388936 0.0013717529
0.09804799 0.15548828 -0.02125245 0.1869057 0.08702293 -0.08671323 -0.18099089 0.0029259846
0.17051484 -0.033425946 0.10575654 -0.069824 -0.079831935 -0.059485726 -0.010812867 0.0678733
0.13513513 -0.085032366 -0.014710214 -0.06841687 0.11696612 -0.028318359 -0.043341994 -0.010476688
0.13352385 0.06641719 0.12183637 0.1783436 -0.09992053 0.019939916 -0.04685102 0.0053440384
-0.14431311 0.09888665 0.15497597 -0.054036666 -0.15910426 -0.0073808176 -0.11019224 -0.11784061
-0.02637946 0.05107623 0.09654305 0.0403909 0.14857416 0.015667703 -0.1584303 0.027815076
0.020526994 0.0064234883 0.25572228 0.008786177 0.124386504 -0.18615775 -0.075603075 0.06074136
-0.052014213 0.08384039 0.05610921 -0.029563613 0.12811464 -0.13799675 0.1436971 -0.010039027
-0.022957126 -0.06449317 0.11337176 -0.026452407 0.07983804 -0.08474289 -0.039279193 -0.07993265
-0.14264493 0.010083535 -0.017325062 -0.04160636 0.00744159 -0.07162433 -0.09268744 0.0442143
-0.018595327 0.07720113 -0.030071765 -0.11270257 0.06105179 0.09473368 0.0028868874 -0.0032674784
0.112882026 0.14859317 -0.07161596 0.073783964 -0.16930392 -0.14769354 -0.0967553 -0.07264225
0.15335977 0.1727345 -0.045042306 -0.055700686 -0.08934298 -0.1036693 0.14060836 -0.049330153
-0.09355043 0.13235477 -0.038002435 0.09283044 -0.07246503 0.011107667 -0.08304544 0.016523149
0.055014767 -0.051607132 -0.036027 0.06488807 0.029154561 -0.009990117 0.03951696 0.080519445
-0.13289064 0.09193535 -0.0051762667 -0.03404406 0.07700113 0.07696042 -0.052783564 -0.17684115
-0.039027598 -0.20748782 0.010566103 0.077737935 0.0060098376 0.026045516 -0.13667247 -0.07801338
-0.0067783445 -0.020690536 0.11285405 0.011592629 -0.029769195 -0.062404 -0.05972058 0.10384564
0.13651279 0.02908185 0.05602462 -0.17105523 -0.0859096 -0.0015616085 0.10052264 0.0125429435
0.1161403 -0.11189518 -0.10733179 -0.09487673 0.16763775 -0.044649635 -0.042067938 0.011707366
0.067290746 0.07486614 -0.09557058 0.1205004 0.12061574 -0.010531295 0.037539743 0.0698666
0.023969637 -0.11734531 0.017682897 0.019818928 -0.025397068 -0.02353675 -0.065667935 0.024352256
-0.09464023 0.042290002 0.06784545 0.0008571645 -0.07693335 0.01832419 -0.09509764 0.12590046
0.12909217 0.013948842 -0.14461079 -0.029611882 -0.045267574 0.03479241 0.12361783 0.19032992
-0.09883589 0.101593904 -0.17520048 -0.06577907 -0.04797366 0.0847916 0.08142824 -0.026277408
-0.09167758 0.031036405 -0.0036589291 0.13723405 -0.14029284 0.043185215 -0.012452612 -0.078594185
0.030497562 0.022769855 -0.04831036 0.11832003 -0.07292914 -0.062218517 -0.052856993 0.119092345
-0.0550048 0.03913181 0.03719015 -0.02901894 -0.00037804127 -0.13103041 -0.035235275 -0.13226147
-0.16043846 0.06886667 0.037584733 0.11171716 -0.11025522 -0.0377364 0.18801086 0.0060608853
0.07517604 -0.10126505 -0.04755565 0.030330261 0.0892874 0.13224815 0.23568986 0.1637007

decoder.2.bias f4 [282]
00000000: 7a2b 943d 438b 283d af59 14bd 85a6 0d3d
00000010: 3fe2 1e3d 1de4 9dbb 6641 9a3c 2aef 10bd
00000020: 4990 91bd b639 8fbc 1e0a 10bc f797 03bd
00000030: 16dc 903c ec78 2fbd 6e2c d1bd 2de7 0d3d
00000040: a3a6 d33c 8c83 ccbc 67e4 0fbd a652 213a
00000050: a13e a6bb 95ea be3b 195e 42bd 2363 d2bc
00000060: 8af1 87bd d905 84bd f510 f63c 08fd 2c3c
00000070: 0824 89bd 93ba 14bc aac6 533d 5624 e8bc
00000080: 7320 5ebd 1b63 bfbd 50aa 11bd ec9e aebc
00000090: b84d 533c 2e4b 54bd 5d16 aabc 2d1e 7dba
000000a0: e6be 6abd 810d 173c f812 49bc 6483 203b
000000b0: c6b3 463b 0183 04bd 40da 81bc a49e 3dbb
000000c0: 8274 c9b9 bc86 9bbd 2053 a1bd 7ca1 2c3d
000000d0: c5f6 77bc b5d8 65bd 65a7 64bd d2d1 32bd
000000e0: 6897 cf3c bc15 f7bc 090d 96bd 4b50 48bd
000000f0: dc4a b83a aa52 6dbd 4ca5 67bd c2f0 c53c
00000100: 2890 903c 665b 8b3c d3d9 f13c a1ae b63a
00000110: 09c2 e13c 2074 5f3d 2b92 e3bc 90bd ef3c
00000120: 6b33 ba3c 8af4 02bd 47e1 6bbc b518 963c
00000130: 94ef 80bb af2c 6ebc 5fb3 6ebd f85c 5ebc
00000140: 14b4 82bd 3269 b13d 619b 413d ab1f 1dbd
00000150: 0e8b 85bd 1961 1a3d 2859 0dbd 0541 163d
00000160: 3f85 9a3c 9911 193d a927 1a3d 32c2 4bbd
00000170: 3dbd 0c3d 0818 8d3c 12ce 23bb 0e05 bc3c
00000180: 0801 0d3b cf71 1a3d 2fe1 d83c 4bbf 943d
00000190: 045c 16bd ad63 613d 6b49 343c 2944 4fba
000001a0: f10c 3a3d 284d 913b 2be5 1ebd 293e ef3c
000001b0: cffc 3fbc 070e 2abc 3132 703c 6f93 c13c
000001c0: 6744 be3b e231 4abd dd09 76bd 218d f13b
000001d0: 2ad2 83bd d59f aebb 8c75 c4bc 3495 57bd
000001e0: b825 5fbc d7cd babc 9cb6 58bc 394f a13a
000001f0: e038 0a3d be99 1ebd 2bbc 993c 07db 183c
00000200: 594a 0fbd 4e80 913c 9fa0 f2bb d667 bd3c
00000210: 6b02 cb3c e42e 3ebc 5467 00bc 7937 82bc
00000220: 8415 af3c 7a6e 95bc 4258 a9bc 311a eebc
00000230: bd0a 94bd 25e6 a0bd e1f7 6bbd 095f 0ebc
00000240: 5186 a83c ae4f 9bbb 24d7 893c aca1 e23b
00000250: 34d5 4ebd 128d 1dbd f2f5 f5bc bd4e 903c
00000260: f5bd 3fbd 78f2 f03c 14da 033d 834f aabc
00000270: 212b 93bb 957f 8d3c 6ffd 283a f21e 513c
00000280: e6fa 01ba f2a3 a6bd af50 733c 64d6 6b3a
00000290: 8db0 84bc 5a8f 4f3b 9274 1b3a 7b2e c53c
000002a0: 4a8e 6bbd d246 073c 74e1 8e3a 1b42 65bd
000002b0: 83bb 16bc 282d 803c 9f22 383d a847 4bbd
000002c0: 8203 bcbc 8521 24bd 606b 183d 01dd 18bd
000002d0: 3322 c6bd 05d4 06bd f537 a33c d7cd fcbc
000002e0: 69c6 5cbc 52fb fcbc 0c9a 553b 1641 57bd
000002f0: df5a 8b3c 36e8 013d b809 c63c ea42 e1b8
00000300: 483a 123d 9ef8 abbc adb8 e8bb b917 0f3a
00000310: dfbe 803c 69b2 6abc fc1a c2bc b0e7 d83b
00000320: b8fc e83c 75ea 49bb ff09 8dbd 3577 c5bc
00000330: 37d3 31bd 4446 2a3c 6082 a8bb 6aec d8bc
00000340: ab6c 0fbd 9873 9dbc e071 8d3d 0453 cabd
00000350: 4fdb 0d3d 1496 f1bc 9b94 00bc 4ae1 20bc
00000360: 04bc 0cbd 0ae2 5f3c 9347 6ebd 2a03 9abc
00000370: 2026 e3bb ecc0 a6bd bd0e f4ba ed95 933d
00000380: 452a a8bc d5b1 623c bd24 bd3c b02e b9bd
00000390: a288 4abd cb56 c2bc 4a9d 3cbc 5598 433c
000003a0: f198 ed3c 1759 05bc 181b 35bb 0ce7 3f3d
000003b0: b44c 963c 920e ddba e053 21bd 2392 823c
000003c0: d696 b1bc e828 2f3c 0742 67bc d18b d33b
000003d0: 9cb9 993d 9ed4 66bc 9e8a 2abd deb0 51bc
000003e0: c56f 15bb 2a8f a4bc b536 f33c 928a 57bd
000003f0: a13b 00bd 59c1 f13b 630f d1bc 51c5 31bd
0.07234855 0.041148435 -0.03621834 0.034582634 0.038789984 -0.004818453 0.018830013 -0.035384335
-0.07107598 -0.017483573 -0.008791475 -0.032127347 0.01768307 -0.04283993 -0.102135524 0.034644295
0.025836295 -0.02496507 -0.03512993 0.0006153978 -0.005073384 0.005826304 -0.04745302 -0.025682038
-0.06637867 -0.06446428 0.030037383 0.010558374 -0.066963255 -0.009077686 0.051703133 -0.028337639
-0.054230165 -0.09345075 -0.035562813 -0.021316014 0.012896948 -0.05182951 -0.020762617 -0.00096556806
-0.05731096 0.009219528 -0.012272589 0.0024492377 0.0030319556 -0.032351498 -0.01585114 -0.0028933669
-0.00038424513 -0.07594058 -0.07877183 0.04214619 -0.015134518 -0.05611487 -0.055823702 -0.04365713
0.02534075 -0.030161731 -0.07326705 -0.0489047 0.0014060396 -0.057940163 -0.056554124 0.024162654
0.017646864 0.017011356 0.029522812 0.0013937542 0.027558343 0.054554105 -0.02777966 0.029265195
0.022729596 -0.031971492 -0.014396972 0.018322328 -0.00393481 -0.014537021 -0.05827653 -0.01357197
-0.063820034 0.086626425 0.04726732 -0.03836028 -0.06520663 0.037690256 -0.034508854 0.0366831
0.018862365 0.037370298 0.03763548 -0.049745746 0.03436016 0.017223373 -0.0024994654 0.022951629
0.0021515507 0.037706193 0.026474563 0.07263049 -0.036708847 0.0550267 0.011003832 -0.000790658
0.045422498 0.0044342466 -0.03879277 0.029204445 -0.011717989 -0.010379321 0.014660404 0.023629872
0.005806494 -0.04936398 -0.060068 0.00737156 -0.0643657 -0.005329112 -0.023981832 -0.052632526
-0.013619833 -0.02280323 -0.013227131 0.0012306935 0.033745646 -0.03872084 0.018766483 0.009329564
-0.034983013 0.017761376 -0.0074044014 0.023120802 0.024781426 -0.011607859 -0.007837135 -0.015895592
0.021372564 -0.018241156 -0.020671967 -0.029065223 -0.07228611 -0.078563966 -0.057609443 -0.00868965
0.02057186 -0.004739723 0.01682622 0.0069162454 -0.050496295 -0.038464613 -0.030024502 0.01761567
-0.046812017 0.029412493 0.032190397 -0.020789867 -0.0044912254 0.01727275 0.0006446456 0.012763726
-0.0004958346 -0.08136739 0.014850779 0.0008996485 -0.016197467 0.0031671138 0.0005930151 0.024070015
-0.057508744 0.008256631 0.001090093 -0.055971246 -0.00919998 0.015646532 0.044954892 -0.049628884
-0.022950891 -0.04007103 0.037211776 -0.03732014 -0.09674492 -0.03291704 0.019924143 -0.03085987
-0.013475039 -0.030881558 0.003259304 -0.052552305 0.017011104 0.031715594 0.024174556 -0.000107413
0.035700113 -0.020992573 -0.007102093 0.0005458552 0.015716014 -0.014324763 -0.023694508 0.006619416
0.028440818 -0.0030809913 -0.06886672 -0.024104694 -0.04341432 0.010392729 -0.005142495 -0.026479919
-0.035015743 -0.019220158 0.069064856 -0.09879115 0.034632977 -0.029490508 -0.00784793 -0.009819338
-0.034358993 0.013664732 -0.058173727 -0.018800337 -0.006932035 -0.08142266 -0.0018620115 0.072063304
-0.020527968 0.013836344 0.023088807 -0.09042108 -0.04944671 -0.023723027 -0.01151211 0.011938174
0.029003592 -0.008138916 -0.0027634557 0.046851203 0.018347122 -0.0016865304 -0.03938663 0.015938824
-0.02167837 0.010690905 -0.014114863 0.0064558764 0.07506105 -0.014088778 -0.041636102 -0.012798516
-0.0022802216 -0.020087797 0.029689172 -0.052622385 -0.031306867 0.007377785 -0.025520032 -0.043401066
