autoencoder.pth (torch, 529584 bytes, 8 tensors)

encoder.0.weight f4 [170, 282]
000000 77 53 ad 3c 36 e5 33 bd c6 ec 54 3d 32 1d 5c 3d
       0.021157963 -0.043919764 0.051983617 0.05373878
000010 b0 f3 55 bd ab 31 9c 3c d8 53 5e 3d 7f a1 55 bd
       -0.05223435 0.019066652 0.05427918 -0.052155968
000020 ac ed 89 bb c8 8f 0d bd b3 c9 13 3d 62 cb b4 bc
       -0.004209241 -0.03456095 0.036081027 -0.022069637
000030 d1 c2 cd 3c 58 ca 75 3c 4a af 0a bd 53 5f 0e bd
       0.02511731 0.015001856 -0.033858575 -0.034758877
000040 f0 f4 00 3c 26 a6 76 bb 7b d0 c0 3c 59 2a 21 3c
       0.007870898 -0.0037635653 0.023536911 0.009836757
000050 6a e6 4e ba 7b 52 3d bd 97 b1 05 bc 3d 70 15 bd
       -0.0007892611 -0.046221238 -0.0081600165 -0.036483992
000060 ca 81 5b bd 9e 5f cb 3c 0d 59 1c bd e2 c8 3f bd
       -0.053590573 0.024825867 -0.038170863 -0.046822436
000070 1d a0 45 3d c2 fd 1c 3d ee b9 8d 3c ec 8c a3 3c
       0.0482484 0.03832794 0.017300572 0.019964658
000080 6c a4 03 bd 6d 84 55 3d ea 7e dd bc 07 65 fa bc
       -0.032139227 0.052128244 -0.027038056 -0.030565752
000090 97 f9 32 3c 13 74 b1 bc b2 c0 51 bd 7f 2f 18 3d
       0.010923765 -0.021661794 -0.05120916 0.03715467
0000a0 53 9f c7 bc 6f 1f aa bc b3 fc 4a 3c 02 71 1d 3d
       -0.024367964 -0.020766942 0.01238935 0.03843785
0000b0 d4 1b 45 bb bc fe 53 bb 79 a5 14 bd fc 5b 45 3d
       -0.0030076401 -0.0032347878 -0.03629062 0.048183426
0000c0 0f 38 49 bd 93 12 a6 bb 93 ce f1 bc 65 f2 00 bd
       -0.049125727 -0.005068132 -0.029517448 -0.031481165
0000d0 14 19 49 bd cb d9 52 bd d5 56 4d bd 2d e0 29 bd
       -0.049096182 -0.051477235 -0.050131638 -0.041473556
0000e0 8e 29 3b 3d b7 32 1a 3c 49 83 46 3c 21 4f d3 bc
       0.045693927 0.009411505 0.012116262 -0.025794568
0000f0 5a 5d 21 bd 87 a2 c9 3c c9 f6 4f bd 8e 6e 5e 3d
       -0.039395668 0.024613632 -0.050772462 0.054304652
000100 a3 8a de bc 78 d3 e4 3b e6 69 64 3d 64 d9 0f 3d
       -0.027165717 0.006983217 0.055765055 0.03511943
000110 b8 72 11 3b 98 53 5d 3d 52 1e a7 bc 37 8e ba bc
       0.0022193622 0.0540348 -0.0204002 -0.022772891
000120 7f 72 3e bd 03 fa 90 bb 95 f3 a5 3c 47 7d dc 3c
       -0.04649591 -0.004424335 0.02025775 0.026915206
000130 eb 46 0b 3d be e1 dc bc 7a c4 2a 3d db e7 90 3c
       0.03400318 -0.026963111 0.04169128 0.017688682
000140 4f 4f 32 3d 28 b2 43 3d 87 7b 38 3d 5d b3 60 3d
       0.043532666 0.047777325 0.04503968 0.054858554
000150 52 bd 38 3d 7c b2 85 3c 41 d9 4a 3d 22 07 21 3d
       0.045102425 0.01632046 0.049523596 0.039313443
000160 fb 80 8b bc e0 d2 6c 3d 35 77 a0 3b ec fd b5 bc
       -0.017029276 0.057818294 0.004897023 -0.022215806
000170 18 3a c7 3b e4 d4 fb 3c fd e9 54 3d 92 ca 04 bd
       0.0060799234 0.030741163 0.05198096 -0.03241975
000180 ff e1 f3 3c 27 8f 11 3d 3c 71 1d 3d 1a 70 e1 bc
       0.02977085 0.03553691 0.038438067 -0.027519275
000190 93 f2 d8 3b 04 59 76 bb 7d d7 44 bd fb 9b 3f bd
       0.006620714 -0.0037589679 -0.04805707 -0.046779614
0001a0 78 eb 4b bc c1 bb 1a bd a4 6c a7 3a 35 89 1b bc
       -0.012446277 -0.037776712 0.0012773466 -0.009493162
0001b0 b5 69 33 bd 96 1e d0 bc e3 8d 8b bc 4d 9b 11 bd
       -0.043801982 -0.02540521 -0.01703543 -0.035548497
0001c0 69 13 87 bc 7d 1f e8 bc 18 c9 49 bd 48 9c 5f 3d
       -0.016488748 -0.028335327 -0.049264044 0.0545924
0001d0 51 61 12 3d 29 fa 2e bc 36 bc 66 3c c7 95 ad bc
       0.03573734 -0.01067976 0.014082959 -0.021189583
0001e0 88 a3 db 3c 62 4a 0a 3d eb bc 0e 3c 99 84 6c 3c
       0.026811376 0.033762343 0.008712034 0.014435911
0001f0 25 b8 e9 bc 4e 46 bf bc 1c a1 c3 3c f6 85 26 3c
       -0.02853019 -0.023348954 0.023880534 0.010163775
000200 31 e3 b3 3c b6 52 16 3d e2 45 70 3d b5 4d 54 3d
       0.02195892 0.036699973 0.058660395 0.05183192
000210 51 08 74 3c 06 15 cd bb 08 60 6b 3d c9 5c 00 3d
       0.014894561 -0.0062586097 0.05746463 0.031338487
000220 be da b8 3c ee 8e 0e bd 91 67 07 bc f0 cd 81 3d
       0.022565242 -0.034804277 -0.008264438 0.063381076
000230 fd be 80 ba b8 5d 44 3c 8a c4 1b bc a9 a5 17 bd
       -0.0009822544 0.011985235 -0.009507308 -0.03702322
000240 96 f7 32 bc 76 b2 9e 3c 3e 8d 99 bc 01 f0 60 bc
       -0.010923287 0.019372206 -0.018744107 -0.013729096
000250 d2 15 77 bc 97 ef 4c bc c2 f3 05 bd e3 f2 98 bc
       -0.015080886 -0.012508295 -0.03270317 -0.018670505
000260 92 53 76 3d 88 35 60 bb 3c 1a 83 3d bb b6 80 3d
       0.060138293 -0.0034211595 0.06401488 0.06284853
000270 9a af 06 b9 86 e3 fa bb 90 99 76 3d 9f b6 82 3d
       -0.00012844653 -0.0076565174 0.060205042 0.063824885
000280 40 c4 c2 3a 4c 2e 1f bd 27 d7 7c 3c dd 02 38 3c
       0.0014859512 -0.03886251 0.015432156 0.011231151
000290 c0 66 c3 bc 0f 56 d7 3a e1 e2 24 3d e1 22 bd 3c
       -0.023852706 0.0016428846 0.04025543 0.02308792
0002a0 1a 74 03 3d 83 4a 46 3d 55 3c 9e bb 6d 74 88 3d
       0.032093145 0.048410904 -0.0048289695 0.066628315
0002b0 bd 73 de 3b 8a 01 16 bc 57 e6 33 bd 4f 2a 27 bd
       0.0067886994 -0.00915564 -0.04392084 -0.040811833
0002c0 e9 0c 66 3d b6 5c 14 3b 75 49 9b 3c 97 70 15 bd
       0.056164656 0.0022638268 0.018955925 -0.036484327
0002d0 fc 0e de 3a 50 b1 6f 3c 1a c6 21 bd 02 27 a4 bc
       0.0016941722 0.014629677 -0.039495565 -0.020038132
0002e0 5c 65 0d bd 08 ab 6c 3c 1e 23 5c 3d 02 a1 00 3d
       -0.034520492 0.014445074 0.053744428 0.03140355
0002f0 65 d1 6f 3d 49 85 06 3d 8b 48 ba 3c e8 ee d7 3c
       0.058549304 0.032841954 0.02273967 0.026359037
000300 17 28 96 bc 8e 09 3c 3d 22 2e 10 3d e1 ff 1f 3d
       -0.018329663 0.04590755 0.035200246 0.039062385
000310 eb c5 95 bc 70 3d 98 3c 44 1c 84 3d fa 74 73 3d
       -0.018282851 0.018583983 0.06450704 0.05943773
000320 bd a1 44 3d 54 76 39 3d 9c dc f6 3c dc a0 4a 3d
       0.04800581 0.045278862 0.030134492 0.049469814
000330 d9 15 49 3d 3d e3 23 bd 9d 3e 22 3d 0b 77 61 3d
       0.0490931 -0.040011633 0.039610494 0.05504517
000340 76 92 89 3d db a9 eb 3c b7 45 83 3d 5c a5 8f 3c
       0.06717388 0.028767517 0.064097814 0.017534904
000350 67 c7 0f bd 57 2b 2e 3d b3 8a f3 bc 93 53 08 3d
       -0.035102274 0.0425218 -0.029729223 0.033282828
000360 69 b8 6b 3d fa 0d 1b 3d c5 72 66 3c b7 4a 99 bc
       0.057548914 0.037855126 0.014065449 -0.018712385
000370 02 87 4f 3d 4a 7a b9 3c a5 f9 f6 bc 9f 38 41 bd
       0.050665863 0.02264132 -0.030148337 -0.04717314
000380 99 ee 59 bb d0 bc 38 3d 05 01 13 3c f9 f9 3c bd
       -0.0033253788 0.04510194 0.008972411 -0.04613683
000390 f3 47 2d 3d ad 93 b5 3c ea 5c 03 3d f6 85 16 3d
       0.042304944 0.022165144 0.03207103 0.03674885
0003a0 d5 74 1c 3d 3f c7 19 3c 38 d9 01 3b df 79 23 3d
       0.038197357 0.009385883 0.001981331 0.039911147
0003b0 43 60 c5 bc a2 c2 2c 3d 4e d8 33 3d 6a e6 52 3d
       -0.024093753 0.042177804 0.043907456 0.05148927
0003c0 3f 22 47 3d 94 46 67 3c 95 e3 cf bc b1 72 9d 3a
       0.048616644 0.014115948 -0.025377074 0.001201233
0003d0 2f cb 3a 3d 33 75 bd 3b 00 7b 0b bd bd 8d 5c 3d
       0.045603927 0.0057817935 -0.03405285 0.05384611
0003e0 7b 65 27 bc 1f 6e 18 bc 1a dd 30 3d 2e c5 42 3d
       -0.010217066 -0.009303599 0.04317961 0.047551326
0003f0 23 41 0a 3c d0 d2 23 3d e6 3b fe 3b 4f ee be bc
       0.008438381 0.03999597 0.0077586053 -0.023306994

encoder.0.bias f4 [170]
000000 37 00 8b 3b ff ab 98 bd fb 2e 06 3c ff 83 3a bd
       0.004241969 -0.07454681 0.008189912 -0.045536038
000010 d1 a5 a1 3b 40 70 36 bb a2 9b a1 bc 39 f0 c4 bc
       0.004933097 -0.0027837902 -0.019727532 -0.024040328
000020 52 87 9a 3c 3e bd 54 3d fa ea d0 b9 e9 ac 24 3c
       0.018863354 0.051938288 -0.00039847923 0.010050991
000030 0e 61 69 bd ad 41 b0 3c 62 1a 5e bc 3a bb 97 3d
       -0.056977324 0.021515692 -0.013556095 0.074087575
000040 08 46 07 bd 1f 9a b2 3c 8f 6c 6c 3d 2e 1a 97 3b
       -0.03302577 0.021802006 0.057720717 0.004611275
000050 c6 7b 1f 3d 08 72 02 bd 7f 0f 86 3c 01 ff 8c bc
       0.0389364 -0.03184703 0.016364811 -0.01721144
000060 b3 b9 05 bd 12 43 2e 3d 9f 2a 3d bd 62 15 f5 3c
       -0.0326478 0.042544432 -0.046183225 0.029917423
000070 69 3d ac 3c 92 46 cd 3c f1 03 a0 bc 07 5d 8f 3c
       0.021025376 0.025058065 -0.01953313 0.017500414
000080 aa 4f 8e 3c 28 72 07 bd ad 1a e4 3c 4a ea 2f bd
       0.017371971 -0.033067852 0.027844751 -0.042948045
000090 fe e1 02 bd 9f 8a 71 3b 97 29 48 bd b4 36 b4 bc
       -0.031953804 0.0036856306 -0.04886779 -0.02199874
0000a0 0e e2 01 bd 37 ae cb 3c f2 11 46 3a 47 8b 7a 3d
       -0.031709723 0.024863346 0.00075557746 0.06116798
0000b0 69 46 8a 3b a1 75 87 bd 98 af 6f 3d 61 13 7a 3c
       0.0042198193 -0.06614233 0.05851707 0.015263409
0000c0 56 07 d5 bb 40 54 1b bc ea c8 9e bc 07 00 ec 3c
       -0.0065011187 -0.009480536 -0.019382913 0.028808607
0000d0 6f 41 22 bd 43 79 53 3d c8 46 03 3d 67 0a d9 bc
       -0.039613184 0.051629316 0.032049924 -0.026494218
0000e0 44 7b 71 3c 3e e2 56 3b 77 2d a8 bb 77 9e 8c 3d
       0.0147388615 0.003278866 -0.005132373 0.06866162
0000f0 3e 54 8d bc 73 73 8b bc 37 36 03 bd 9e f0 cc 3c
       -0.017252084 -0.017022824 -0.032034125 0.025017079
000100 b9 9d 4c bd 81 96 65 3b 88 1e 3e 3d 00 1f e4 3c
       -0.049955104 0.0035032334 0.046415836 0.027846813
000110 29 ca e0 bc f4 32 ec bc bb 86 0f bc 09 48 1a bd
       -0.027440147 -0.02883289 -0.00876015 -0.037666354
000120 54 a6 23 bc e7 33 12 3d d0 fc ef 3d e7 1f 10 3c
       -0.009988386 0.03569403 0.11718142 0.008796669
000130 27 29 b6 3c 70 50 58 bd 61 21 fd 3c 59 10 d0 3c
       0.02223642 -0.052811086 0.030899705 0.02539842
000140 7e d6 44 3c c0 e3 5e bd b1 d0 4e bc b4 69 9c bc
       0.01201403 -0.054416418 -0.012622998 -0.019093372
000150 4b b3 ba 3b ce 0e 9e bc 64 61 94 bd 1a ed 1b bd
       0.005697643 -0.019294169 -0.07245138 -0.038067915
000160 87 97 e3 bc 41 2e 42 3c bd fd d7 3c df c2 06 3d
       -0.027782215 0.011851848 0.026366109 0.032900687
000170 b8 9c 4b 39 54 bd 96 3d 2e 4f 40 bb 8e 31 01 3d
       0.00019417971 0.0736033 -0.002934407 0.0315414
000180 23 82 df 3c 44 25 45 3c bf 58 0f 3d b5 e7 8a bd
       0.027283734 0.012032811 0.034996744 -0.06782476
000190 e3 89 34 bd 01 dc dc bc 49 27 c8 3c 38 07 17 3d
       -0.04407681 -0.026960375 0.024432795 0.03687212
0001a0 a3 84 8d 3b a8 d3 96 bc 36 80 6c bc 8e 80 00 3d
       0.00431879 -0.018411472 -0.014434865 0.0313726
0001b0 02 0f 2f bd 01 6b 20 3d b8 0e 8a bd f9 c4 83 bc
       -0.042738922 0.039164547 -0.06741089 -0.016085135
0001c0 c1 7d e3 3c 11 ed 44 3d 42 c5 a7 bc 12 13 48 3c
       0.027769925 0.048077647 -0.020479802 0.012211578
0001d0 33 61 09 3b a5 dd c9 bb 45 71 38 bd 97 f6 40 3c
       0.0020962476 -0.0061604553 -0.045029897 0.011777542
0001e0 0a 78 03 bd 7d 85 87 3d a4 2b 1c 3d d7 e6 cb 3c
       -0.0320969 0.06617258 0.038127556 0.024890346
0001f0 62 2d d8 3c 02 8e 1a bd 1d b8 99 bc cf 1d 19 bd
       0.026388828 -0.037733085 -0.01876455 -0.037381943
000200 13 a3 08 bd c3 ad 4f bd 82 0e 61 bd dc fa 72 ba
       -0.033358645 -0.05070282 -0.054945476 -0.00092689483
000210 b3 e3 cc bc c8 5a 04 3b 81 fe 59 3c 65 3e 04 bd
       -0.02501092 0.0020195711 0.013305307 -0.032286067
000220 45 02 11 3d d6 89 c3 bc 0b 8f 1e bd e2 c4 12 b9
       0.035402555 -0.023869436 -0.038710635 -0.0001399699
000230 6d 7b 3a bc 48 68 82 bd 0d c6 30 bd b5 c0 05 3d
       -0.011381966 -0.06367546 -0.043157626 0.032654483
000240 42 f2 45 bd 8f eb 28 bd 01 cb d7 3c 45 7e 23 3b
       -0.04832674 -0.04124027 0.026341917 0.0024947089
000250 3f c7 82 bd 6a 61 6d bd f2 03 50 3b aa f3 c9 3c
       -0.063856594 -0.05795423 0.0031740633 0.02465232
000260 bf 03 8f 3c ef da 9b bc 72 8b e5 b8 d0 d4 8f bc
       0.017457841 -0.019025294 -0.00010945545 -0.017557532
000270 ae e1 2c bc 03 9f 30 3d aa a6 d1 3b 89 80 f7 bc
       -0.010551853 0.043120395 0.0063980417 -0.030212658
000280 ab 58 70 bd 91 81 b9 bc be de 9d bc 3e c9 72 bd
       -0.05867831 -0.02264479 -0.01927125 -0.05927395
000290 62 ca 7a bd ac ca 71 3c 3e 55 20 bd 4d 85 25 bd
       -0.061228164 0.014757793 -0.039143793 -0.04041033
0002a0 35 56 04 3d 53 31 b1 3d
       0.032308776 0.08651986

encoder.2.weight f4 [103, 170]
000000 e7 63 1c bb ad c7 ae 3c 05 1a 26 3d 42 89 a4 bd
       -0.0023863257 0.021335447 0.040552158 -0.08033992
000010 54 4c d9 3d be 19 60 3d 1e 1a c7 bc 30 c0 8e 3c
       0.106102616 0.05471205 -0.024304446 0.017425627
000020 60 42 76 3c f2 7e 99 bd 28 b1 10 3d af ff e4 3b
       0.0150304735 -0.07494916 0.0353252 0.0069884877
000030 ca 60 79 bb 20 9c 3b bd af 99 22 bd a0 e0 f8 3b
       -0.0038052076 -0.04580319 -0.039697345 0.0075951368
000040 1f 83 74 3d db 80 d2 3b 8d 4e 62 bb be 07 3f 3c
       0.05969536 0.006424052 -0.0034531683 0.011659561
000050 7c 28 50 3d a9 d5 26 3c e4 a2 31 bc 21 3f 98 bd
       0.05081986 0.0101827765 -0.010842059 -0.07433916
000060 54 0a 33 bd a0 78 1b 3d f7 c7 19 bc ec 0e 90 bd
       -0.04371102 0.037956834 -0.009386054 -0.07034096
000070 36 68 b1 3d f3 1e cd bc 33 0e 10 bc 95 7d 5f bd
       0.08662455 -0.025039172 -0.008792448 -0.054563124
000080 0b 12 92 3d 88 02 25 bd 13 b5 8f 3d e1 28 8b bc
       0.07132348 -0.040285617 0.07016959 -0.016987266
000090 1e 73 3a 3d 30 05 17 bc c6 96 6d bd eb 65 56 bd
       0.04551994 -0.009217545 -0.058005117 -0.05234329
0000a0 7d 7b 29 3d 8e 2d 7c bc 5b 29 47 bd 79 ab af 3d
       0.041377533 -0.01539172 -0.048623424 0.08577628
0000b0 d0 df 9f 3c e2 9e 19 3c a9 ed 32 3d 9e ad 54 3d
       0.019515902 0.0093762595 0.04368368 0.051923387
0000c0 6a 87 4b bd 90 a4 4f bd c3 5a 48 bc 11 70 86 bd
       -0.049689688 -0.05069405 -0.0122286705 -0.06564344
0000d0 2b e6 c8 bc f7 39 fb bc 7e f6 3c 3b 20 7e ab 3d
       -0.024523815 -0.030667288 0.0028833444 0.08373666
0000e0 37 94 0d 3d eb e8 50 3d 24 ac 3d 3c 0b 3a 3d bd
       0.034565177 0.051003378 0.011576686 -0.046197932
0000f0 06 15 29 3d 72 db 4b 3d 4e db 41 3d c3 ed d3 3c
       0.041279815 0.049769826 0.047328286 0.02587021
000100 5b 8a 94 bd 53 e9 53 3c 03 7c 44 3d e2 cf 67 bd
       -0.07252952 0.012934047 0.04796983 -0.056594737
000110 1d 43 8e bd df b1 79 bc de 4c 88 3c 6b 44 83 bd
       -0.069463946 -0.015240162 0.016638216 -0.06409534
000120 89 c7 21 bd df 87 37 3d 56 a6 a4 3d 50 a5 2e bd
       -0.039496932 0.04480731 0.080395386 -0.042638123
000130 b6 23 87 bd c1 b4 81 bd 36 5f 0d 3d 7d 37 d2 bc
       -0.06598608 -0.06333304 0.03451463 -0.025661224
000140 79 2b 80 3d e7 b2 a5 bd d8 ec 9c bd 03 74 4a bd
       0.06258292 -0.080907635 -0.07662362 -0.049427044
000150 fa ad f2 bc e8 3b 7a 3d 94 21 8d 3d ac 58 f8 3b
       -0.029623974 0.061092287 0.0689117 0.00757893
000160 f6 16 5e 3d 63 85 09 3d 8d 1e 51 bd 51 13 0f 3d
       0.054221116 0.033574473 -0.051054526 0.03493053
000170 d4 5c c0 ba 95 69 19 bd b7 e4 0e bd 16 0d 59 3d
       -0.0014676102 -0.037454206 -0.03488609 0.052990995
000180 2a d8 91 bd ad 98 8c bd 00 52 49 3c 63 a9 03 3d
       -0.07121308 -0.06865058 0.012287617 0.03214396
000190 c4 d6 05 3d 9d cf 78 3d 96 ce a1 bd 28 f9 65 3b
       0.03267552 0.06074487 -0.07900731 0.0035091136
0001a0 38 dd 05 3b 29 29 18 3d ca a5 46 bc 9e db 45 3d
       0.0020426046 0.03714863 -0.012124488 0.048305146
0001b0 33 47 f6 bc 44 0a bf 3c ca c2 27 3d 09 8c 1b bd
       -0.030063247 0.023320325 0.04095725 -0.037975345
0001c0 bd 2e ea 3c af 3e ff 3c 2e 00 8d bc a0 6a 7b bd
       0.02858674 0.03115782 -0.017212 -0.061380982
0001d0 e3 1a 8a bb 63 9f 82 3d 20 a4 21 bd e8 b6 c8 3b
       -0.004214631 0.06378057 -0.039463162 0.0061253197
0001e0 e4 2b e1 3c 15 8d 67 3d f0 75 57 3d 52 84 3c 3d
       0.027486749 0.05653103 0.05260271 0.046024628
0001f0 3f b8 9e 3c 6f e5 e7 bb 47 89 25 bd 4d 3a dc bc
       0.019374965 -0.007076911 -0.04041412 -0.026883269
000200 e4 c5 07 bc 90 9e 73 3d 07 3d a6 bd 8d 18 7d 3d
       -0.008286927 0.05947739 -0.08117109 0.06179099
000210 f7 35 26 3d ac 8a a3 3c 9e 41 c7 bc d0 c0 58 3d
       0.04057881 0.019963585 -0.02432328 0.052918255
000220 fc 74 6a bd 4d 83 04 3d 9b 36 57 bd 6b 69 0c bb
       -0.05724047 0.03235178 -0.05254231 -0.0021425139
000230 46 d3 7c 3d 47 e3 70 3c 95 9e 0f bd d4 91 1e 3b
       0.061724924 0.014702625 -0.035063345 0.0024195807
000240 9b 86 7b 3d a6 17 87 3d a3 ab 1e 3d 7e 29 9a bc
       0.061407667 0.065963075 0.038737904 -0.018818613
000250 f0 2b ad 3d 26 89 6e 3d 40 c8 db 3b d0 05 76 3d
       0.08455646 0.058236264 0.0067072213 0.060064137
000260 3d 90 74 bc e9 a8 91 3d f0 06 bf 3c f9 aa 72 bd
       -0.014926967 0.07112295 0.023318738 -0.059245083
000270 12 c4 a0 bd 5f 1a 83 bd 95 75 e7 bc 16 52 80 bd
       -0.078498974 -0.06401514 -0.02825431 -0.06265657
000280 70 ae 7e 3d 1c 4b 6e bd 30 14 a3 3d 1f 02 16 3d
       0.062178075 -0.0581771 0.07962835 0.036623117
000290 4f c0 04 bc 8e 13 aa 3c 7d c0 b5 ba 04 d3 98 3d
       -0.008102491 0.020761278 -0.001386657 0.07462123
0002a0 9e f7 4e bd 9a 4d e7 3c ad c1 31 bd b5 02 13 3c
       -0.050529115 0.028235245 -0.043397594 0.008972813
0002b0 df 40 86 bd be 55 18 3d e4 28 eb 3d 52 a4 0c 3d
       -0.06555342 0.037191145 0.11482409 0.034336396
0002c0 f9 2d 9e 3d 55 24 5c 3d e8 51 5c 3d f6 00 76 ba
       0.07723612 0.053745586 0.05378905 -0.00093842985
0002d0 db dd c8 3c 9b 6f 4c bc fb a6 aa 3c 74 0b 83 3d
       0.024519851 -0.012477781 0.020831576 0.06398669
0002e0 1c 3d 2c bc d6 a8 84 3d 4e 06 98 3c 62 10 65 bd
       -0.0105126165 0.064775154 0.018557694 -0.055923827
0002f0 ae 3e a0 3d 5c 6b 46 bd ac f1 b5 bc 48 76 18 3b
       0.07824455 -0.04844223 -0.022209965 0.002326386
000300 90 70 8b bd cd 7b e9 bc 68 d5 63 3c eb e3 40 bd
       -0.06808579 -0.028501416 0.0139058605 -0.04709236
000310 32 b5 0b bd 3e b0 50 3c 79 bf 32 3d 8c 79 59 bd
       -0.03410835 0.012737332 0.043639634 -0.05309443
000320 5b 31 0b bc 39 4a 4a 3d d8 86 a3 3d b9 df 26 3c
       -0.008495654 0.04938719 0.07984704 0.010185176
000330 66 88 24 bd 20 fb b9 bc cd 03 89 3d 95 d8 a1 3d
       -0.040169142 -0.022702754 0.06690178 0.07902638
000340 57 f9 dd bb 2f 83 0d bd 14 58 8f bd 36 a2 6e bd
       -0.0067741084 -0.034548935 -0.069992214 -0.058260165
000350 cd 11 6d bc b3 a2 e3 3c 7a 6a 85 3c c9 fd 17 3d
       -0.014469576 0.027787542 0.016286124 0.037107263
000360 f8 c1 76 3b fa bc d5 bc 83 dc 83 bd ad a9 04 3d
       0.0037652235 -0.026091088 -0.06438544 0.032388378
000370 bc c7 b7 bc d8 d3 96 bd dc 38 88 bd b4 70 5c 3d
       -0.022434108 -0.07364625 -0.0665147 0.05381842
000380 62 f3 b5 bc cc 1e 08 3d f9 85 35 3d 64 cd 24 bc
       -0.02221078 0.033232495 0.04431722 -0.010058735
000390 73 1a 26 bd f1 3e 03 bc c8 a5 81 bd da 8f 13 bc
       -0.040552568 -0.008010612 -0.063304484 -0.009006465
0003a0 17 35 2a 3c ee 89 4a 3c d1 64 5f 3d 50 5a 88 bd
       0.010388634 0.012361987 0.054539505 -0.06657851
0003b0 20 fc 0a bd 4a 16 61 bd 66 0e 48 ba 3e 65 6d bd
       -0.03393185 -0.054952897 -0.000763154 -0.05795788
0003c0 56 08 07 3d 9d 7c 44 bd 85 dc 59 bd db 40 b2 bc
       0.032966934 -0.047970403 -0.05318882 -0.021759441
0003d0 b1 a2 c1 3d 3e c2 ea 3c 1d f1 77 3d 68 38 1e 3d
       0.09454859 0.028657075 0.060532678 0.038628012
0003e0 0e e2 85 3d 41 3c d5 bb ff 5c 49 3d 87 87 9b bd
       0.06537257 -0.006507427 0.049160954 -0.07594209
0003f0 34 5f 2b 3d fa d2 1c bd 06 ce 01 bd 7e 3f 22 bd
       0.04183884 -0.03828714 -0.03169062 -0.039611332

encoder.2.bias f4 [103]
000000 4b b6 79 3b 02 21 b8 3a 9a 35 96 39 1c 6e 48 bd
       0.003810304 0.0014047923 0.00028650166 -0.048933133
000010 db ca 6a bc 18 3b 82 bd 50 3c 09 bd 80 1c 00 bd
       -0.014330591 -0.063589275 -0.033504784 -0.03127718
000020 51 48 4a bc 5d 26 c9 bc a8 ee 93 3d b7 e4 26 bd
       -0.012346343 -0.024554426 0.072232544 -0.040745463
000030 06 d7 32 bc ca a4 03 3d 9a 60 0d bd 91 d2 12 bd
       -0.010915523 0.032139577 -0.034515955 -0.035845343
000040 94 d1 ad bc 76 a1 e9 3c 60 d4 50 bd 4c 52 78 bc
       -0.021218099 0.028519373 -0.050983787 -0.01515634
000050 26 77 5b 3c af 6c d1 3c 30 85 3a bd 0e 54 39 bd
       0.013395106 0.02556452 -0.045537174 -0.045246176
000060 4b a7 e9 bc b5 64 25 bd 64 01 90 3d 69 e4 14 bd
       -0.028522154 -0.040379245 0.07031515 -0.03635064
000070 3b 3e 08 bc 3e 9e 3d bd d0 25 25 3c 7d c8 23 bd
       -0.008315618 -0.04629349 0.010079816 -0.039986122
000080 23 b4 2f bd 8a 14 17 3c ca d1 5e bd 44 d4 90 bb
       -0.0428964 0.0092212055 -0.05439929 -0.0044198353
000090 71 b3 14 3d e7 d3 e9 bc 03 23 88 3d 89 52 58 bd
       0.03630394 -0.028543426 0.06647303 -0.052813087
0000a0 15 c6 55 bd 74 3e 86 3d 10 cc 81 bb 18 3b 48 3d
       -0.05219086 0.06554881 -0.0039610937 0.04888448
0000b0 b7 10 89 3c 5f d3 55 3d a0 42 19 bd 05 ef 8f bd
       0.016731603 0.052203532 -0.037417054 -0.07028011
0000c0 09 5f a3 bd bd b9 ae bc da e0 45 bd 50 fc ea 3b
       -0.07977111 -0.021328801 -0.04831014 0.0071711913
0000d0 f8 8f 2c bd 85 99 2d bd ee de 61 bd 47 f0 cc 3c
       -0.042129487 -0.042382736 -0.055144243 0.025016917
0000e0 ea 13 96 3c 54 25 9e 3d 25 55 c3 bc 4b d9 28 3d
       0.018320043 0.077219635 -0.023844311 0.04122285
0000f0 07 9a 5b 3d 2b 8a 71 3d 30 37 8c bc 28 f5 5c bd
       0.05361369 0.058969658 -0.01711616 -0.053944737
000100 ef 76 d1 bc 53 e2 15 bd 1f 8a b5 3c cf 1d a5 3c
       -0.025569407 -0.036592793 0.022160588 0.020155815
000110 f1 b3 87 bd 14 ba 53 3c 8f 80 d2 bb 19 ca bf bb
       -0.06626118 0.012922782 -0.006424017 -0.0058529493
000120 cd 0e 1d 3d cd e1 68 bc 0f 73 18 3d fa 01 e9 3c
       0.038344193 -0.014213991 0.037219103 0.028443325
000130 b2 1b 73 bd 89 70 1d 3d fc da 1b bb 96 c1 a7 bd
       -0.059352584 0.0384374 -0.0023781648 -0.081912205
000140 8e 0f be 3d 16 80 19 bd 15 a2 0c bb 0f 67 40 3d
       0.092803106 -0.037475668 -0.0021458913 0.046973284
000150 e3 4f 32 bd f4 29 01 bd a2 fe e6 bb 9f b6 fc bc
       -0.043533217 -0.03153415 -0.0070493976 -0.0308488
000160 2e aa 38 3d 6f 7d 86 bc e7 b4 f7 b9 d5 a4 a3 3d
       0.04508417 -0.016417233 -0.00047246294 0.079904236
000170 f6 28 4a 3d 05 96 66 3d ab cb 89 3c e5 e9 09 3d
       0.04935547 0.056295414 0.01682075 0.033670325
000180 d3 c6 fd 3a ad 2d 3c 3d 6e 30 6c bd 1b 8b b1 bc
       0.0019361622 0.045941997 -0.057663374 -0.021672776
000190 c8 fd 89 bd 0a f3 ae bd 57 fb 45 bd
       -0.06737858 -0.0854245 -0.0483354

decoder.0.weight f4 [170, 103]
000000 1d 84 5f 3d 00 00 52 3d 02 70 95 3d a8 b5 38 bc
       0.054569352 0.05126953 0.072967544 -0.011273779
000010 43 20 d3 3c 6f 36 a8 3c 52 3c 85 bc 63 b2 80 3d
       0.02577222 0.020533768 -0.016264115 0.062840246
000020 ab a7 02 bc 10 b5 a6 bd 84 3e 98 bd 43 63 a1 3d
       -0.0079745455 -0.08140004 -0.07433799 0.07880261
000030 74 30 9c bd 94 cc d1 3d 07 ad 8d bd 1d 08 fe bb
       -0.07626429 0.10244098 -0.06917768 -0.007752432
000040 84 33 ba ba a8 86 b7 3c a6 54 c2 bd 01 a1 29 3d
       -0.0014206027 0.022403076 -0.09488802 0.04141331
000050 79 1f 3e bd 00 a9 6a bd f1 d7 ae bd c1 3c 91 bd
       -0.046416733 -0.057290077 -0.08537281 -0.07091666
000060 c1 59 2a bc d9 95 f6 3c 1e d1 02 bb 68 fa 9e bd
       -0.010397376 0.03010075 -0.001996107 -0.07762605
000070 46 ab 2a 3c bd ed 9a bd 16 6f a8 bd 29 9f ec bc
       0.010416811 -0.07564876 -0.08224313 -0.028884487
000080 ee d4 4f bc 9b 0e 5c bb 9f 00 d1 bc bf 4b 0d 3d
       -0.012685044 -0.0033578041 -0.025512991 0.034496065
000090 33 06 43 3d 4e c2 6d 3d ce c7 c0 bd 20 3d 66 3d
       0.047613334 0.05804663 -0.0941311 0.056210637
0000a0 c1 5a ee 3c a6 9f ed bb 0a 99 43 bd 9f b5 f0 bc
       0.02909601 -0.0072516976 -0.04775337 -0.029383479
0000b0 44 75 ae 3d 71 c9 82 3c 14 21 72 3d bd d7 9e bd
       0.085184604 0.015965195 0.059113577 -0.077559926
0000c0 90 c8 b0 3d a8 de dc 3c ff 04 eb 3c a0 cc 97 3d
       0.08632004 0.02696164 0.028688906 0.07412076
0000d0 49 8b 74 3d 00 31 69 3d a9 61 60 3d 12 5c 99 bd
       0.059703145 0.056931496 0.054780636 -0.07488264
0000e0 ae dc 11 bd 1a 47 27 bb 43 14 42 3d c9 ea 86 bd
       -0.035610847 -0.0025524558 0.047382604 -0.065877505
0000f0 e7 2f 3b 3d 3b 6d 87 3d 41 61 1c 3d dd 3f 68 3d
       0.04569998 0.06612631 0.038178686 0.05670153
000100 73 7b 89 3d 03 5a b6 ba 3e 5d 7b ba 4d a6 4d bd
       0.06712999 -0.0013912324 -0.00095887843 -0.050207425
000110 c1 74 7d bc 58 c3 fe bc cf 5e 3f 3d 13 a5 83 bc
       -0.015469731 -0.031099007 0.046721276 -0.016069924
000120 4c 94 ae 3c 06 5a a5 3d fa a1 44 bd d1 6e 9d 3d
       0.021310948 0.08073811 -0.048006035 0.07687152
000130 b1 ba 02 3d 24 61 b7 3d 14 0b 47 3d b0 84 8e 3d
       0.031916324 0.08954075 0.04859455 0.06958902
000140 f0 ef dc 3c 00 ea 24 bd 98 cd 8b 3d ae 58 05 3d
       0.02696988 -0.040262222 0.06826323 0.032555275
000150 bc 98 89 bd 25 69 61 3d 8d c9 bb 3d b2 e9 04 3d
       -0.06718585 0.055031914 0.09169302 0.03244943
000160 0b e6 50 3d 93 73 b5 bd 6a 50 b0 3c 6b 36 41 3c
       0.051000636 -0.08859935 0.02152272 0.011792759
000170 d5 b0 b9 3d 76 58 9a bb fc 20 95 bd ae a5 c5 bc
       0.09066931 -0.0047102524 -0.07281682 -0.024126854
000180 2c 5e ba bd 7c fd 04 3c b2 e3 9a bd ec de c7 bd
       -0.09099993 0.008117076 -0.07562961 -0.09759316
000190 8a e2 71 bd 9c aa be bd 7b c0 d7 3c 19 e1 2f 3d
       -0.059053935 -0.09309885 0.026336899 0.04293928
0001a0 5e 40 54 3c 5c 99 9f bb 62 47 23 3d 6e 55 27 bc
       0.012954799 -0.004870577 0.039862998 -0.010213239
0001b0 b2 05 89 3d 02 7a 67 bc 15 6a 98 b9 88 17 28 3c
       0.066905394 -0.01412821 -0.00029070736 0.010259517
0001c0 4b a8 1e 3d dc cb 45 bd 60 fc 3a 3d 2b 63 19 b9
       0.038734715 -0.04829012 0.04565084 -0.0001462816
0001d0 ec 28 9b 3c ed 09 b7 bd 0b fd f4 3c cd c9 90 bd
       0.018940412 -0.0893744 0.029905817 -0.070697404
0001e0 d0 78 19 3d 28 4d 88 3c 58 e4 9f 3c e3 e9 b4 bd
       0.03746873 0.016638353 0.019518062 -0.08833673
0001f0 99 5b a1 bc 71 ad fd 3c b7 87 fc bc 36 de bb 3d
       -0.019696997 0.030966492 -0.030826433 0.09173243
000200 28 a0 24 bd 5b cf 8e bb 3d 87 b2 bd 5c f0 e3 bc
       -0.0401918 -0.004358215 -0.08717201 -0.027824573
000210 ae 71 91 bc 55 60 1f 3d 37 34 a8 3d 9a ef 42 3d
       -0.017754402 0.03891023 0.08213084 0.047591783
000220 f4 7d ce 3d bb 7e 92 3d fd 9d 08 3d fb d4 91 bd
       0.100826174 0.07153078 0.033353794 -0.07120701
000230 98 8e 97 3c db 99 67 bd 7b f2 98 bd e7 58 b3 3d
       0.018500611 -0.056543212 -0.074681245 0.08757191
000240 4e 67 86 3d 0d bc ac 3c af 2a 65 bc fb 06 90 3c
       0.065626726 0.021085763 -0.013987227 0.017581454
000250 09 bb 1a bd 3b cb d5 bb 29 36 2a bd df 48 fd 3c
       -0.037776027 -0.006524471 -0.041555557 0.030918537
000260 41 da 09 3d d7 c5 b8 bd de 2e be 3c 51 e9 be bd
       0.03365541 -0.0902211 0.023215707 -0.09321845
000270 e3 e1 90 bd 14 eb 1a 3d 84 d5 b6 3d ce af 38 bc
       -0.070743345 0.037821844 0.089274436 -0.011272384
000280 58 38 17 bd 92 f8 c9 3d 88 29 bc bd f4 33 16 bd
       -0.036918968 0.09861864 -0.09187609 -0.03667064
000290 bc a5 89 3d 2a 2b 86 bd 56 7d 08 bd 31 b0 62 3d
       0.067210644 -0.06551202 -0.033322655 0.05534381
0002a0 57 38 36 3d 8e d2 1c bd 47 2f ba bd f0 4a 20 3d
       0.044487324 -0.038286738 -0.09091049 0.039133966
0002b0 36 80 01 3d ba 75 99 3d 2a 52 72 bd 2c 58 92 bd
       0.031616412 0.07493158 -0.05916039 -0.07145724
0002c0 25 fc b5 3d b7 63 91 bd ec 53 92 bd e1 3d d4 3d
       0.088859834 -0.07099097 -0.07144913 0.10363365
0002d0 00 99 ca 3c a6 6a 33 3d 49 e3 87 bc 24 da 3c 3d
       0.02473116 0.04380288 -0.01658787 0.046106473
0002e0 0c 32 d1 3c 1f ef 91 3d 47 d2 56 bd 31 57 03 3d
       0.02553656 0.07125687 -0.05244663 0.032065574
0002f0 25 ba 5f bd 67 2b 2f 3b 41 a5 50 3c d8 c9 57 3a
       -0.05462088 0.002672875 0.012734712 0.0008231676
000300 4e ee b9 3b 8b c7 32 3b b7 a6 5b bd d8 05 89 bc
       0.00567416 0.0027279581 -0.05362579 -0.01672642
000310 65 21 11 3d 9b c0 96 bd 9e 47 b4 3d 82 d4 cd 3d
       0.035432238 -0.07360955 0.088027224 0.10050298
000320 43 d5 a2 bd 34 81 68 3d a5 6c ad 3d b9 46 ef ba
       -0.07950833 0.056763843 0.08467988 -0.001825533
000330 0b 6e 77 bd 75 47 b1 3d ff 34 95 3d dc d7 22 3d
       -0.06040768 0.086562075 0.07285499 0.03975664
000340 05 67 94 bd e3 86 b4 3d 87 91 b4 bd b0 08 cc bd
       -0.07246212 0.0881479 -0.0881682 -0.099625945
000350 98 bd c4 3d 9a 31 8c bd df f5 76 bd 85 0c 77 3c
       0.09606475 -0.06845398 -0.060293075 0.0150786685
000360 25 40 81 bd bc 6c 6f bd d2 75 4f bd 1c 59 c3 bc
       -0.06311063 -0.058453307 -0.05064947 -0.023846202
000370 8d 63 b3 3d bc 1f 99 3d 44 7c 36 3d 61 88 ea 3a
       0.08759222 0.07476756 0.044552103 0.0017893427
000380 f8 b7 5f 3d fa 96 60 3d c0 5a 7f 3d 18 cf 7d bc
       0.054618806 0.054831482 0.062342405 -0.0154912695
000390 07 fe 3d bd 3f 90 df bc 22 a8 83 bd 01 32 e0 3c
       -0.046384837 -0.027290462 -0.06428553 0.027367594
0003a0 6b a3 24 bb b7 09 45 3d 0a 2e 74 3c ac d9 8e bd
       -0.0025121819 0.048104968 0.014903555 -0.06975111
0003b0 73 3e da 3c 27 89 34 bd 29 e8 84 3d 60 ff cc 3d
       0.026641106 -0.04407611 0.064895935 0.100096464
0003c0 18 a9 a2 3c 76 77 41 bd 26 7c b7 3d 4e 40 77 3d
       0.01985602 -0.047233067 0.08959226 0.06036406
0003d0 0a a3 44 3c 1f 9b 91 bb 99 f8 4f bd 81 f8 44 bc
       0.012001762 -0.0044435407 -0.05077419 -0.012022139
0003e0 5b c1 51 bd eb 05 71 3c d4 85 e0 bb 84 78 45 bd
       -0.05120979 0.014710884 -0.006851891 -0.048210636
0003f0 f0 94 ab 3d f1 97 4c bd 22 2c 57 3d c0 14 9f bd
       0.08378017 -0.04994959 0.052532323 -0.077676296

decoder.0.bias f4 [170]
000000 8e ff f0 bc 16 eb be 3c 58 2f 65 3d 47 34 ab 3d
       -0.029418733 0.023305457 0.055953354 0.083595805
000010 2e 06 81 3d c4 93 13 3d d7 61 27 bd 01 2d 31 3d
       0.06300007 0.036029592 -0.04086479 0.04325581
000020 03 7a 68 bd 92 dd 85 3d 1c 57 dc bd 38 34 d9 bc
       -0.056756984 0.06536402 -0.10758802 -0.026514158
000030 13 c2 fb bc 42 00 ad 3d c6 b9 a3 3d 54 e4 f7 3c
       -0.03073219 0.08447315 0.07994418 0.030260243
000040 da 01 7c bc 28 a9 1d bd ad 26 24 bd b5 84 44 3e
       -0.015381301 -0.038491398 -0.040075947 0.19191249
000050 ae 4d 4f bc c4 e3 c8 bb 95 e7 84 3d 68 ca 8e 3d
       -0.012652798 -0.0061306674 0.06489483 0.069722
000060 73 54 46 bd 30 94 6c bd 9e 12 bd bc 78 fd 54 3d
       -0.04842038 -0.05775851 -0.023080166 0.05199954
000070 04 7f 74 3d ac 52 af bc d7 9a 96 bc b1 64 17 3d
       0.059691444 -0.021401726 -0.01838438 0.03696126
000080 e0 61 59 3c b3 b1 5b bc 2b 49 47 bc aa bc 6e bd
       0.013267964 -0.013409066 -0.012163441 -0.058285393
000090 f1 05 84 ba 2d 70 4b bd 96 e5 2d bd bc 2a 26 3d
       -0.0010072571 -0.049667526 -0.04245528 0.0405681
0000a0 ce 45 14 bd 22 a6 6d bd f4 19 c2 3d 00 84 21 3d
       -0.036199383 -0.058019765 0.094776064 0.039432526
0000b0 25 d1 af 3d 43 80 d1 3b 2c c3 3d 3d 1d b7 2e 3d
       0.08584813 0.006393464 0.04632871 0.0426551
0000c0 03 92 f5 3c 6f 60 5a 3d 9f 51 95 bd ee d8 18 bd
       0.02997685 0.053314622 -0.072909586 -0.037316255
0000d0 4b 0b 7c 3d d7 93 6f bc 47 8d 8a bd 18 d6 4b bc
       0.061534207 -0.01462265 -0.06765228 -0.012441181
0000e0 5d 34 90 bc 19 73 f8 3c ac 3c 23 bc 61 28 5e 3d
       -0.017603094 0.03032832 -0.009963196 0.054237727
0000f0 10 9b 1f bc b1 05 9d 3c 13 05 94 bd 3c 9d 3a 3d
       -0.00974156 0.019167753 -0.0722753 0.045560107
000100 2c a9 98 bd 6b 58 e5 3c f8 f7 c9 3b 30 cc d2 bd
       -0.07454142 0.027996263 0.0061635934 -0.10292852
000110 20 6f 71 bc 0d a7 14 3d 80 f3 ea bc e0 d3 37 3c
       -0.014735967 0.036292125 -0.028680563 0.0112199485
000120 75 41 91 bd a2 2f a3 3b e9 b8 3a 3d 8d 47 c9 bc
       -0.07092563 0.0049800435 0.0455865 -0.02457025
000130 0e 6b 7e bd 1e 6e 6e 3d 59 c8 1b 3d 41 1a 83 3c
       -0.062113814 0.058210485 0.038032863 0.01600373
000140 c4 e7 30 b9 f2 fa 96 3d 5f e9 3d bd 2e 01 00 bd
       -0.00016871007 0.07372083 -0.04636514 -0.031251125
000150 15 f7 b1 bd 8c 67 9e bd f1 69 17 bc 99 74 bb bc
       -0.08689705 -0.07734594 -0.009241567 -0.022882747
000160 5f d5 e3 3c 13 f1 16 bd 17 4f b4 3d 2f 3f 31 bc
       0.027811704 -0.036851 0.08804148 -0.010818287
000170 8f 35 94 3d 01 5c 3b 3d 83 3b 85 3b bb 81 35 bd
       0.07236778 0.04574204 0.0040659322 -0.044313174
000180 c3 72 1a 3c 6d 36 fd 3c 78 4e 34 3c ea 66 4f bd
       0.009426775 0.030909741 0.0110050365 -0.050635256
000190 f9 67 57 3d f0 48 e4 3c 2d 88 8c bd e2 2b e3 bb
       0.05258939 0.02786681 -0.06861911 -0.0069327215
0001a0 e6 5a ad 3a b1 9f 15 bd a2 ef c4 3d 33 42 1a 3d
       0.0013225942 -0.036529247 0.09616019 0.03766079
0001b0 42 60 95 3d 59 61 93 3d 3f 46 a8 3d 2e d7 1b bd
       0.0729375 0.07196302 0.082165234 -0.03804701
0001c0 23 cb b3 bc 3b e6 fd 3c e2 87 24 bb 7f b9 a7 ba
       -0.02194745 0.030993572 -0.0025105407 -0.0012796371
0001d0 29 ac 9e bd 4e 91 73 3c c7 44 9c bc 3d 87 12 bd
       -0.07747681 0.014866186 -0.019075764 -0.035773505
0001e0 82 30 4f 3d c8 13 0a bd 72 06 12 3c 7b c3 5d bc
       0.05058337 -0.03371027 0.0089126695 -0.013535376
0001f0 d5 99 87 3d 5b 0a 6d 3a e0 99 61 3d fc 6e dc 3c
       0.06621138 0.00090423756 0.055078387 0.02690839
000200 6e 00 27 bc 2b a0 44 3d 6b 8d 49 bd 04 de 69 bd
       -0.010192974 0.04800431 -0.049207132 -0.057096496
000210 22 b6 0c 3d 19 96 d5 bb 81 7a 5f 3d 5e c6 96 3c
       0.034353383 -0.006518137 0.05456019 0.018405136
000220 1c 9f 96 3d 59 07 58 bd 55 a8 2c 3d 2b 60 cf 3c
       0.073545665 -0.052741382 0.04215272 0.025314411
000230 fb 1d 03 bd e0 99 cb ba c1 b6 11 bd 24 66 b8 bd
       -0.032011013 -0.0015533529 -0.03557468 -0.09003857
000240 82 c8 1a bc ba 5e 07 bd 58 ca de 3a 7f 35 30 bd
       -0.009447219 -0.033049323 0.0016997559 -0.043019768
000250 a2 21 17 bd 40 fe c9 b8 d9 fa 45 3d f4 7d 3e bd
       -0.03689731 -9.6317846e-05 0.04833493 -0.046506837
000260 ed b7 79 3d 0f 58 20 3d 83 80 18 bd 7d 44 57 bd
       0.06096642 0.03914648 -0.037231933 -0.05255555
000270 4e 4d 9f bc 2f bd 30 bd fa 2a 7a bc 8e 39 80 3b
       -0.019446041 -0.04314917 -0.0152690355 0.003913111
000280 b9 ae 65 bd f8 fe 0c 3c 54 bb dd bc 72 7d d4 3c
       -0.05607483 0.008605711 -0.027066864 0.025938723
000290 d5 61 2c bb e5 1c f0 bc 81 72 39 3d cf 3d c7 3c
       -0.002630343 -0.029310653 0.045275215 0.024321465
0002a0 de d6 2b 3d 02 13 f0 3c
       0.04195296 0.029305939

decoder.2.weight f4 [282, 170]
000000 3f 22 51 bd 7c 7f ff 3c 1c 3e 4e bd 52 88 17 3d
       -0.05105805 0.031188719 -0.0503522 0.03699524
000010 46 63 32 3c cb 73 5c 3d 69 51 7c 3d 9a 8c 48 3d
       0.010887926 0.053821366 0.061601076 0.048962213
000020 4e f9 9b 3a 1a 50 c1 3b 4e ed 9b 3d 6d 44 55 3d
       0.001189986 0.0058994414 0.07613622 0.05206721
000030 2c e9 2f 3c c7 c5 32 3d ab 5d 98 bc 46 80 5c bc
       0.010736745 0.043645646 -0.018599352 -0.013458317
000040 87 96 85 3d c3 9b 19 3b d6 01 81 3d 23 57 0f be
       0.065228514 0.0023438788 0.06299178 -0.13998084
000050 68 97 11 3c 16 c3 59 3d c4 70 23 3d 33 e6 fc 3c
       0.008886196 0.053164564 0.039902464 0.030871486
000060 14 2f a3 bd 0d fb c6 3c e6 4a 91 3d ff 98 5f 3b
       -0.07967964 0.024289632 0.07094364 0.0034118292
000070 67 33 45 bd 62 ac 80 3a a8 77 12 3d 70 8d 8f 3c
       -0.048144724 0.0009816999 0.035758644 0.017523497
000080 d8 e0 5f 3d 8e 22 cf 3c 6c 1e 28 3d f0 0b 96 3c
       0.054657787 0.025285032 0.041044638 0.01831624
000090 86 72 fc bb a5 69 69 bd 49 f2 45 bd a2 40 f2 bc
       -0.007704082 -0.056985516 -0.048326764 -0.029571835
0000a0 2d ba 2b 3d 20 d6 16 bd 4c b3 c9 3b 7f 13 ca bc
       0.041925598 -0.0368253 0.006155407 -0.0246675
0000b0 42 27 43 bd b3 b0 16 3d 06 b8 2b bd 15 fe e9 bc
       -0.04764486 0.036789607 -0.041923545 -0.028563539
0000c0 08 ed 8f 3d ee 4f 12 3d 82 46 e6 bc 59 95 77 bd
       0.07027632 0.03572076 -0.028109793 -0.060445163
0000d0 8f f7 67 bd b2 fc 9c 3c fe bf 99 3c 49 60 e4 bc
       -0.056632575 0.019163463 0.018768307 -0.027877944
0000e0 05 1f e1 bd d6 36 6a 3d 20 0e 39 bd d9 9a ae 3a
       -0.10992245 0.057181202 -0.045179486 0.0013321295
0000f0 80 73 77 3d 22 71 ff 3b 97 da 2f 3d 8b 10 d1 bc
       0.060412884 0.007795469 0.042933073 -0.025520584
000100 3e e0 19 3d 21 8a 1c bd 33 b9 71 3b c8 72 2a bd
       0.03756737 -0.038217667 0.003688407 -0.04161337
000110 08 11 0c 3d c9 e3 97 bd 43 35 64 bd c8 4b 59 bd
       0.03419593 -0.074164934 -0.055714857 -0.053050786
000120 f2 e9 0e bd 17 11 4b 3d ac 31 0b bd de ec 87 bd
       -0.034891076 0.049576845 -0.033982918 -0.06636976
000130 21 4f 91 3c 8a 92 26 bb 60 cf a3 bc 67 f7 84 bd
       0.017737927 -0.0025416934 -0.019996345 -0.06492501
000140 cf d6 44 bc 7f 47 a4 bd c5 ae 1b bd 4d ea 44 3d
       -0.012014105 -0.08021449 -0.03800847 0.04807501
000150 e0 09 94 bd cd 92 49 3d 5c 3e b2 bc 36 db b2 3c
       -0.07228446 0.049212266 -0.02175825 0.021833044
000160 94 66 12 3c ec 36 64 3d cb 1e 4d bc cc 69 49 bd
       0.008935589 0.05571644 -0.012519549 -0.04917316
000170 e1 79 48 bd fc 00 b8 3c 1e de 91 3d fb 2a 46 bd
       -0.048944358 0.022461407 0.071224436 -0.048380833
000180 8a e0 2e bd 6e 1a 34 3d 7d 36 39 3d ba 8e fa 3c
       -0.042694606 0.043970518 0.04521798 0.030585635
000190 58 28 3a 3d 0e a3 0e bd a5 fe 65 3d d2 f0 16 3d
       0.04544863 -0.03482347 0.05615105 0.036850758
0001a0 a3 39 7b 3d 16 24 17 bc 52 cd 6b bc ad 11 81 bd
       0.061334264 -0.009224912 -0.014392214 -0.063021995
0001b0 77 9c 48 3d a7 90 13 bd 8b 84 ef 3c e4 0d 09 bd
       0.04897734 -0.036026623 0.029238006 -0.033460513
0001c0 aa bf 39 bd 58 a4 93 3c f5 33 a9 3d d1 36 7a 3d
       -0.0453488 0.018022701 0.08261863 0.061087433
0001d0 3d 0e 4f bd 5a a8 91 bc df 1b 01 bd 6b 2c d3 3c
       -0.050550688 -0.017780472 -0.03152072 0.025778016
0001e0 cc 45 17 3d fa 57 13 3a 28 34 9a 3d 9b 04 81 bc
       0.036931798 0.00056207145 0.07529479 -0.015749266
0001f0 fa 64 92 3b 0a b8 9f bd 1f 4b 84 3b 3a 6f e7 bc
       0.0044676038 -0.077987745 0.0040372754 -0.02825128
000200 3e 0e b6 3d 06 9f d7 3b b7 94 8b 3d 22 19 dd 3c
       0.08889435 0.0065802364 0.068154745 0.026989523
000210 53 0c 3e bd 40 ff 97 bd 9d 5c ad bd 14 bb e8 bc
       -0.046398472 -0.07421732 -0.0846493 -0.028409518
000220 b7 02 86 bd 14 9b 0a 3d 52 76 a7 3d 7b 4c ee bb
       -0.065434866 0.0338393 0.08176865 -0.007272301
000230 ea 59 70 3d 01 52 53 3c 0e 0c 87 bb f2 0f 0b bc
       0.0586795 0.012897969 -0.00412131 -0.008487688
000240 9b ba ae 3c c1 09 8e 3b cc 34 8f 3d 5d 45 9f 3d
       0.021329215 0.004334659 0.06992492 0.07776902
000250 75 bc f8 3a 5e 37 83 bd 3b e4 01 3d 2f 22 5a 3d
       0.0018977063 -0.06407045 0.0317118 0.053255256
000260 ce 9e c3 3c 9c 61 89 bd 1f 2a e2 ba 33 6a 35 3c
       0.023879435 -0.06708071 -0.0017254985 0.011072683
000270 79 fc 07 3d 32 b0 42 3c fb aa 1b 3a 9c d5 cb 3c
       0.03319976 0.011882829 0.0005938259 0.02488213
000280 cb 81 a8 bd 7b d7 8e bd c1 3c 34 3d bb a5 83 3d
       -0.08227881 -0.069746934 0.044003252 0.06428095
000290 9f 77 1d 3d 42 fb aa bd 15 39 84 bd 74 75 1f 3a
       0.038444158 -0.08348705 -0.064562 0.00060828705
0002a0 15 5a ca bc 4c ad 69 bd f0 9d 9e bc 25 80 11 bd
       -0.024701158 -0.057050034 -0.01936242 -0.0355226
0002b0 7a 28 86 bd 75 09 7e bc 2c d1 14 3c 8c 24 13 3d
       -0.06550689 -0.015505184 0.009083074 0.035923526
0002c0 d3 ef 81 3d 53 0d 4c 3d 4c c9 6c 3d a8 5a c3 3c
       0.06344571 0.049817394 0.05780916 0.02384694
0002d0 af bb 6b bd 37 76 be 3b d6 0b 5e 3d f6 86 5f bc
       -0.057552036 0.005812432 0.054210506 -0.013643017
0002e0 3d 0b 0f 3c 5e ab 6f 3d 63 c5 2b 3c 97 c8 00 3d
       0.008730707 0.058513038 0.010484072 0.031441297
0002f0 41 03 22 3c f1 5f e6 bd c0 f1 2d bd 7e 46 59 bd
       0.009888471 -0.11248768 -0.04246688 -0.053045742
000300 45 a1 9d 3d fe 8d 75 bc 0e 45 4f bb 89 62 5f bc
       0.07696775 -0.014987467 -0.0031626853 -0.013634332
000310 03 14 d8 bc b3 28 9b bd 00 8f d1 bc 15 d6 5a bd
       -0.02637673 -0.07576122 -0.025580883 -0.05342682
000320 6a 57 84 3b d0 a7 22 bd 74 46 22 bd df a1 41 3d
       0.004038741 -0.03971082 -0.03961797 0.047273513
000330 d4 ed 0b 3d c5 39 72 3c a4 e9 0d bc 0b b0 66 3d
       0.034162357 0.014784281 -0.008661661 0.05632023
000340 2a a6 82 bd ae f9 42 bc 51 9b 17 bd ed b4 3c bd
       -0.063793495 -0.011900349 -0.037013356 -0.04607098
000350 42 31 57 3d 2b 53 3b bc de 37 a8 bc 0d 26 24 3d
       0.05253721 -0.011433403 -0.020534452 0.04007535
000360 19 e0 46 bc fc 49 d2 3c 5f 47 1a 3d a8 64 ba 3c
       -0.01213839 0.025670044 0.03766572 0.022753075
000370 fa 3a ea bc ac ba 33 3d b0 f1 03 bd d7 0e 4c bd
       -0.028592575 0.043879196 -0.032212913 -0.04981884
000380 d2 67 89 bd 44 1d 6e bd fb b8 4d 3c 56 58 19 bc
       -0.06709255 -0.05813338 0.01255631 -0.00935944
000390 01 9a d6 3b 65 4a 99 3d df 70 86 bd 67 6c fc 3c
       0.0065491204 0.07484893 -0.06564497 0.030813409
0003a0 62 40 9d 3d f5 2a 50 bd 0b ff 5f 3d 53 e1 1b 3d
       0.07678296 -0.050822217 0.054686587 0.038056683
0003b0 84 cd 14 bd b2 81 61 bd 1a bb 9c 3d e5 bb 8f 3b
       -0.036328807 -0.055055328 0.07652874 0.0043864124
0003c0 20 08 25 3c 8f ef 80 bd a5 bc f7 bb a0 e8 80 bd
       0.010072738 -0.06295692 -0.00756033 -0.0629437
0003d0 d4 b0 59 3d dd ce 99 bc 2d 29 87 bd 72 a9 60 bd
       0.053147152 -0.018775398 -0.065996505 -0.054849096
0003e0 d4 e2 91 bd f3 d8 a5 bd aa 49 c2 bd e8 61 6e 3c
       -0.07123342 -0.080980204 -0.094867066 0.01454971
0003f0 03 17 63 3d 1c e1 95 bd c1 fb 84 bd d0 1d 94 3d
       0.055441868 -0.07318327 -0.06493331 0.07232249

decoder.2.bias f4 [282]
000000 2e 17 98 3d 71 02 d2 3b 61 38 95 bc ed b2 d6 3c
       0.07426296 0.0064089824 -0.01821536 0.026208365
000010 72 26 1d 3d 80 eb af bb 94 2e 61 3d db 54 95 bc
       0.038366742 -0.00536865 0.05497606 -0.018228939
000020 2c 8c 2e 3d fd 4f 20 bc 68 88 54 3c a5 f4 29 3c
       0.042614147 -0.009784696 0.012971975 0.010373269
000030 06 42 48 3d d0 c8 f0 3c d7 59 8c 3c fb 6a 11 3d
       0.04889109 0.02939263 0.017132683 0.035502415
000040 12 e9 37 3d 66 41 28 3d 9c e8 46 3d 6a 59 9e bc
       0.044900008 0.041077994 0.048561677 -0.019329745
000050 69 c7 7b 3d 02 95 15 bd 55 30 0a 3c 29 5b 1e 3d
       0.06146947 -0.036519058 0.008434375 0.038661156
000060 03 e3 45 3d 61 2b 82 3d bb aa a2 bc e2 af 5d 3d
       0.0483122 0.0635593 -0.019856801 0.054122813
000070 87 8f 3d bc 1c 92 3e 3d 53 c5 20 3b e4 f0 ad bc
       -0.011569864 0.04652606 0.0024531677 -0.02123303
000080 e5 4c da 3c 31 bd 1a 3d 2b 19 39 bc 4c 6b 1d 3d
       0.026647994 0.037778083 -0.011297504 0.038432404
000090 55 45 b6 bc b3 b5 00 bd a6 04 32 3b 4a 8b 39 3b
       -0.022249857 -0.031423282 0.0027163415 0.0028311783
0000a0 64 ec ec bb 40 4a b1 bc 47 c2 b7 bc 53 53 10 bc
       -0.0072303284 -0.02164185 -0.022431506 -0.008808929
0000b0 8f 2e 0e 3c 06 9b 49 3c d6 04 60 bd 27 dd 99 3c
       0.008678093 0.012305027 -0.054692112 0.018782211
0000c0 d4 27 6c ba 63 c8 9e bb 16 da e8 bc 2e ef 27 bd
       -0.00090086204 -0.0048456653 -0.028424304 -0.040999584
0000d0 29 fd 1e 3c 97 d5 b1 bc b4 63 82 bc 61 80 30 3c
       0.009703913 -0.021708293 -0.015916683 0.010772795
0000e0 64 8c 3d 3a 8c a8 8b 3c 7c 66 28 3d d2 cf 0f 3c
       0.00072306977 0.017048143 0.04111336 0.008777576
0000f0 24 ec 75 3c 07 03 ed bc 0a 33 7f bc 1e bf 95 bc
       0.015009914 -0.028932108 -0.0155761335 -0.018279608
000100 f2 ba b1 bc 8c 14 a9 3c 7a bc 03 3d e6 a3 fe 3c
       -0.021695588 0.02063968 0.032162167 0.031084012
000110 d0 b4 c3 3c 03 02 6f 3d ac a0 19 3d 57 cc 1b 3b
       0.023889929 0.058351528 0.037506744 0.002377292
000120 20 91 a5 bc 04 29 e2 3c fe 0f 19 bc 1a 91 70 bc
       -0.020210803 0.027607448 -0.009342192 -0.014683032
000130 66 e5 96 bc 28 ac 14 3c 29 09 a3 bb 87 4c e4 3c
       -0.018419933 0.009074248 -0.004975457 0.027868522
000140 29 cd 12 3c de 3b 55 bc 96 6f 00 3d 1a 79 ab bb
       0.008960047 -0.013014762 0.031356417 -0.0052329423
000150 d0 27 93 ba d1 8e d5 3b 25 b1 6e 3c 80 1f 71 3c
       -0.0011227075 0.006517269 0.014568602 0.014716983
000160 6e e1 34 bd ea 3d c5 bb d0 e7 d4 bc a3 c2 f3 bc
       -0.0441603 -0.0060193436 -0.025989443 -0.029755896
000170 c1 e1 02 3c 79 ca 1f bd 1d 2d 8d 3c 4a b7 1e bd
       0.007988394 -0.039011452 0.017233426 -0.038749017
000180 65 1d e3 bc e4 9e f7 bb fd 17 02 3b 2c db b1 3b
       -0.027723977 -0.007556783 0.0019850724 0.0054277387
000190 03 62 94 3b 7e 88 ba bc 47 14 5d bd 1d 04 06 bb
       0.0045282855 -0.022770163 -0.053974416 -0.002044923
0001a0 6b 9d c8 bc f9 c6 a9 3c 50 cd 1b bd 41 01 d2 bc
       -0.024489125 0.02072476 -0.038037598 -0.025635364
0001b0 88 1a 0f bd 5b ed 71 bc 47 1c 0b bd 5f bf f1 3c
       -0.03493741 -0.014766063 -0.033962514 0.029510198
0001c0 0c 2a 6c 3c 03 11 4c 3c 6f 1e f9 bc 44 5d 20 3d
       0.014414322 0.012455228 -0.03041002 0.039151445
0001d0 6e 22 2c 3d 06 f3 67 bd f7 75 2f bc 9b a8 46 3d
       0.042025022 -0.05662825 -0.010709277 0.04850064
0001e0 68 2c 22 bb 30 e5 a2 3c 17 fc 11 bd 3d 31 cc bc
       -0.0024745706 0.019884676 -0.035640802 -0.024925822
0001f0 75 6a 12 3d e8 2d 81 bc c5 ec 82 3c f8 2b 34 bd
       0.035746057 -0.01576896 0.015982041 -0.043987244
000200 9e f1 74 bc 64 45 07 3c 80 32 a6 3c dc c3 21 3d
       -0.014950184 0.00825629 0.020287752 0.039493427
000210 7d 30 4e 3d 53 34 30 39 8a b1 04 bd 9e c3 af 3c
       0.05033921 0.0001680416 -0.032395877 0.021455582
000220 65 5d 1a 3c 30 95 d3 bc 94 7b 7a 3c 2b 43 56 bc
       0.009421681 -0.025827974 0.015288252 -0.0130775375
000230 c9 11 bc 3c 87 62 82 3c 74 2e a4 3c 6a 24 0d 3d
       0.0229577 0.015916122 0.020041682 0.034458555
000240 b9 99 61 bc cc fd da 3b de 26 34 bb 10 86 54 3c
       -0.0137695605 0.006683087 -0.0027488987 0.012971416
000250 21 8d 2d 3c 42 6c 14 bb 4b c0 f6 bb 05 27 b1 3c
       0.01059273 -0.0022647534 -0.0075302473 0.021625051
000260 72 bb 06 bd 27 2c e9 bc 3a ae 88 bc 45 0e 12 3c
       -0.032893606 -0.028463436 -0.01668464 0.008914535
000270 9a 58 18 bc d1 41 d3 bc b4 e2 93 bc f6 fd 34 bd
       -0.009298468 -0.02578822 -0.018052436 -0.04418751
000280 87 e5 12 bc 5c 56 7f bb e3 ec 2a bd 47 8c 19 3c
       -0.008965856 -0.0038961386 -0.04172982 0.009371824
000290 43 5d f1 bc 34 f3 e8 3b 02 fc ed bc 9d c6 52 bd
       -0.029463416 0.00710907 -0.02905083 -0.051458944
0002a0 63 11 ef ba b0 4c 88 bd c7 c8 4d bc eb e4 fd bc
       -0.0018239435 -0.06655252 -0.012560076 -0.030992946
0002b0 a2 f6 92 bc 2d 0d 28 bd 06 07 f9 3c b6 bd b2 bc
       -0.01793987 -0.04102819 0.030398857 -0.021818977
0002c0 9e 07 c6 bc 5c 66 07 bd af 54 c5 ba 10 ca 9e 3c
       -0.024173554 -0.033056602 -0.0015055145 0.01938346
0002d0 af e0 fd bc ed 2b 0d bd 07 c2 12 bc d5 81 3b ba
       -0.030990927 -0.03446572 -0.008957393 -0.00071528304
0002e0 01 be 11 bd 5d 31 34 bb ab b3 c0 ba cd bc 2a bc
       -0.035581592 -0.0027495243 -0.0014701983 -0.01042099
0002f0 65 38 63 bd 18 cd 4b bd a5 1d 2f bd 89 15 e4 bb
       -0.055473704 -0.04975614 -0.04275288 -0.006960575
000300 95 33 ef bb a7 36 bb 3b cb f8 bf bc 57 c4 0b ba
       -0.00729985 0.005713302 -0.023434063 -0.0005331686
000310 4b c6 0e bd d5 6e 7a bd 8b 9a 04 3c 34 d3 3d 3c
       -0.034857076 -0.061140854 0.008093487 0.011585999
000320 42 fb 14 bd f9 77 45 3c 66 90 42 bd 25 51 46 bd
       -0.03637243 0.0120525295 -0.04750099 -0.04841723
000330 a6 13 34 bc b1 5e 06 bd 9a cf 8c bd 9c 90 28 bd
       -0.010991013 -0.03280515 -0.06875534 -0.041153535
000340 e8 86 23 bd 01 5c 23 3c d3 18 ee 3c 8b 77 d0 bc
       -0.03992358 0.009970666 0.029064571 -0.025447628
000350 ae 4e 6f bd 89 d4 81 3c 5a 9c 7d bd 87 4c 9e bc
       -0.058424644 0.015848415 -0.061916687 -0.0193236
000360 1c b4 69 bc 6f 9d 3f bd bd 01 aa bc c5 7b 5f 3c
       -0.014264133 -0.046781 -0.020752782 0.013640349
000370 61 a2 2c bb b0 4a aa 3c b7 79 34 3c 61 01 33 bd
       -0.0026341903 0.020787567 0.011015347 -0.043702487
000380 52 fd 22 bd fb e1 be bc a7 d5 08 bd 18 77 63 3c
       -0.039792366 -0.023301115 -0.03340688 0.013883375
000390 d6 2c 21 3d a5 37 28 bd c9 8a 42 3b d0 5f 0e bd
       0.0393494 -0.04106869 0.0029684773 -0.034759343
0003a0 1b 07 36 3c 54 6b a7 b9 08 f9 0d bc 75 12 af bc
       0.0111100925 -0.00031932688 -0.008665331 -0.021371106
0003b0 fc 1d 09 3d c2 9a 54 bd a7 6d ad bc 16 e8 39 3c
       0.03347586 -0.0519054 -0.02117045 0.0113468375
0003c0 68 03 08 3c 01 d7 c6 ba bd a1 40 bc 95 8e a7 b9
       0.008301593 -0.0015170277 -0.011757311 -0.00031958954
0003d0 c3 0e fa 3b 93 e2 9d 3b c8 b1 22 3c 50 72 22 bd
       0.0076311543 0.0048182695 0.009930082 -0.0396598
0003e0 38 dc c0 3c fd 88 50 bc 8d 12 07 3d fa 35 47 3c
       0.023542508 -0.012727973 0.032976676 0.012158865
0003f0 e5 fb 6a bb f2 f4 ff 3c 91 2f 6f bc 46 76 b3 3c
       -0.0035855707 0.031244729 -0.014598743 0.021906983
