autoencoder_4.pth (torch, 99016 bytes, 8 tensors)

encoder.0.weight f4 [41, 282]
-0.09484055 -0.013251795 0.065185 -0.029734528 -0.019850358 -0.016302299 0.021669114 0.059090946
0.006210649 0.045274295 -0.04533764 -0.010917599 0.066864036 0.01895011 -0.05906474 -0.06519711
0.006073812 -0.03611945 -0.019947339 -0.030039797 -0.04486721 0.011062592 -0.064810835 -0.025925675
-0.0026080185 -0.06571278 -0.11939208 -0.10038688 -0.089089155 -0.015280248 -0.03028043 -0.045468688
-0.029206328 -0.013803985 -0.03530627 -0.095783256 -0.05020885 -0.021408083 -0.033244576 -0.00026961195
-0.002276682 -0.07669102 -0.10229075 -0.04662974 -0.0030691912 -0.089760624 -0.065521985 -0.00381516
-0.031746 -0.048324525 -0.03841646 0.003129694 0.009180418 -0.08395472 -0.057262067 -0.067044474
-0.027677497 -0.0865453 -0.053218015 -0.06169233 -0.03706434 0.016357103 -0.01906586 -0.0111225955
-0.027622811 -0.048944555 -0.012639605 -0.023993833 0.009167786 0.02203639 -0.0095257545 -0.039274745
-0.058031593 0.03902516 -0.036701813 -0.030231308 0.02628976 0.004284668 0.06211643 0.0325138
0.0042681326 0.025067303 0.06235873 0.008154891 0.047964655 0.02378617 0.028608115 0.14901672
0.15433185 0.116271056 0.20339306 0.1617593 0.22713181 0.23219168 0.1400813 0.10727157
0.21549037 0.21262527 0.13122588 0.08881896 0.1526064 0.13955264 0.2073537 0.09129366
0.10218277 0.15204181 0.09967807 0.18531801 0.1285714 0.15629281 0.18370819 0.14877915
0.18777783 0.14066212 0.15832612 0.12821762 0.075298294 0.15038183 0.12039579 0.069360465
0.13877803 0.13561141 0.13476364 0.08307628 0.07477685 0.05636015 0.014038745 0.099627145
0.066384636 0.09214784 0.00767974 0.052316032 -0.01778595 0.0054594073 0.040628154 0.056752704
0.006296359 0.06489235 0.03199322 0.05841581 0.01672833 0.039253697 0.057187684 0.026807928
-0.008193407 -0.0153984465 -0.05926276 0.0035747217 -0.07456887 -0.066267215 0.02165365 -0.017330622
-0.023633732 -0.0015311491 -0.04062185 0.0025712403 0.010965936 0.0514438 0.05372767 -0.040656526
-0.024984121 -0.047544997 0.035009425 -0.0031354898 0.00040920544 0.037492584 0.025283314 -0.019235462
-0.029369969 0.040503222 0.00995161 -0.022959605 0.004021029 0.032290127 -0.05503533 -0.048851244
-0.07283687 0.014586607 0.043057032 0.07030652 0.07289268 -0.006130191 0.07677425 0.0741588
-0.021599688 0.03356933 -0.013794281 0.02352406 0.04635871 -0.002403712 -0.06555384 -0.021039424
0.025543004 -0.017562257 -0.05685363 -0.04117598 0.013233072 -0.03413085 0.008214177 0.011348502
0.024452226 -0.020509057 -0.0035080418 0.02468235 -0.050821844 -0.041904856 -0.060334243 0.03967132
-0.040717933 -0.06244847 -0.010989676 0.0080525605 -0.05071253 -0.0008702861 -0.037642326 0.010626776
-0.019017877 -0.070095815 -0.032237563 -0.05462385 -0.050084203 -0.010163935 -0.008251702 -0.010628844
-0.08836841 0.017743563 0.016745545 -0.09886976 -0.08791829 0.010514469 -0.04978462 -0.041390598
-0.008415065 -0.072444074 -0.016033206 -0.0271939 -0.035113364 -0.058147218 0.00076237216 -0.10580227
-0.093652636 -0.11210448 -0.08133608 -0.084941864 -0.08457113 -0.090192325 -0.08862061 -0.02129019
-0.031424772 -0.08688858 -0.04221744 -0.09835315 -0.04379202 -0.058311764 -0.13145107 -0.10456203
00000000: c33b c2bd 0f1e 59bc b77f 853d d395 f3bc
00000010: 389d a2bc 668c 85bc 6d83 b13c 5909 723d
00000020: b382 cb3b 8a71 393d f6b3 39bd bbdf 32bc
00000030: 03f0 883d 433d 9b3c deed 71bd 1086 85bd
00000040: d406 c73b fdf1 13bd 9a68 a3bc 0516 f6bc
00000050: aec6 37bd e03f 353c 8bbb 84bd 1562 d4bc
00000060: 4aeb 2abb 6c94 86bd d683 f4bd a397 cdbd
00000070: 6074 b6bd 015a 7abc aa0e f8bc 603d 3abd
00000080: 1c42 efbc 1c2a 62bc 4f9d 10bd 032a c4bd
00000090: cca7 4dbd 0160 afbc 772b 08bd b45a 8db9
000000a0: 6334 15bb 2e10 9dbd d07d d1bd d4fe 3ebd
000000b0: 7c24 49bb 6bd4 b7bd 6430 86bd c307 7abb
000000c0: 1808 02bd f0ef 45bd 945a 1dbd 8d1b 4d3b
000000d0: 7769 163c 74f0 abbd a18b 6abd 9d4e 89bd
000000e0: ebbb e2bc aa3e b1bd 22fb 59bd 19b1 7cbd
000000f0: c7d0 17bd 55ff 853c 0230 9cbc 8c3b 36bc
00000100: 3c49 e2bc 167a 48bd 5916 4fbc b78e c4bc
00000110: 7b34 163c a985 b43c e911 1cbc 8ede 20bd
00000120: 89b2 6dbd d9d8 1f3d a454 16bd a6a7 f7bc
00000130: 9f5d d73c 6666 8c3b cc6d 7e3d 312d 053d
00000140: b1db 8b3b f259 cd3c de6b 7f3d 189c 053c
00000150: 9676 443d 37db c23c 915b ea3c d797 183e
00000160: 2b09 1e3e 851f ee3d 4546 503e 3ba4 253e
00000170: 3e95 683e a8c3 6d3e 7971 0f3e 32b1 db3d
00000180: 82a9 5c3e 70ba 593e 1460 063e b7e6 b53d
00000190: da44 1c3e e3e6 0e3e 8754 543e 2cf8 ba3d
000001a0: 3345 d13d d9b0 1b3e 0424 cc3d 01c4 3d3e
000001b0: 39a8 033e 390b 203e 001e 3c3e 9059 183e
000001c0: d548 403e bb09 103e 3e20 223e 7b4b 033e
000001d0: fe35 9a3d b2fd 193e 1192 f63d dc0c 8e3d
000001e0: d41b 0e3e b8dd 0a3e 7bff 093e e623 aa3d
000001f0: 9b24 993d e7d9 663d c402 663c 5109 cc3d
00000200: abf4 873d 02b8 bc3d 54a6 fb3b 5649 563d
00000210: d7b3 91bc d4e4 b23b b569 263d 8675 683d
00000220: b051 ce3b 48e6 843d 530b 033d 6b45 6f3d
00000230: da09 893c 7cc8 203d a23d 6a3d 4d9c db3c
00000240: a43d 06bc c449 7cbc 82bd 72bd e145 6a3b
00000250: 90b7 98bd 1bb7 87bd ff62 b13c f3f8 8dbc
00000260: 879b c1bc d7b0 c8ba 1963 26bd 4182 283b
00000270: 78aa 333c bcb6 523d 8c11 5c3d 7587 26bd
00000280: 80ab ccbc 8bbe 42bd 0b66 0f3d ca7c 4dbb
00000290: a08a d639 d391 193d f41e cf3c b093 9dbc
000002a0: 4a99 f0bc b5e6 253d 140c 233c c815 bcbc
000002b0: d6c2 833b a742 043d ba6c 61bd 3e18 48bd
000002c0: 7f2b 95bd aafc 6e3c 925c 303d ddfc 8f3d
000002d0: c248 953d c5df c8bb d13b 9d3d 92e0 973d
000002e0: d4f1 b0bc fe7f 093d 6801 62bc 88b5 c03c
000002f0: a1e2 3d3d 9887 1dbb 1741 86bd df5a acbc
00000300: 903f d13c b9de 8fbc 5adf 68bd 25a8 28bd
00000310: 87cf 583c cacc 0bbd c194 063c 11ef 393c
00000320: 0950 c83c 9c02 a8bc 2de7 65bb a432 ca3c
00000330: 912a 50bd 6da4 2bbd 0a21 77bd 657e 223d
00000340: d9c7 26bd f8c9 7fbd 0b0e 34bc e3ee 033c
00000350: f1b7 4fbd e923 64ba d72e 1abd ee1b 2e3c
00000360: 61cb 9bbc 658e 8fbd 890b 04bd 42bd 5fbd
00000370: 1825 4dbd a286 26bc 2632 07bc 9a24 2ebc
00000380: 7ffa b4bd f35a 913c f42d 893c 3b7c cabd
00000390: 810e b4bd e144 2c3c f5ea 4bbd 3089 29bd
000003a0: 57df 09bc 8f5d 94bd 1258 83bc bec5 debc
000003b0: 08d3 0fbd c72b 6ebd eed9 473a dcae d8bd
000003c0: f4cc bfbd 0997 e5bd 8893 a6bd 00f6 adbd
000003d0: a133 adbd c1b6 b8bd b97e b5bd c468 aebc
000003e0: 43b7 00bd a4f2 b1bd 32ec 2cbd 606d c9bd
000003f0: 435f 33bd 51d8 6ebd 1c9b 06be 9e24 d6bd

encoder.0.bias f4 [41]
-0.0034158842 -0.03612637 0.02719358 0.057853535 -0.0027676206 0.0631957 -0.10826818 0.08939157
0.04020159 -0.121088855 0.029647497 -0.04730886 -0.015273402 -0.06503763 -0.06382987 0.31779733
0.19163716 -0.054632347 -0.1010923 -0.13183211 -0.19877705 0.01327849 -0.0029617844 0.11561149
-0.30812183 -0.09195323 -0.0077642333 -0.124376364 -0.18677753 0.09972651 -0.056205492 -0.06795024
-0.018400868 0.013923099 -0.047724072 -0.04050979 0.23430002 -0.104348816 -0.08166794 -0.22363307
0.22063531
00000000: 07dd 5fbb 3ff9 13bd 12c5 de3c d4f7 6c3d
00000010: f860 35bb bf6c 813d b5bb ddbd ed12 b73d
00000020: 6caa 243d 6ffd f7bd 4fdf f23c efc6 41bd
00000030: 4b3d 7abc 7332 85bd 3cb9 82bd 55b6 a23e
00000040: 883c 443e 2bc6 5fbd 7b09 cfbd fffe 06be
00000050: 368c 4bbe 068e 593c 7f1a 42bb b8c5 ec3d
00000060: 25c2 9dbe fa51 bcbd 1c6b febb 09b9 febd
00000070: 9c42 3fbe 6a3d cc3d bb37 66bd 7f29 8bbd
00000080: 6bbd 96bc b61d 643c 517a 43bd 98ed 25bd
00000090: 58ec 6f3e d5b4 d5bd 8541 a7bd 1100 65be
000000a0: 39ee 613e

encoder.2.weight f4 [6, 41]
-0.07652856 -0.15991755 -0.0484695 0.037481636 -0.0057063065 -0.057420887 -0.036967885 -0.044120573
-0.09962785 -0.11255765 0.15026358 0.047535323 0.11532801 0.0765073 0.04545957 0.021642402
0.02352627 0.14977697 -0.0436051 0.071186826 -0.04757269 -0.04661328 -0.025380654 -0.04892591
0.12468368 0.06974379 -0.08664968 -0.065337375 -0.0910755 0.031854585 0.03377862 -0.014757549
0.08669342 -0.04982979 -0.12364981 -0.020347169 -0.0019558761 0.093014315 -0.011033258 0.09200369
0.034452256 -0.07739346 0.045985408 -0.08099613 0.10753392 -0.03262251 -0.08997248 -0.018298987
-0.07401184 -0.032808594 0.04840878 -0.047291316 -0.091705956 -0.03935577 0.021007467 -0.10455805
0.036143925 0.026731271 -0.14371416 0.04604403 0.03724142 -0.09322095 -0.056714274 -0.03743006
-0.10545206 0.04006906 0.04048046 -0.015636526 -0.096618235 -0.08307644 -0.016807416 0.12605903
-0.011985378 -0.040320687 -0.06637394 0.1449511 0.067045495 -0.09125616 0.11553612 -0.04485467
-0.001609745 0.07193322 -0.015116824 0.04975664 -0.04954583 -0.13625664 -0.010558645 0.18815763
-0.085743025 0.06269818 0.1156988 0.05706163 -0.052913114 0.08702263 -0.10274048 -0.04120386
-0.009842595 0.020526452 -0.02168229 -0.124357104 -0.083608575 0.06828879 0.046063278 -0.0003982348
-0.095103435 0.009707533 -0.08472806 0.11718401 0.1512937 0.0033527534 0.027014134 0.010821617
0.043057404 -0.0021110799 0.065584615 -0.014555138 -0.13755609 -0.03845362 0.0650193 0.11004591
0.069878094 -0.078185074 0.06680812 0.14710549 -0.026805028 -0.104250334 0.045713052 -0.054384332
-0.007044296 0.06322032 -0.033252183 0.07276965 0.059777882 0.012592508 -0.073847085 -0.074252695
0.01678451 -0.036269102 -0.15345706 -0.073371686 -0.056912303 0.042143546 0.082687415 -0.06955238
0.010216096 0.098497584 -0.044772234 0.1248002 0.12500669 -0.10584931 -0.11215908 -0.09723245
0.002044679 0.07847697 0.025144497 0.04064238 -0.029016674 0.025200544 0.034530587 -0.06116831
0.03665278 0.02628272 0.05500024 -0.045706663 0.14531988 -0.016162153 0.08175133 -0.07021631
-0.028659621 0.12901677 0.059985686 0.05980978 -0.076519296 0.16186175 0.0058816127 0.12868488
0.026660599 0.057987817 -0.095756054 -0.039214294 -0.09015887 0.034998894 0.030641636 -0.096963696
0.027898753 0.08660065 -0.07456203 -0.07856265 0.034243807 0.0031671391 -0.13891698 0.009134584
0.097152986 -0.061549455 0.06262317 -0.014787651 -0.046328865 -0.07171612 -0.07720326 0.07521344
-0.099395566 0.016997507 0.021808445 -0.07354486 0.08557316 0.045983203 0.04635073 0.14124824
0.077439144 0.01862897 -0.053745553 0.07732623 0.03811437 0.0195923 -0.0018098117 -0.08548002
0.08385766 0.10203436 0.14289263 0.12531504 -0.037587672 -0.024326667 -0.06655468 -0.08843015
0.0065334146 0.0057251556 0.08424771 -0.015119804 -0.08613119 0.1447483 0.087200254 0.08091924
0.03695014 -0.0640111 0.02694909 -0.10806943 0.08052592 0.09808917 -0.13781166 -0.077324316
-0.01196621 -0.04123577 0.09894764 0.003206552 0.090808704 0.05230483
00000000: 01bb 9cbd 6dc1 23be f487 46bd 5886 193d
00000010: f8fb babb 2a32 6bbd a36b 17bd c6b7 34bd
00000020: b009 ccbd a084 e6bd b2de 193e 66b4 423d
00000030: 1731 ec3d dcaf 9c3d d033 3a3d 684b b13c
00000040: 2aba c03c 225f 193e 439b 32bd 66ca 913d
00000050: 95db 42bd 91ed 3ebd 17eb cfbc 8966 48bd
00000060: 285a ff3d d5d5 8e3d 6375 b1bd 9acf 85bd
00000070: cb85 babd f479 023d 735b 0a3d a6c9 71bc
00000080: 528c b13d 521a 4cbd 1d3c fdbd 1baf a6bc
00000090: 282e 00bb 4a7e be3d d7c4 34bc 6e6c bc3d
000000a0: cf1d 0d3d 7680 9ebd 325b 3c3d 4de1 a5bd
000000b0: be3a dc3d 2e9f 05bd 7e43 b8bd c2e7 95bc
000000c0: 8593 97bd 4e62 06bd 4948 463d 8ab4 41bd
000000d0: 55d0 bbbd 8433 21bd da17 ac3c 8822 d6bd
000000e0: a70b 143d 8afb da3c ce29 13be aa98 3c3d
000000f0: 768a 183d a0ea bebd 3a4d 68bd 4350 19bd
00000100: 40f7 d7bd 741f 243d d7ce 253d 2c18 80bc
00000110: c8df c5bd fb23 aabd b5af 89bc 9e15 013e
00000120: 525e 44bc 4e27 25bd 0fef 87bd 106e 143e
00000130: 264f 893d 82e4 babd 349e ec3d 88b9 37bd
00000140: 14fe d2ba b951 933d 8eac 77bc 9ecd 4b3d
00000150: 91f0 4abd dc86 0bbe 2bfe 2cbc 65ac 403e
00000160: 0a9a afbd e767 803d 7ef3 ec3d 75b9 693d
00000170: 6cbb 58bd ec38 b23d 9a69 d2bd 61c5 28bd
00000180: d642 21bc 1727 a83c 0f9f b1bc f0ae febd
00000190: f93a abbd feda 8b3d d9ac 3c3d 2cca d0b9
000001a0: 97c5 c2bd 580c 1f3c e885 adbd 2cfe ef3d
000001b0: bcec 1a3e deb9 5b3b bf4c dd3c 274d 313c
000001c0: f65c 303d 0b5a 0abb 3a51 863d ac78 6ebc
000001d0: 81db 0cbe 8b81 1dbd d728 853d c05f e13d
000001e0: 3f1c 8f3d 7f1f a0bd b2d2 883d d2a2 163e
000001f0: 3896 dbbc 3381 d5bd 9c3d 3b3d 1bc2 5ebd
00000200: d6d3 e6bb a879 813d 7133 08bd 4108 953d
00000210: a7d9 743d cf50 4e3c 243d 97bd cc11 98bd
00000220: ab7f 893c e98e 14bd d923 1dbe e543 96bd
00000230: e01c 69bd b69e 2c3d 0558 a93d 7a71 8ebd
00000240: 6a61 273c 1ab9 c93d 1763 37bd 3f97 ff3d
00000250: c101 003e 86c7 d8bd a9b3 e5bd cf21 c7bd
00000260: 0500 063b 89b8 a03d d5fb cd3c a078 263d
00000270: 60b4 edbc 5f71 ce3c f26f 0d3d 9f8b 7abd
00000280: 3a21 163d dc4e d73c ef47 613d e936 3bbd
00000290: bcce 143e 7e66 84bc 3e6d a73d 92cd 8fbd
000002a0: 95c7 eabc f91c 043e 8db3 753d 1afb 743d
000002b0: 26b6 9cbd 16bf 253e 8bba c03b f8c5 033e
000002c0: 5467 da3c a284 6d3d c01b c4bd 2b9f 20bd
000002d0: 37a5 b8bd 005b 0f3d 2b04 fb3c e794 c6bd
000002e0: ed8b e43c ae5b b13d fab3 98bd 74e5 a0bd
000002f0: 3c43 0c3d c78f 4f3b 4140 0ebe 39a9 153c
00000300: 25f8 c63d 481b 7cbd 9440 803d e747 72bc
00000310: 56c3 3dbd e7df 92bd be1c 9ebd 8109 9a3d
00000320: e78f cbbd 5b3e 8b3c a0a7 b23c b09e 96bd
00000330: fb40 af3d e258 3c3d 43da 3d3d 61a3 103e
00000340: 6a98 9e3d c89b 983c 4c24 5cbd 375d 9e3d
00000350: d01d 1c3d 0880 a03c 3437 edba 2610 afbd
00000360: 91bd ab3d 64f7 d03d 7252 123e 9652 003e
00000370: 88f5 19bd b848 c7bc d24d 88bd de1a b5bd
00000380: 4116 d63b 169a bb3b 108a ac3d 0eb9 77bc
00000390: 8d65 b0bd e638 143e 0c96 b23d fdb8 a53d
000003a0: 0859 173d 4018 83bd 57c4 dc3c 8153 ddbd
000003b0: c6ea a43d fae2 c83d 801e 0dbe 365c 9ebd
000003c0: ec0d 44bc d7e6 28bd 0fa5 ca3d 0425 523b
000003d0: eaf9 b93d 973d 563d

encoder.2.bias f4 [6]
-0.014972049 -0.1475699 0.02161606 -0.0954821 0.052903097 0.0030896927
00000000: 534d 75bc 901c 17be 2a14 b13c 1f8c c3bd
00000010: ebb0 583d 717c 4a3b

decoder.0.weight f4 [41, 6]
0.44168562 -0.15264355 -0.056527372 0.10359579 -0.2896596 -0.053214062 -0.08911048 -0.39725935
0.19857554 -0.08913261 -0.087399386 0.1951886 0.21103556 -0.027941529 -0.1353568 0.20944183
0.30503777 0.084580444 0.14379479 -0.13893257 0.18956408 -0.23014686 0.26954445 -0.2093618
0.23732357 0.20191513 0.26109365 -0.44315845 0.017604161 0.25613832 0.038672503 0.0759068
-0.39682096 0.6545671 -0.22425781 -0.14340584 -0.34376186 0.091371894 0.12648678 -0.001995662
0.18538396 -0.11832173 0.23682216 0.5013941 -0.002792489 -0.1321129 0.23752218 -0.37422892
-0.1367022 0.13919146 -0.34798694 -0.28594345 0.28907484 0.21686654 -0.09692442 0.27179024
0.0766055 -0.07939203 0.31773007 0.035958834 -0.06558497 0.18028544 -0.35063067 -0.07102681
-0.1946721 0.3860026 0.12767802 0.07243246 -0.29714087 -0.007904892 0.26588526 0.21627404
0.11587317 -0.039923463 -0.3250033 -0.28828466 0.08296701 -0.083308175 -0.2040683 0.12601314
0.22559614 -0.18043798 0.1083838 -0.09823659 0.19363095 -0.27041075 -0.005163097 -0.048314475
-0.17365478 -0.2553215 -0.31907332 -0.1732132 -0.022787517 0.103227735 0.14778171 -0.107697494
-0.06453677 -0.26427162 -0.09872401 0.06986271 -0.002980875 0.2615338 0.21188347 -0.20469093
0.17880423 -0.097447574 0.06730417 0.10995634 0.001538617 0.106570914 -0.035016827 0.63392633
0.15793669 -0.31846163 0.16697255 0.25237387 0.32526004 -0.1596174 0.34567577 0.29427832
0.35617828 0.12989525 0.3739829 0.07267777 -0.33302733 -0.26611102 0.15482487 0.2694646
0.0605909 -0.40796432 0.14720632 -0.2991996 -0.12748925 -0.14221795 0.10739871 0.047677137
-0.11085928 0.10601638 -0.23854113 -0.11422238 -0.014865432 -0.090465836 -0.1492645 -0.0059390897
-0.3319801 0.16408221 -0.2042191 -0.014770893 -0.15786134 -0.042949747 -0.32295653 0.16096771
-0.19771615 0.12184092 -0.31340826 -0.25018424 0.06353565 -0.32102272 0.061329093 0.25491408
0.29534858 0.111533426 -0.03929676 0.022364076 0.06966121 0.049189787 -0.070754126 0.35109645
-0.19733874 -0.2695483 0.01622659 0.13236885 0.28679064 -0.11319961 -0.06297622 0.34669268
-0.023741154 -0.033891767 -0.048662074 0.33195797 -0.15992054 -0.06605177 0.25432792 0.13252744
-0.06476508 0.028257338 0.058737963 -0.121502355 -0.40947857 -0.21496172 -0.27557823 0.028692571
-0.07440357 -0.036843516 0.086181164 0.17650859 -0.324821 0.21994324 -0.0055270046 0.41077277
-0.25674218 0.028517421 0.2821071 0.093276106 0.07799778 -0.10221977 -0.17295891 0.17994049
0.12719826 -0.36552313 -0.11589156 0.19633794 0.23361246 0.08793896 -0.1380098 -0.2511808
-0.2286106 0.033236362 0.17597197 -0.039184038 0.04502748 -0.087930106 0.23757932 -0.2585466
0.27617216 0.02423445 0.17416257 -0.2956544 0.23587468 -0.0022413281 0.22237502 -0.18532637
0.33225715 -0.14418457 0.1953961 0.15621445 -0.0016814556 -0.44835418 0.32567233 -0.021263428
0.0012508614 -0.20073049 -0.053650014 0.022108257 0.19087225 0.057988934
00000000: 9e24 e23e 974e 1cbe 3f89 67bd 082a d43d
00000010: 434e 94be fdf6 59bd 8e7f b6bd 9465 cbbe
00000020: 6357 4b3e 288b b6bd 73fe b2bd 85df 473e
00000030: b519 583e a2e5 e4bc f99a 0abe eb77 563e
00000040: e92d 9c3e 8338 ad3d f13e 133e 5744 0ebe
00000050: 161d 423e 9eab 6bbe bb01 8a3e f162 56be
00000060: f304 733e d7c2 4e3e 11ae 853e aae5 e2be
00000070: 9a36 903c 9024 833e 0f67 1e3d 0675 9b3d
00000080: 1e2c cbbe b691 273f d7a3 65be fbd8 12be
00000090: 8e01 b0be 3021 bb3d c085 013e a7c9 02bb
000000a0: 4bd5 3d3e aa52 f2bd 8281 723e 5d5b 003f
000000b0: 3102 37bb 9b48 07be 0439 733e ef9a bfbe
000000c0: a9fb 0bbe 3588 0e3e 582b b2be 2e67 92be
000000d0: 9e01 943e 4312 5e3e 4f80 c6bd 1728 8b3e
000000e0: 58e3 9c3d 4a98 a2bd 84ad a23e 9249 133d
000000f0: 6a51 86bd bf9c 383e dd85 b3be 8176 91bd
00000100: 1f58 47be 22a2 c53e 07be 023e 7857 943d
00000110: d922 98be 8583 01bc 1d22 883e f176 5d3e
00000120: ea4e ed3d c986 23bd d566 a6be 0c9a 93be
00000130: 9cea a93d 7a9d aabd 48f7 50be 9709 013e
00000140: ad02 673e bcc4 38be 53f8 dd3d 4430 c9bd
00000150: 3147 463e 4773 8abe 322f a9bb 66e5 45bd
00000160: 8fd2 31be 80b9 82be 945d a3be cd5e 31be
00000170: e3ac babc 1069 d33d 1754 173e 8190 dcbd
00000180: db2b 84bd 9c4e 87be d02f cabd 2e14 8f3d
00000190: c95a 43bb c2e7 853e fbf7 583e 809a 51be
000001a0: 7518 373e 9892 c7bd c5d6 893d ca30 e13d
000001b0: 6bab c93a da41 da3d ce6d 0fbd ff48 223f
000001c0: 28ba 213e 670d a3be dafa 2a3e 2637 813e
000001d0: 7c88 a63e be72 23be 6afc b03e a6ab 963e
000001e0: 005d b63e 4303 053e b07a bf3e 15d8 943d
000001f0: 8f82 aabe b43f 88be 698a 1e3e 44f7 893e
00000200: 2a2e 783d b3e0 d0be 41bd 163e b130 99be
00000210: 8b8c 02be 95a1 11be dbf3 db3d 1a49 433d
00000220: 310a e3bd 1e1f d93d 2044 74be 6ced e9bd
00000230: 248e 73bc 2746 b9bd cbd8 18be b29c c2bb
00000240: 4cf9 a9be 2b05 283e d01e 51be 9e01 72bc
00000250: 67a6 21be 13ec 2fbd 8f5a a5be b8d4 243e
00000260: 1a76 4abe bb87 f93d 0c77 a0be 2618 80be
00000270: fb1e 823d 175d a4be 3734 7b3d 1984 823e
00000280: ee37 973e a36b e43d a4f5 20bd de34 b73c
00000290: 89aa 8e3d 3b7b 493d 8ae7 90bd eac2 b33e
000002a0: 2b13 4abe 3c02 8abe a0ed 843c b38b 073e
000002b0: 39d6 923e 32d5 e7bd adf9 80bd b481 b13e
000002c0: cf7c c2bc 18d2 0abd e251 47bd 65f6 a93e
000002d0: 36c2 23be 2646 87bd 4537 823e 46b5 073e
000002e0: 8ea3 84bd ef7b e73c 3897 703d 3ad6 f8bd
000002f0: 2da7 d1be ed1e 5cbe 9718 8dbe af0c eb3c
00000300: e660 98bd 3ae9 16bd c07f b03d abbe 343e
00000310: f04e a6be cd38 613e e01b b5bb cf50 d23e
00000320: b673 83be 5e9d e93c 5870 903e 8b07 bf3d
00000330: 4dbd 9f3d 9958 d1bd 241c 31be 5242 383e
00000340: 4340 023e d925 bbbe 8e58 edbd d00c 493e
00000350: 1b38 6f3e 5719 b43d 7152 0dbe c59a 80be
00000360: e618 6abe da22 083d ff31 343e 717f 20bd
00000370: bc6e 383d b314 b4bd fe47 733e 3860 84be
00000380: 7066 8d3e 5387 c63c ac57 323e 0360 97be
00000390: 2289 713e 3fe3 12bb 47b6 633e 32c6 3dbe
000003a0: 9c1d aa3e 1fa5 13be ea15 483e aef6 1f3e
000003b0: 4a64 dcba ae8e e5be 86be a63e a430 aebc
000003c0: f2f3 a33a 4b8c 4dbe 1ec0 5bbd 601c b53c
000003d0: 0474 433e ce85 6d3d

decoder.0.bias f4 [41]
0.14064665 -0.13687228 0.095105655 -0.16471863 0.35145596 0.15490994 0.08420768 -0.2156706
-0.4230159 -0.051437005 -0.10266987 0.1738559 -0.024315983 0.065178454 -0.15076388 -0.0267979
0.025068112 -0.045689642 -0.11057829 0.07927854 -0.2671702 0.13464108 -0.03873716 -0.030228501
-0.101550885 -0.10368432 0.08224843 0.113365695 0.25778985 0.23907004 0.052241642 -0.012380306
-0.17916468 -0.12254396 -0.1348286 0.09944788 -0.017233372 -0.16728324 0.11376388 -0.16541272
0.066816114
00000000: ad05 103e 3f28 0cbe c1c6 c23d 00ac 28be
00000010: 09f2 b33e b6a0 1e3e 1375 ac3d c1d8 5cbe
00000020: 8a95 d8be 9caf 52bd 9544 d2bd 4807 323e
00000030: 5032 c7bc 487c 853d d961 1abe 4587 dbbc
00000040: a45b cd3c 1025 3bbd df76 e2bd ca5c a23d
00000050: 88ca 88be 5adf 093e dbaa 1ebd c3a1 f7bc
00000060: e9f9 cfbd 7258 d4bd dd71 a83d 462c e83d
00000070: 08fd 833e c7ce 743e 55fb 553d c4d6 4abc
00000080: f276 37be 54f8 fabd 8210 0abe 55ab cb3d
00000090: 002d 8dbc 4c4c 2bbe 0afd e83d f461 29be
000000a0: e3d6 883d

decoder.2.weight f4 [282, 41]
0.042066973 -0.07482922 -0.052841634 -0.0028037138 -0.058747683 0.037654646 0.19575764 0.055846043
-0.076214075 -0.017749695 0.084696695 -0.060775917 -0.107026316 0.07164846 -0.09985633 -0.08557968
-0.14344914 0.04401552 -0.17439528 -0.2500757 -0.097647324 0.09621084 0.184833 -0.013754876
0.010430897 -0.06366257 -0.06879896 -0.07556699 -0.019746568 0.021407967 0.0716276 0.007392544
0.13064417 0.0811146 -0.019010052 0.13275856 0.08468247 -0.048571292 -0.16542299 -0.0077718957
-0.09207396 -0.12091505 -0.0057357866 0.0060205604 -0.08054716 -0.08262039 0.024547052 0.015007435
-0.12808855 -0.073523015 0.17544088 0.07736858 -0.04483665 -0.12676103 -0.063061655 -0.13750505
0.061909072 -0.08085836 -0.0252503 0.055460893 -0.16794983 -0.055573232 -0.10563086 0.10599715
0.028605219 -0.033158485 0.13389267 -0.108876824 -0.07944584 -0.04366415 0.06071013 0.08350152
0.040307097 0.0018306151 -0.19485259 0.09078108 0.056042425 0.20271823 0.036702786 -0.06256343
-0.019721925 0.064228944 -0.14825073 0.04428197 0.074516915 -0.17812946 -0.07378488 0.071448
0.064398214 -0.046923608 -0.006524394 0.013871389 0.12572072 -0.10318157 0.008156264 0.13941555
-0.11888856 0.05517307 -0.02093418 -0.10589483 -0.038799793 -0.15458077 -0.13923815 -0.19365858
-0.055503044 0.16841228 0.0007702474 0.06813383 0.011081687 -0.08640786 -0.037969373 -0.019369394
0.13692755 0.15148567 0.10850939 -0.06355082 0.0024619245 0.033904668 -0.06125268 -0.096102715
0.06095486 0.054311246 -0.18685655 -0.12732169 0.20295386 -0.14475176 -0.08378645 -0.14975423
-0.07196823 -0.04421739 -0.0993119 0.05487244 0.01079758 0.19280787 0.087848224 0.022641612
0.040134843 -0.05951297 0.11677071 -0.08921339 0.0761594 -0.07303536 -0.22747323 -0.0065408205
-0.13090551 0.0122211985 -0.06358279 0.108728126 0.03955652 -0.14404273 0.07291236 -0.027008768
0.13878185 0.12629694 0.023127977 -0.005990427 -0.033825412 0.035042107 -0.019532006 0.020219592
-0.101187065 0.087653846 -0.101724096 -0.1602884 -0.05648256 0.08980098 0.00675622 -0.0476245
-0.13753815 -0.008497849 -0.038166396 -0.12595274 0.04792216 0.10670169 0.017999133 -0.045012698
-0.17404108 -0.027454574 0.038630046 0.018825676 0.03786375 0.06577167 -0.12880838 -0.2023536
0.0564109 -0.045196988 -0.026535165 0.17959815 0.041167345 0.05456509 -0.13177237 -0.048011187
0.04085853 0.19930056 -0.041341968 0.012620397 0.15816854 0.09673262 -0.11634361 -0.050601117
0.17504285 -0.12541874 -0.15278172 0.069584355 -0.030252155 0.07161907 -0.04188231 -0.10615117
0.031668443 -0.10425864 -0.13575025 -0.013554809 0.040565982 0.085272454 -0.014041587 0.06794663
0.021888787 -0.076040804 0.08720273 -0.11176439 0.08335749 -0.15136409 -0.13435894 -0.01320947
-0.22598435 0.12364066 0.070903085 -0.027196676 0.1128556 0.016899804 0.03829712 0.07495625
0.17708541 0.022829356 0.04824603 0.12607884 -0.11822782 0.082748644 0.024485324 0.0120990705
0.05637876 -0.011775334 0.009182069 -0.10489047 -0.060538407 -0.20060849 -0.043083694 0.012497577
-0.08322916 -0.008087506 -0.00852665 0.16035332 0.04592491 0.007860177 -0.050912835 0.01081142
00000000: 6b4e 2c3d 1040 99bd 7870 58bd 83be 37bb
00000010: 69a1 70bd c23b 1a3d b174 483e d2be 643d
00000020: 2016 9cbd cf67 91bc 7675 ad3d 2bf0 78bd
00000030: 9d30 dbbd 6ebc 923d 7a81 ccbd 6644 afbd
00000040: 55e4 12be 9e49 343d ad94 32be ec09 80be
00000050: 52fb c7bd 300a c53d dd44 3d3e 225c 61bc
00000060: 5ae6 2a3c 8661 82bd 78e6 8cbd dec2 9abd
00000070: 8ec3 a1bc c35f af3c 7eb1 923d 273d f23b
00000080: 96c7 053e 691f a63d f8ba 9bbc dcf1 073e
00000090: 016e ad3d b1f2 46bd a564 29be 63ab febb
000000a0: 4691 bcbd 4fa2 f7bd 44f3 bbbb 1f48 c53b
000000b0: e9f5 a4bd e134 a9bd e616 c93c bfe1 753c
000000c0: a529 03be 3c93 96bd c6a6 333e 6b73 9e3d
000000d0: a3a6 37bd a5cd 01be 7826 81bd 20ce 0cbe
000000e0: 5e94 7d3d 1199 a5bd b8d9 cebc f62a 633d
000000f0: 0afb 2bbe c2a0 63bd fe54 d8bd 0915 d93d
00000100: 7e55 ea3c 31d1 07bd 291b 093e d0fa debd
00000110: 80b4 a2bd 2ed9 32bd 2fab 783d d802 ab3d
00000120: 0e19 253d 40f1 ef3a 7087 47be 6eeb b93d
00000130: be8c 653d 5e95 4f3e a955 163d 4121 80bd
00000140: e08f a1bc 778a 833d 0acf 17be 0361 353d
00000150: 539c 983d 9267 36be 871c 97bd 5453 923d
00000160: 36e3 833d f832 40bd 95ca d5bb d344 633c
00000170: efbc 003e dc50 d3bd daa1 053c f3c2 0e3e
00000180: d87b f3bd 28fd 613d 287e abbc 63df d8bd
00000190: 88ec 1ebd 6c4a 1ebe 7294 0ebe 6f4e 46be
000001a0: 2957 63bd 4574 2c3e 6eea 493a c089 8b3d
000001b0: f78f 353c 9bf6 b0bd c685 1bbd 90ac 9ebc
000001c0: bc36 0c3e 0f1f 1b3e 2c3a de3d ef26 82bd
000001d0: 3d58 213b 9fdf 0a3d 17e4 7abd 80d1 c4bd
000001e0: ceab 793d 7875 5e3d 5357 3fbe 9e60 02be
000001f0: 23d3 4f3e ce39 14be 3b98 abbd 2c59 19be
00000200: 1464 93bd 4b1d 35bd 0a64 cbbd ecc1 603d
00000210: 55e8 303c 6d6f 453e c5e9 b33d e77a b93c
00000220: 6f64 243d dfc3 73bd 7b25 ef3d 83b5 b6bd
00000230: 76f9 9b3d 9093 95bd beee 68be 6154 d6bb
00000240: 180c 06be 6c3b 483c b237 82bd daac de3d
00000250: 0406 223d f07f 13be 1353 953d 7e41 ddbc
00000260: d41c 0e3e fc53 013e e276 bd3c 584b c4bb
00000270: 848c 0abd 5088 0f3d 9601 a0bc 8fa3 a53c
00000280: 2a3b cfbd dc83 b33d b954 d0bd a422 24be
00000290: 425a 67bd 94e9 b73d 4863 dd3b e811 43bd
000002a0: cdd6 0cbe 903a 0bbc 5e54 1cbd c1f9 00be
000002b0: 074a 443d 6a86 da3d eb72 933c 3c5f 38bd
000002c0: d337 32be 6ae8 e0bc 8a3a 1e3d 4e38 9a3c
000002d0: 0517 1b3d 4cb3 863d 58e6 03be c835 4fbe
000002e0: 1e0f 673d 7a20 39bd 4660 d9bc 94e8 373e
000002f0: 179f 283d a57f 5f3d 56ef 06be 61a7 44bd
00000300: 465b 273d 7215 4c3e 3256 29bd c8c5 4e3c
00000310: eff6 213e c01b c63d 8f45 eebd 1e43 4fbd
00000320: 6f3e 333e c56d 00be d072 1cbe 3e82 8e3d
00000330: 5ed3 f7bc 05ad 923d c98c 2bbd c965 d9bd
00000340: c5b6 013d 8e85 d5bd 1d02 0bbe fd14 5ebc
00000350: 8428 263d 53a3 ae3d af0e 66bc 9a27 8b3d
00000360: 1d50 b33c 48bb 9bbd 5897 b23d bae4 e4bd
00000370: 55b7 aa3d 30ff 1abe 6495 09be 886c 58bc
00000380: 7168 67be 5037 fd3d a335 913d 90cb debc
00000390: d620 e73d 7571 8a3c 71dd 1c3d aa82 993d
000003a0: e155 353e a104 bb3c a19d 453d d01a 013e
000003b0: 6d21 f2bd 1f78 a93d 7295 c83c 2e3b 463c
000003c0: 6aed 663d 55ed 40bc 6470 163c d1d0 d6bd
000003d0: 1ff7 77bd 506c 4dbe 8778 30bd a3c2 4c3c
000003e0: 0d74 aabd 7581 04bc 5db3 0bbc a933 243e
000003f0: c21b 3c3d f9c7 003c fa89 50bd 6222 313c

decoder.2.bias f4 [282]
0.05858548 0.11159421 0.09949155 0.11225095 0.10330065 0.051072575 0.012162926 0.05774462
-0.0025758313 0.03965837 0.051484816 0.09360639 0.062365346 0.04992273 0.067588195 0.053001843
0.03487264 0.044975765 0.055088222 0.0049136113 -0.02261239 0.0072497474 0.038647763 0.06418125
0.0568258 0.018371731 0.023360873 0.01389359 -0.04013476 0.040497236 -0.008316813 -0.00935764
0.018741686 0.0061840233 -0.041785877 0.021834565 0.0064182235 0.01377738 -0.021216093 -0.030898148
0.007490928 -0.056450598 -0.010729802 -0.017138394 -0.00510102 -0.014718525 -0.076572604 0.03703196
0.0053728814 0.018942641 -0.009878341 -0.026349552 -0.027438466 0.067965604 0.01115046 0.011603162
-0.046780787 -0.05628602 -0.01869237 -0.03049107 0.04085558 -0.019389372 -0.04560026 -0.021177737
0.028212132 -0.0229413 0.020722281 0.0718279 0.065857925 0.0731086 0.05718618 -0.039469562
0.020265764 0.08241641 0.039905146 0.101321526 0.060998663 0.012499 0.026923211 0.03672243
0.01873128 -0.030375842 0.009802297 0.09132533 0.068282776 -0.011159489 0.010998965 0.011763414
0.07447067 0.037113976 0.07527519 0.042783543 0.058004946 -0.0043081525 0.09715241 0.075444445
0.017331725 0.08860285 0.06323834 0.043124508 0.05667508 0.057691358 0.07117285 0.055815615
-0.018021269 0.09471284 0.048390087 0.034156907 0.09767066 0.04286033 0.059007555 0.011584926
0.049202748 0.09582927 0.034147736 0.052046098 0.099974066 0.024759933 0.033226315 0.03059611
0.06927521 0.07151193 0.026633983 0.032545548 0.03229233 0.027442213 0.07877479 0.038265586
0.025710236 0.07649277 0.064240806 0.052793723 0.06752222 0.078420095 0.017553175 0.100141674
0.045208983 0.028354118 0.08140378 0.06655259 0.0585699 0.050249774 0.061786976 0.0050902516
-0.02980988 0.021949617 0.030285738 0.006036337 0.022941925 0.048175626 -0.055395175 -0.034751836
0.0027551402 0.012136101 -0.08773792 0.0068182666 -0.00845168 -0.040577393 -0.0072730635 -0.06430495
-0.06593027 -0.0027487355 -0.023161642 -0.08224508 -0.048556287 -0.018502159 0.010628183 -0.046641935
0.012369377 -0.06919014 -0.034472693 -0.03545439 -0.013783006 -0.02468527 -0.03500705 -0.015012856
0.012904424 -0.011883791 -0.05562755 0.012310072 -0.07933831 -0.06251896 -0.018714938 -0.04803625
-0.08471223 -0.04057848 -0.050784826 -0.019700546 -0.034607027 -0.034359697 -0.013175459 -0.095197506
-0.06347525 -0.013326774 0.01667784 0.029582636 -0.00819198 -0.06731967 0.02036667 -0.023031643
-0.01810031 -0.07157834 0.011323909 -0.014415005 -0.004087057 0.015903298 -0.036319762 -0.022583744
-0.050648015 -0.079158075 -0.006847553 -0.049497254 -0.004458599 -0.0055454466 0.031957593 -0.063681304
-0.11048597 -0.020673169 -0.030638954 -0.051558618 -0.024302654 0.0029051406 0.005513762 -0.053092085
0.018900143 0.02971311 -0.047050923 -0.04118157 -0.020089213 0.046120144 -0.0036117935 0.035299793
-0.053585254 -0.049022026 -0.015080078 -0.010203278 -0.021613264 0.041096736 0.040332988 0.017220559
0.05437752 -0.055835605 -0.04550732 -0.03440605 -0.03296396 0.0057612057 -0.05644008 0.059225976
-0.02523961 0.046182055 0.020841956 0.039910227 0.011477719 -0.0014274531 0.019197773 0.03049446
00000000: 54f7 6f3d 818b e43d 3ac2 cb3d d3e3 e53d
00000010: 4b8f d33d 7a31 513d 0247 473c 9f85 6c3d
00000020: 47cf 28bb d170 223d bee1 523d b5b4 bf3d
00000030: ce72 7f3d c77b 4c3d ae6b 8a3d 7618 593d
00000040: 9dd6 0e3d 8238 383d 30a4 613d 5c02 a13b
00000050: 9e3d b9bc 4a8f ed3b 1e4d 1e3d 7671 833d
00000060: 2cc2 683d 5080 963c 4d5f bf3c f1a1 633c
00000070: 5964 24bd 6ee0 253d 3e43 08bc c950 19bc
00000080: 2a88 993c 59a3 ca3b ab27 2bbd 67de b23c
00000090: f64f d23b 85ba 613c 5fcd adbc 1d1e fdbc
000000a0: 7576 f53b be38 67bd 0dcc 2fbc d165 8cbc
000000b0: 7526 a7bb f825 71bc 19d2 9cbd d3ae 173d
000000c0: ff0e b03b 992d 9b3c c4d8 21bc 04db d7bc
000000d0: a2c6 e0bc 8d31 8b3d 6bb0 363c 301b 3e3c
000000e0: 369d 3fbd 2b8c 66bd be20 99bc 69c8 f9bc
000000f0: 2e58 273d 76d6 9ebc 57c7 3abd ef7c adbc
00000100: 211d e73c 65ef bbbc c6c1 a93c 821a 933d
00000110: 85e0 863d f6b9 953d 0e3c 6a3d d6aa 21bd
00000120: 6304 a63c efc9 a83d 9473 233d a981 cf3d
00000130: bcd9 793d 9bc8 4c3c 118e dc3c 426a 163d
00000140: 5772 993c c2d6 f8bc d099 203c c608 bb3d
00000150: d7d7 8b3d 4ad6 36bc 0135 343c 56bb 403c
00000160: 1484 983d d304 183d e129 9a3d cc3d 2f3d
00000170: 9896 6d3d 672b 8dbb d8f7 c63d 9e82 9a3d
00000180: 43fb 8d3c 6975 b53d 1a83 813d 53a3 303d
00000190: 2124 683d c64d 6c3d 12c3 913d ea9e 643d
000001a0: 57a1 93bc cef8 c13d af34 463d 1de8 0b3d
000001b0: 8e07 c83d 508e 2f3d e8b1 713d b4ce 3d3c
000001c0: d288 493d 2342 c43d 7fde 0b3d 4a2e 553d
000001d0: 34bf cc3d 58d5 ca3c 5118 083d b1a4 fa3c
000001e0: 29e0 8d3d d974 923d 832f da3c 7b4e 053d
000001f0: f644 043d 7ece e03c ad54 a13d 60bc 1c3d
00000200: 469e d23c 3ea8 9c3d af90 833d 3b3e 583d
00000210: 1749 8a3d b79a a03d adcb 8f3c 1417 cd3d
00000220: 0e2d 393d e546 e83c 06b7 a63d b94c 883d
00000230: fee6 6f3d b5d2 4d3d 5714 7d3d 20cc a63b
00000240: d933 f4bc afcf b33c cc19 f83c 77cc c53b
00000250: b4f0 bb3c ce53 453d 0de6 62bd f157 0ebd
00000260: 958f 343b 7fd6 463c f0af b3bd c46b df3b
00000270: ea78 0abc 7b34 26bd e152 eebb 50b2 83bd
00000280: 7306 87bd 2124 34bb 7cbd bdbc 1c70 a8bd
00000290: f5e2 46bd d791 97bc d521 2e3c 9d0b 3fbd
000002a0: eda8 4a3c 8fb3 8dbd 3d33 0dbd 9f38 11bd
000002b0: 1ed2 61bc c338 cabc 8d63 0fbd 7bf8 75bc
000002c0: 146d 533c 3bb4 42bc b7d9 63bd 2fb0 493c
000002d0: 207c a2bd f109 80bd 1250 99bc a9c1 44bd
000002e0: 9b7d adbd 9f35 26bd c003 50bd 0a63 a1bc
000002f0: 19c0 0dbd c1bc 0cbd e1dd 57bc e9f6 c2bd
00000300: 50ff 81bd 8b58 5abc f79f 883c 4957 f23c
00000310: a837 06bc e5de 89bd 01d8 a63c dbac bcbc
00000320: 1a47 94bc aa97 92bd eb87 393c ea2c 6cbc
00000330: b8ec 85bb a247 823c 08c4 14bd 8b01 b9bc
00000340: 4b74 4fbd a11d a2bd 7061 e0bb a2bd 4abd
00000350: 7019 92bb 94b6 b5bb f7e5 023d 586b 82bd
00000360: 7846 e2bd c75a a9bc 8bfe fabc 212f 53bd
00000370: 5c16 c7bc 2c64 3e3b caac b43b 1677 59bd
00000380: 79d4 9a3c e868 f33c 78b8 40bd 02ae 28bd
00000390: 2292 a4bc 7ae8 3c3d d7b3 6cbb 8496 103d
000003a0: 367c 5bbd 52cb 48bd 6e12 77bc a62b 27bc
000003b0: 4d0e b1bc 0d55 283d 3434 253d 2112 8d3c
000003c0: f6ba 5e3d e0b3 64bd e265 3abd 5ced 0cbd
000003d0: 3805 07bd 7fc8 bc3b b72d 67bd f096 723d
000003e0: 4cc3 cebc 6529 3d3d c0bc aa3c e878 233d
000003f0: 0b0d 3c3c 6119 bbba a644 9d3c 85cf f93c
