checkpoint.pt (torch, 588516 bytes, 8 tensors)

encoder.0.weight f4 [182, 282]
00000000: d884 bfbc 2b76 1bbd a0e0 febc 9509 0bbc
00000010: 5196 33bd c47b 33bd f537 333d 32aa dabc
00000020: 7c53 d13c 2ec5 1fbd 9bf1 48bc 01d2 50bd
00000030: 833f 00bd 8ce8 4fbd 1a34 a5bc 730e 493d
00000040: a81d 0cbd b515 3bbd 2a55 c63b bbec feb9
00000050: a419 273d 163a f5ba e97c e6bc 84ad 503d
00000060: fb86 393d fb9e 5abd 1fb5 233d 936d 323d
00000070: 3361 5e3d e6ae 13bc 8ad7 423d 4333 513d
00000080: 1ea8 843a 5225 553d 8246 5ebc 9e5c c33b
00000090: ea8c c1bc 2630 34bd e3fc 90bc 24d7 8e3c
000000a0: 49fa 933b 3730 09bc 045b 6fbc bfc5 d23c
000000b0: 0bd5 5c3d 25f7 0e3d 7ad4 64bd 2307 8abc
000000c0: 43a7 19bd 1bfd 433d cb18 f1bc ef8d 583d
000000d0: 3e7a 093c 7a7c c0bc c281 fbbb 6f12 31bb
000000e0: 2877 913c 860e b83c 40a6 c4bc 64da 3d3d
000000f0: 0833 833c 9fe0 453d 1180 813c 62ff 63bd
00000100: c268 24bc 9ac5 3f3d a16d fb3a 3de5 693d
00000110: 8c6b 183d dbb2 d3bb 22b9 cbbb d9be 343c
00000120: 7ff6 073d 8fc5 75bb 89ff 91bc a001 503c
00000130: 1d6f f33c 80b3 80bb c5cd 52bd 80c4 463d
00000140: a686 4ebc f63a 64bd f188 44bd 067b 06bd
00000150: 9371 c43c 406f 88bc 77d6 19bc 795d 58bc
00000160: f91e 9e3c 720b 203d 5cb6 6fbd 6a0f 43bd
00000170: 10aa e13b c459 453d 861a 69bd 777d 33bd
00000180: 5095 1b3c 1e6c 2abd 0aa7 6dbd f77e 173d
00000190: 902b 323d 069d 63bd 41b7 5e3d 1464 6ebd
000001a0: 754f 5abc 2c2f df39 0f72 783c e72a 1b3c
000001b0: 9e47 373d 75c4 3f3d 5cb1 f9bc 3cdd 5e3c
000001c0: 3e7b 0e3d cb20 983c eb73 e0bc 0092 35bd
000001d0: dea4 4e3d a31d f6bc ff95 debb 7cd5 f8bc
000001e0: ae52 263d 8b04 ae3a 2013 823b 40db 6ebd
000001f0: e607 72bd 70d7 1abd 140f 163d c288 00bd
00000200: 09dd 51bd 377d a2bc aae5 e5bc 250a 65bd
00000210: a576 9c3c 6404 e6bb 807d 813c 2d83 173d
00000220: 7838 87bc 6b21 63bd a7a0 46bd 4917 b33c
00000230: 25a7 123c c1d5 e1bc 04ac c83c 4a88 5f3d
00000240: 5ca9 cdbb 1a2d 853c 226f b2bc 7edf 113d
00000250: 415b 71bc f7c0 adbc 9e04 c03c 5fb6 6b3d
00000260: 1a46 173d 70fa 7c3c 5721 e33c 4650 2a3d
00000270: bd29 8e3c 4500 80bc 18d6 3c3c b576 a23a
00000280: 37e8 dabb 04e3 26bd 2553 e03c 7e1d 603c
00000290: f72a 55bd ce10 3dbc fec7 363d 23ca bb3a
000002a0: 92e1 b5bc d0ab 163c 3109 1cba 6cee 623d
000002b0: c4a9 6bbd 567e 2f3d 91d3 abbb 78b9 9c3c
000002c0: 12d0 463d 25e5 c0bc db0f 44bd 1ccd ebbb
000002d0: 4909 263d 7d02 f3bc 5008 39bd 24bc ecbc
000002e0: 6d2b 01bc 9bb5 353d 25ab 2dbd 819e fb3c
000002f0: 007e e3bc bbcb b5bc 5daa 9b3c bc12 00bd
00000300: ea29 223d 845f 683d 1791 bfbb 7d7a 2abc
00000310: c535 81bc fb75 5abd da28 6d3d b8a2 91bc
00000320: 3f7a 8ebc 16c4 1c3d a7dc eebc 168f 0dba
00000330: ffd8 a73c 9360 5ebd 1b2c 86bc 223b b03c
00000340: 18ab ea3c 74a6 32bd 71cf a6bc bf6a 40bd
00000350: ffff 413c 64e5 373d 0036 e43c ce41 17bd
00000360: 6b7b 64bd 4b03 073d 75bb 2ebc 0cc9 2b3d
00000370: 98bc 71bc ded6 37bd c728 1fbd 4b5b 193d
00000380: 2caa 69bd 5f9d 6cbd 6261 073c 574b 253c
00000390: 3a8f 773c 4ce1 27bd e435 db3c ae46 1fbd
000003a0: a7b7 f0bc 0859 eb3c 8b8c 503c ab48 19bd
000003b0: 2fcb 3b3d fda6 28b9 de79 e13c 85fb 333d
000003c0: 357a 4cbd 704f 42bd 27b6 763c 9f07 b839
000003d0: e9e0 69bd adf1 b33c 9769 32bc 0b6d 103d
000003e0: 70e5 513c 67df f2bb 43f7 2b3c e2a4 f23c
000003f0: 6d9a 093c 46c7 acbc fb36 373d 8dec 31bd
-0.023378775 -0.03795449 -0.031112969 -0.008486171 -0.043844525 -0.043819204 0.043754537 -0.026692484
0.025552504 -0.039006405 -0.0122646345 -0.050981525 -0.03131057 -0.050758883 -0.020166446 0.049086045
-0.03420797 -0.045675 0.006052633 -0.00048623033 0.040795937 -0.0018709328 -0.028135734 0.050946727
0.045294743 -0.05337427 0.039967652 0.04356153 0.054291915 -0.009013867 0.047568835 0.051074278
0.0010120904 0.052037545 -0.013566615 0.0059619686 -0.023626763 -0.04399123 -0.01769871 0.017436571
0.0045159203 -0.008373312 -0.014609102 0.025729058 0.05391411 0.034903664 -0.055866696 -0.016849106
-0.03751303 0.047848802 -0.029430768 0.052869733 0.008390961 -0.023496855 -0.0076753804 -0.0027019044
0.017757013 0.022467863 -0.024005055 0.04635085 0.016015545 0.04830992 0.015808137 -0.055663474
-0.010034742 0.046819307 0.0019182452 0.057103384 0.03721194 -0.00646053 -0.006217138 0.01103183
0.03319406 -0.0037501787 -0.017822044 0.0126957 0.029716069 -0.003927648 -0.05146577 0.04852724
-0.012605345 -0.055720292 -0.04798216 -0.032832168 0.023979938 -0.01665461 -0.009389511 -0.013205879
0.019301878 0.039073415 -0.05852352 -0.047622122 0.006886728 0.04818131 -0.05691006 -0.043820824
0.009496048 -0.041607015 -0.05802063 0.036986317 0.043498576 -0.05556967 0.054373983 -0.05820091
-0.013324608 0.0004256902 0.015163912 0.009470678 0.044746034 0.046818215 -0.03048008 0.013602551
0.0347855 0.018570324 -0.027399024 -0.04432869 0.0504502 -0.030043429 -0.0067927833 -0.030375235
0.040606193 0.00132765 0.003969565 -0.05831456 -0.059089564 -0.037803113 0.036635473 -0.031380422
-0.051236186 -0.019835098 -0.028063614 -0.055917878 0.019099543 -0.0070195664 0.015806913 0.036990333
-0.016506419 -0.05545179 -0.048493054 0.02186169 0.008950983 -0.027567746 0.024496086 0.054573335
-0.0062762927 0.016256858 -0.021781508 0.03561353 -0.014731229 -0.021210177 0.023439702 0.05754697
0.03693209 0.015440568 0.027725859 0.04158046 0.017353887 -0.015625129 0.011525653 0.0012394997
-0.006680514 -0.040743843 0.027383396 0.0136789065 -0.052042928 -0.011539651 0.04462432 0.0014327209
-0.022202287 0.009196237 -0.00059522974 0.055403158 -0.057534948 0.042845093 -0.0052437265 0.019131407
0.048538275 -0.023546765 -0.047866683 -0.007196082 0.0405362 -0.029664272 -0.045173943 -0.028898306
-0.007883889 0.044362646 -0.042399544 0.030715229 -0.027770042 -0.022191873 0.019002134 -0.031267866
0.039590754 0.056731716 -0.0058461535 -0.01040518 -0.01577271 -0.05333517 0.057900287 -0.017777786
-0.017392276 0.03827294 -0.02915795 -0.00054000446 0.020489214 -0.05429132 -0.016378453 0.021512572
0.028646037 -0.043615773 -0.020362588 -0.0469768 0.011840819 0.0448965 0.02785778 -0.03692799
-0.055781763 0.032962125 -0.01066481 0.04193978 -0.014754437 -0.044882648 -0.038857248 0.03744058
-0.057047054 -0.05776727 0.008262964 0.010088763 0.0151098315 -0.040986344 0.026759095 -0.038885765
-0.029384447 0.028728977 0.012728821 -0.037422817 0.045848068 -0.00016083936 0.027523931 0.04394104
-0.049921233 -0.04743904 0.015058077 0.00035100893 -0.057099257 0.021965826 -0.010889432 0.03526024
0.01281105 -0.0074118855 0.0104959635 0.029619638 0.008398634 -0.021091115 0.044730168 -0.043438483

encoder.0.bias f4 [182]
00000000: 1d43 fabc d1e4 983c f45b 653c 919a 31bd
00000010: a684 193d 1df2 4fbd 29bf 003d 6909 d63c
00000020: fc51 3cbd db76 84bd ecfc ecbc dddf 4bbd
00000030: 217e d3bc 3ac4 fa3c 4012 0bbc 1233 c03b
00000040: ffaa 38bd 4b38 883b 08da 043c 34b4 79bd
00000050: 2892 c33b 78eb 39bd a9dc 27bd 1b50 783c
00000060: 2c12 b7bc 7dbe 7bbd 20f5 ac3c b89d 86bc
00000070: a801 9b3b 9447 6fbc 2ec8 853d 96df 80bc
00000080: d249 c3bb d280 79bc eec4 02bd f926 8c3c
00000090: 5880 4cbc 5f83 913c 080f 5c3d d4cc 0cb9
000000a0: b89b 373d 7480 623c 0fdc 603b 8261 213d
000000b0: 3661 4dbd 2e63 5b3c da1e 223d d74e 4b3c
000000c0: 80ea 083c f707 b1bc c418 8b3c 062e 583d
000000d0: 120a 20bd 98b9 9bbd 7b67 51bd a76b 6cbb
000000e0: 4d65 b5bc f546 6bbd 6980 c43c 504a 263b
000000f0: 86f2 1ebd c94e 363d 7de8 edbc e8bd c0bb
00000100: 5eb6 2ebd 3900 9a3c 68df 183d 9b62 383a
00000110: 7e3c 1f3d ee0e 573d 5270 55bd 2b99 e3bc
00000120: 77a8 0fbc bd0e ec39 a6ed aabd b90f 14bd
00000130: cb30 c33c a3ec 813c 179f 453d 81d9 5ebd
00000140: 28c6 68bd d22a 233d e162 db3b 18b9 0c3d
00000150: b905 5abc b2ad 6cbd d1b4 4fbc 70f2 5ebd
00000160: d5ef 0abd ff08 363d 9a6b cabc 9141 353d
00000170: af75 a3bd 095c 3d3d fcd8 083d e947 553c
00000180: e1c2 d2bc bec0 5fbd acb6 183d d658 70bd
00000190: b6ef 47bd 56cb 21bc 3e47 383d 7f5e 833c
000001a0: 4d0e 6d3c 7589 273d efc3 a0bd bdda e9bc
000001b0: 9f2f 39bd 90db 183d 39b0 3ebd 43bd 73bc
000001c0: 8e2e ccbc 0969 0abd 22bf 58bd 9c74 04bd
000001d0: 19d6 673d d8ea 60bc 0d65 1ebc 3635 6abd
000001e0: cac1 65bc 4aba 003d 8fed 0ebd ce8e 89bd
000001f0: 4695 5c3d 23ed 4e3d 7b8a b93c fd4a 473d
00000200: 452c 18bd 6a5b ce3b e3cd a1bb 94ee 5bbd
00000210: 63ec 25bc b8b3 b83a 4e98 623b 5514 f9bc
00000220: b8b5 b43c 80b7 223d 8a90 123c a9f9 1fbd
00000230: 3cc5 44bc f646 fabb 615d c03c ae34 e8bc
00000240: 6285 93bc 4d78 12bd 163e 1bbc d8b9 073d
00000250: 2064 edbc 58d2 5c3d 43e3 363d adbc 2bbd
00000260: 8dbe 6f3c c7af 3a3d d975 10bd a547 60bd
00000270: 44d0 943a 2883 d0bc 92fa 683d 0884 43bc
00000280: 6a76 013c c7cd a33c 7418 14ba ef48 a13c
00000290: 2d09 f6bb a0f9 2f3c 1235 f93c e4eb f43c
000002a0: 73cf 5aba da16 363d 748e 00bd e77c f4bc
000002b0: 8bfc 4d3c c49d 403d 397a 663d d397 93bd
000002c0: d0de 12bb 5056 643d a963 453c bce0 2a3c
000002d0: b698 61bd 602a 7e3d
-0.03054958 0.018663796 0.013998974 -0.043360297 0.03748002 -0.050768007 0.031432305 0.026127534
-0.045976624 -0.064679824 -0.028929196 -0.04977404 -0.025816979 0.030611146 -0.008488238 0.005865463
-0.04508495 0.0041571013 0.008108623 -0.06096287 0.005968351 -0.045390576 -0.040981922 0.015155817
-0.022347532 -0.06146096 0.021112978 -0.016432628 0.004730422 -0.014604468 0.06532322 -0.015731614
-0.005959728 -0.015228467 -0.031926088 0.017108427 -0.012481771 0.017762838 0.053725272 -0.00013427745
0.04482624 0.013824571 0.0034310853 0.03939963 -0.050141536 0.0133903455 0.039580204 0.012408934
0.00835669 -0.021610243 0.016979583 0.052778266 -0.039072104 -0.076037586 -0.051124077 -0.0036074908
-0.02214303 -0.057440717 0.023987012 0.0025373884 -0.038805507 0.04450873 -0.029041523 -0.0058820136
-0.042654388 0.018798934 0.03732243 0.00070337363 0.03887605 0.052504472 -0.05210907 -0.027782997
-0.0087681925 0.0004502441 -0.08346109 -0.036147807 0.023826977 0.015859907 0.048247423 -0.054406647
-0.0568296 0.03983576 0.006695137 0.034356207 -0.013307028 -0.057782836 -0.012677387 -0.054430425
-0.033920128 0.044442173 -0.024709512 0.044251982 -0.07981431 0.04623035 0.033410057 0.013017633
-0.025727691 -0.054627173 0.037283584 -0.05867847 -0.04881259 -0.009875139 0.044989817 0.01603627
0.014468742 0.040902574 -0.07849871 -0.028546685 -0.04521143 0.037318766 -0.046554778 -0.0148766665
-0.024924543 -0.033791576 -0.052916653 -0.03233777 0.056600664 -0.013727866 -0.009667647 -0.057179652
-0.014023254 0.03142766 -0.034894522 -0.06716691 0.053853296 0.05051912 0.02264904 0.0486555
-0.037151594 0.0062975185 -0.0049378737 -0.053694323 -0.01012716 0.0014091646 0.0034575644 -0.030405203
0.022059307 0.03972578 0.008945594 -0.039056454 -0.012009915 -0.0076378537 0.023482027 -0.028345432
-0.018007938 -0.03575926 -0.009475252 0.03313622 -0.028978407 0.053911537 0.044650327 -0.041927982
0.014632833 0.04557779 -0.03526864 -0.054755826 0.0011353572 -0.025453165 0.056879587 -0.011933334
0.007901767 0.019995583 -0.0005649396 0.019688098 -0.007508418 0.010740668 0.030420814 0.029897638
-0.00083469524 0.044455387 -0.031385854 -0.029844714 0.012572418 0.047025457 0.056268904 -0.072066925
-0.0022410639 0.055746377 0.012047687 0.010429557 -0.055077277 0.06205213

encoder.2.weight f4 [118, 182]
00000000: 7f53 8abd 0eb2 52bd bf38 3dbd cf5a 2cbd
00000010: efdc 433c 3405 2bbd 271b 86bd 1302 3ebd
00000020: 27af 5f3d c153 063d 09e4 22bd 4723 e93c
00000030: 8fa9 8abd e574 00bd 2fea 343d c35f e0bc
00000040: 9124 84bd 1bf2 293d 47ce a6bd b995 4d3d
00000050: 2a44 30bd f32e 3ebd 5b2d 0d3d f02d 2bbd
00000060: dbff 683c b0c9 18bd 358e 6bbd d44a 9a3d
00000070: 64ee 91bd 341f 1b3d b82c 423d 0a8b 4b3d
00000080: 90df 04bd d047 883c 0189 903c 36b5 83bd
00000090: 7feb 75bd 94b1 29bd 31b9 803d 8303 8d3d
000000a0: b03c 86bd 0b58 463c aba5 65bd 5319 8bbd
000000b0: 032b 5f3d 9326 6e3c 5edc 973c c8e5 3cbc
000000c0: 8bf8 8bbd ef69 a23c ebac 6e3d ba95 bb3c
000000d0: 9afc 88bd c57f 0c3d c544 863b 698b 12bd
000000e0: f201 81bc 283c bf3c 9d98 a5bc 88ad 6abc
000000f0: 9419 46bd 3472 353d de0c 6c3d 8d92 92bc
00000100: f8ba 4fbd 8e4a 8cbd f9cf ef3c bb08 43bd
00000110: 072f d5bc 1719 293d 994c 4e3d de78 683d
00000120: 86d0 34bd 6e15 ef3c e195 1c3d e451 9e3c
00000130: 3155 743d 48c3 1ebc 19fe 823d 5a51 c6bc
00000140: 2867 d53b 5627 a5bc 39b9 f63c 799b 43bd
00000150: be1a 873c 5bd7 20bd 7306 bc3c e14e fe3b
00000160: 48e4 613d 9fe3 0ebd afac 10bd 8105 8b3d
00000170: 6f86 8cb7 580f 60bb e120 77bd 830e 5bbc
00000180: c287 e7bc dbd6 7e3d 7db9 25bc 5209 353d
00000190: 500e 0e3d 89b4 e0bc 30c1 003d 846b 17bc
000001a0: d46e f13c 5d59 7f3b 6524 2d3d 70ec 663b
000001b0: 8247 8e3d 0304 6bbd 8cf3 3b3d e2d4 8cbb
000001c0: 4bd2 7fbd 5da0 b9bc 4c48 4a3d 81fa 82bc
000001d0: c57e 8abc 67c8 763d ea0b 7d3a ce92 823d
000001e0: d72c 853d 64d4 4b3d 2f76 853d 9b8f 21bb
000001f0: 6333 7c3c 37e4 73bd 76a5 303d 3cdf 8c3c
00000200: aeda 003d 51d6 1d3d e262 2bbd f95c 863d
00000210: f7b4 bebb 6c37 53bc a00a 833d af8b 87bd
00000220: 5313 fcbb 01d9 143b bc89 043d 7864 643c
00000230: 6190 c6bc 3142 0dbd 9d29 08bd 164b 773d
00000240: 3f21 043d c9b2 813d 4308 94bc d753 903d
00000250: 1c52 423d a08a 65bc a2e1 a23d f7a3 9cbd
00000260: 25fe 70bd dfc4 0a3d 4073 68bd 765e 183c
00000270: e678 8dbb 5d37 48bd 43b5 183d 9cc5 953d
00000280: f6f1 793d c228 1c3d 88f9 5c3d b733 e2bc
00000290: 85d5 0cbd 8efe 043d 7abb 25bd 4d4e 143d
000002a0: 0c73 5cbd 0b40 0dbd b27d c33b 2f5d a23c
000002b0: b4ec 22bc f90a 04bb b917 0c3c 61f8 be3b
000002c0: 78fa 2a3d a9f0 82bd 1e04 8ebc 311e 0bbd
000002d0: 147e 5c3d 997c 653d 0406 123d e0a7 32bd
000002e0: ee42 32bd b204 1ebd 6bf7 90bd 4a4a 223d
000002f0: d662 783a 5435 55bd 6802 38bd 1382 a13d
00000300: 3ed9 473d a253 d33b 953e 0cbc d63e 3fbd
00000310: 04ef b93c ce03 4fbc 59f9 8cbd 40b7 7e3d
00000320: 974e 6dbd 4a51 9a3d f716 1b3d df29 d7bc
00000330: c019 a0bc 9383 163c 75ea d7bc 02eb 673d
00000340: 8bee 1ebd e6e6 e7bc aa87 9e3d cfa5 81bd
00000350: f8f0 49bd 9027 2cbd a3c9 f23a b164 39bc
00000360: 4dc2 48bd 3464 febc ea12 3ebd 0d8e ee3c
00000370: 5c71 9a3d c34f 25bc 1ba6 8ebd d1e3 f1bc
00000380: ab35 643c 8e4a 523d 0a5c 4c3c 2d7e 983c
00000390: 2c25 8d3d 15f8 1b3d 016b ce3c c577 a7bb
000003a0: 35ae 5f3d e1b9 96bc e0c2 723c cd09 5aba
000003b0: 5263 303d f81b 953d 9c3a 833d d76e 043c
000003c0: f131 28bc 7189 e23c 7081 72bd 7673 90bd
000003d0: 4e4e 833c 544c 233d 6995 0abd 86a1 673c
000003e0: 6d83 64bd 9d45 793d cca3 3a3d d7df 5cbd
000003f0: cf4d 773d b7d0 51bd 5dd0 4c3d 69d8 6a3d
-0.06754207 -0.051439337 -0.046196695 -0.04207879 0.01195453 -0.04175301 -0.06548148 -0.046388697
0.054610398 0.032794718 -0.039768253 0.028459204 -0.06770622 -0.03136148 0.044168647 -0.027389413
-0.06452287 0.041490655 -0.08144813 0.050191615 -0.043033756 -0.046431493 0.034467082 -0.041791856
0.014221157 -0.03730172 -0.057508666 0.075338036 -0.071255475 0.037871554 0.04740593 0.049693145
-0.03243977 0.016635805 0.017643454 -0.064310476 -0.06003904 -0.041429117 0.062853225 0.068854354
-0.06554544 0.012105952 -0.056066196 -0.067919396 0.05448438 0.014535564 0.018537696 -0.0115293935
-0.06834515 0.019825904 0.058270376 0.022898544 -0.06688805 0.034301538 0.0040975534 -0.035777483
-0.015747998 0.023344114 -0.020214373 -0.0143236 -0.048364237 0.044298366 0.05762946 -0.017892146
-0.050715417 -0.06850158 0.029273974 -0.047615748 -0.026023401 0.041283693 0.050366018 0.056755893
-0.044144176 0.029185023 0.038228873 0.019326158 0.059651557 -0.009690113 0.063961215 -0.024208713
0.0065125413 -0.020160358 0.030117618 -0.047755692 0.016492244 -0.03926788 0.022952294 0.007760868
0.055149347 -0.034885045 -0.035320934 0.06788159 -1.6751901e-05 -0.0034188833 -0.06033409 -0.013370159
-0.028262977 0.06221662 -0.010115025 0.04419834 0.03468162 -0.027429836 0.031434238 -0.009241942
0.029471792 0.0038963177 0.042271037 0.0035236143 0.06947233 -0.057376873 0.04588656 -0.0042978385
-0.06245641 -0.022659475 0.049385354 -0.01598859 -0.016906152 0.060249712 0.00096529594 0.06375657
0.06502693 0.0497631 0.06516682 -0.0024652246 0.015393111 -0.059543815 0.043126546 0.01719629
0.03145855 0.038534466 -0.04184235 0.06560702 -0.0058199125 -0.012891632 0.06398511 -0.066184394
-0.0076927333 0.0022712352 0.032357916 0.013939969 -0.024238767 -0.034486953 -0.03324281 0.060374342
0.03225827 0.06332929 -0.018070346 0.07047241 0.047441587 -0.014010102 0.07953192 -0.07648461
-0.05883612 0.033879157 -0.056750536 0.009299865 -0.0043173907 -0.048880924 0.03728224 0.073130816
0.061021768 0.038124807 0.05394891 -0.02761255 -0.034383316 0.032469325 -0.040461995 0.036207486
-0.053820655 -0.034484904 0.005965912 0.019819824 -0.00994413 -0.0020148142 0.008550578 0.005827949
0.041742772 -0.063935585 -0.017335948 -0.03396434 0.053831175 0.05602703 0.03565027 -0.04361713
-0.04352086 -0.038578697 -0.07078441 0.03962163 0.0009475177 -0.05205281 -0.04492417 0.07886138
0.048791163 0.006449179 -0.008559843 -0.046690784 0.02269698 -0.012635184 -0.06883497 0.06218648
-0.057936277 0.07535036 0.037863698 -0.026265083 -0.019543529 0.009186643 -0.026356915 0.056620605
-0.03880171 -0.028308343 0.077407196 -0.063304536 -0.04930207 -0.042029917 0.0018523227 -0.011315511
-0.049013425 -0.03105364 -0.046404757 0.02912047 0.07541153 -0.010089817 -0.06965276 -0.029527577
0.013928811 0.051340632 0.012473116 0.018614853 0.068918556 0.038078386 0.025197508 -0.005110713
0.054609496 -0.01839918 0.01481697 -0.00083175005 0.04306347 0.07280725 0.06407663 0.008083067
-0.010265813 0.027653428 -0.059205472 -0.070532724 0.01602855 0.039867714 -0.033833895 0.014137631
-0.0557894 0.060857404 0.045566365 -0.053924408 0.06037694 -0.051224437 0.0500034 0.05733529

encoder.2.bias f4 [118]
00000000: 92b1 4abd 1911 563d 6b4c d7bc 676c f8bc
00000010: 726b 273d 18e9 0939 3692 51bc 5c0c c53c
00000020: f91c 94bc 6cff 323d a53d 20bd f971 99bb
00000030: f234 eb3b ac29 72bc 8a0a 02bd aa57 a63d
00000040: 2a32 483d f191 983d 3274 3b3d 01ee 84bd
00000050: a9ad 103d ac6c 87bd c86a 68bd 8705 2fbd
00000060: bc23 a53b 5013 fbbc 944b f13c ce9c 07bd
00000070: c892 1f3d 4789 5d3d 8688 f73b 2d83 30bc
00000080: 3bc8 a03c ba90 0b3d e030 543b f9ea ab3c
00000090: 454f 69bd b344 663d 2a44 1c3d 8eee 04bd
000000a0: 8010 7b3d e47c 833d b433 7d3d 504b 4fbd
000000b0: fa64 4b3d d6ad 163d 17e7 1abd 3582 ca3c
000000c0: d821 183d 9be8 55bd 40e9 1abd 9378 45bd
000000d0: eb68 183c 4aee 543d 2023 943c 9a24 873d
000000e0: f95e 8ebb 3940 773d 07e9 56bb e7dc 673d
000000f0: aeb3 043d cb89 193c 1c02 4b3d 823a 9d3c
00000100: a51f 71bb c582 203c 4e1c c43c 52c3 58bd
00000110: 9511 7abd 9317 dbbc d02c bebc edb7 84bd
00000120: d530 3cbd 8b9a 383d cd8a 8c3c 7215 fbbc
00000130: 7553 6b3b 3968 f8bc 38af 0abd 6ab4 e9bc
00000140: 60b8 68bd 5331 853d 15f3 833a b0af 2bbc
00000150: 8ec8 663d 1547 15bd 4c02 1bbd 473d 59bd
00000160: 987e 84bd 4cdd fabb 9f22 8a3d cddc e63c
00000170: 5194 d2bc 4890 993d 7c2c 833d 29b9 3fbd
00000180: 762b 8d3d 4bcc 15bd 01aa 68bd 20e4 71bc
00000190: 899d 723d 214f 89bd ee34 433d d4a3 9cbd
000001a0: a12e 00bd f6b5 573d 41a9 87ba 4e0e 1cbc
000001b0: 7fa7 423d 0d4f 513d 3c5f 20bd e817 4c3d
000001c0: 406b ae39 e4ea d23c 44d3 c23c 71a8 96bd
000001d0: 1a3e 013d 2bf3 69bd
-0.04948575 0.0522624 -0.026281556 -0.030325128 0.040873952 0.00013152172 -0.012791207 0.024053745
-0.018080221 0.04370062 -0.03912129 -0.004682776 0.0071779424 -0.014780443 -0.031748332 0.08122189
0.048875965 0.07449711 0.04576511 -0.06490708 0.035321865 -0.066125244 -0.05674246 -0.04272988
0.0050396603 -0.030648857 0.029454984 -0.033108525 0.03895834 0.054085996 0.0075541167 -0.010773462
0.019626727 0.03407357 0.0032377765 0.020986067 -0.056960363 0.05621786 0.038150944 -0.032454066
0.061295033 0.06420305 0.061816886 -0.050608933 0.049656846 0.036786877 -0.03781804 0.02472029
0.03714165 -0.052223783 -0.0378201 -0.04821069 0.009302358 0.051985063 0.018083155 0.06598778
-0.0043448177 0.060363982 -0.0032792704 0.056607153 0.03239792 0.009371231 0.04956256 0.019192938
-0.0036792543 0.009796803 0.023939278 -0.052920647 -0.061051924 -0.02674464 -0.023214728 -0.064803936
-0.045945007 0.04506926 0.01715603 -0.030649874 0.0035907899 -0.030323135 -0.033858508 -0.028528411
-0.05681646 0.065035485 0.0010066951 -0.010478899 0.056343608 -0.036444742 -0.037843987 -0.053036954
-0.06469458 -0.007655775 0.06744885 0.028181458 -0.025705488 0.074982226 0.06404969 -0.04680744
0.06893055 -0.036571782 -0.056802753 -0.014763862 0.05923227 -0.06704546 0.0476579 -0.07648435
-0.03129447 0.052663766 -0.0010350124 -0.009524895 0.047523018 0.05110078 -0.039153323 0.049827486
0.00033267774 0.02574677 0.02378238 -0.073563464 0.031553365 -0.05711667

decoder.0.weight f4 [182, 118]
00000000: 6e5c f5bc 36f7 0d3c 5210 7dbd 6af5 12bd
00000010: 30b6 793d af87 8e3d bbd8 62bd 3a0b 3a3d
00000020: f970 733d bef2 98bd 8c9d 04bc 3494 2e3b
00000030: fcd9 54bd 5309 523d 4588 0f3d afa1 903d
00000040: d43f 933d 44a2 82bd 8d2e 8fbd ff65 babd
00000050: 658d a13d 5f7c 4dbd 0be1 153b 571c ddbc
00000060: 8070 2c3d 768c a63d 5e37 3ebc f787 3fbc
00000070: de33 76bc 5c3e 003d 6674 85bd de67 0dbd
00000080: adb5 b83d b4c1 eb3b 9a21 b4bc 3bee dd3c
00000090: c2c3 4e3d df98 2dbd 0518 4c3d bd08 38bd
000000a0: 3473 f83b e39f bd3c 8e57 483b e1ec a2bd
000000b0: ab13 c83c d10a 983b 7ed1 c7bd c6c2 e93b
000000c0: 4018 8fbd 9f31 703d b3da 903b 201d 1d3c
000000d0: 3525 b2bd ba6c 993d bed9 38bd fdd2 853c
000000e0: a5a5 d3bb 32bd 923d 559b 6d3d e593 a03d
000000f0: 9b25 87bb bac1 ca3d d7fc 953d 14b8 a83d
00000100: 060b 963d 8315 9a3d bd53 4b3c 7d99 03bd
00000110: a566 193d e0e1 b83a b874 56bd 1701 91bc
00000120: 7f72 b2bd 0da5 d23c 6614 b9bd 5a23 ea3c
00000130: bdac fabc 3ae1 b73d 39f6 c1bb 2db8 a1bc
00000140: 949d 47bd 29e3 a33d c148 9abd 319b 68bd
00000150: 2258 2b3d c594 383d 73eb 833d 85e4 5dbd
00000160: 0621 e93b b3aa 0fbd 2d5a bdbb b178 a6bb
00000170: a94e 933c 3eec 62bd 0b6a 68bd 8a38 73bd
00000180: 0e70 2dbd 7580 93bd 7c1d 9dba 94bf 44bb
00000190: 4f16 85bc f483 2e3d ce3f 273d 078f b83d
000001a0: 0e1a 053d 39c5 a23d da86 693d 70f2 2637
000001b0: 96d7 ae3d 6785 b93d 75ee 8bbd 6019 3c3d
000001c0: 5059 98bd 704c a5bd 9ea1 82bd c2d4 823b
000001d0: 55c2 8ebd aff5 96bd 75c9 903a 788a 13bc
000001e0: be6e 2f3d 9e9c 2b3d dddd 1fbb 15c1 9bbb
000001f0: 3982 a5bc fb59 343c 97cc 3e3d b3b1 62bd
00000200: ec99 a4bd ef45 8d3c 51f9 66bd fe2d 4e3d
00000210: a4ab 923d 9e29 a1bb 359b 4aba 621f 3fbd
00000220: f717 eabc e1f9 923c e4a0 183d face f8bc
00000230: 6edc c53c 7e96 c43d 4823 543d d972 d4bc
00000240: 0f4a 5fbd abae 8f3d d385 943d 5d8b b1bd
00000250: e4b3 adbd f1b9 51bd 257a 923d d78c 9b3d
00000260: 51db 5abc 505a 6d3d 3826 9c3c b5b6 b93d
00000270: dfa5 163d d2ac 993c b093 95bd b55c bdbc
00000280: 19a0 4f3d 4543 6d3d f9b8 8fbd 5fc5 4d3d
00000290: 3fa4 693d 8978 343d 6ecf 743d 9123 e2bc
000002a0: bfc6 bdbc 0f83 713c d71d b93d cb02 96bd
000002b0: af24 85bd f71f 9dbd 3243 913d 5b86 4e3d
000002c0: 8406 893d c4a7 eabc ee7d 32bc 91d2 3a3d
000002d0: ff3f 0fbc ab15 fe3c d528 753d 919c adbd
000002e0: 007c 873d 47e1 833b 1a86 9f3d 213f 213d
000002f0: cdd0 a83d 0332 3ebc 00f6 3dbd eac6 7c3d
00000300: 2ed9 aa3c be52 423d 6ce9 c23d 2f5d c13c
00000310: 3593 df3c d34d 183d 88d8 a6bc 47c2 b93c
00000320: 953c 963c b701 663b 624e a3bd 9cb0 14bd
00000330: b7fd 93bc a465 13bd b86f bb3c 6b35 9ebc
00000340: e38d 29bd 6d26 6fbc 0408 62bc 925a d93c
00000350: d38a 7bbd c162 94bd 78a8 773d 0e9c 2fbd
00000360: 27ac a43c 5fce 863d 687a ab3d 91bc cb3c
00000370: 95a3 613c 49aa 58bd 820a 753d 9ea0 c8bd
00000380: efaa bfbd 3a8d 8c3d 05da 9ebd f976 c2bc
00000390: bd60 e83c fa6b 3cbd 9aa3 823d d66f 463b
000003a0: 9499 9fbd d465 7cbc d1b0 9cba 343d 8b3d
000003b0: 4c59 96bd 4923 bebd 6b6a d9bb d23e b2bd
000003c0: 6d2e 6c3d e8b0 8f3c 5d0e 89bd 0fbe c1bb
000003d0: 8d67 6f3d 777b da3c ebba 483d ccfe b6bd
000003e0: a8a2 bdbb 64c5 91bb b440 313c 6be4 fcbc
000003f0: b531 9fbd 0a13 6fbd ddc9 103d cf0e aa3d
-0.0299513 0.008664897 -0.061783142 -0.035878576 0.060964763 0.06959473 -0.05538247 0.045420863
0.05943391 -0.074681744 -0.008094203 0.002663863 -0.0519657 0.051278424 0.035042066 0.07062089
0.071899086 -0.06378606 -0.06991301 -0.091014855 0.07888297 -0.050167438 0.0022869732 -0.026991053
0.042099476 0.081322595 -0.01160988 -0.011690131 -0.015027015 0.03130947 -0.06516342 -0.034522884
0.09019027 0.007194722 -0.021988679 0.027091136 0.050479658 -0.042382117 0.049827594 -0.04493021
0.0075820927 0.023147529 0.0030569765 -0.07955337 0.02442344 0.0046399613 -0.09756754 0.0071338145
-0.06987047 0.058641072 0.004420602 0.0095894635 -0.08698503 0.07491441 -0.04512953 0.016335959
-0.0064589554 0.071649924 0.058009464 0.07840709 -0.004124356 0.09900232 0.07323616 0.08238235
0.07326321 0.07523634 0.0124101015 -0.0321288 0.037451405 0.0014105402 -0.052357405 -0.017700715
-0.08713245 0.025713468 -0.09037094 0.02858131 -0.030599946 0.089785054 -0.0059192446 -0.019741142
-0.048734263 0.08002312 -0.07533408 -0.056788627 0.041832097 0.045063753 0.06441393 -0.05417301
0.0071145324 -0.0350749 -0.005778572 -0.0050803055 0.017981844 -0.05540108 -0.056741755 -0.05938009
-0.04234319 -0.072022356 -0.0011986936 -0.0030021416 -0.01624599 0.04260631 0.040832333 0.09011655
0.03249555 0.079477735 0.05701337 9.950818e-06 0.085372135 0.090586476 -0.068325914 0.045922637
-0.0743891 -0.0807122 -0.06378482 0.003992648 -0.0697066 -0.07371079 0.0011046367 -0.0090051815
0.04283022 0.04189741 -0.0024393715 -0.004753242 -0.020203697 0.011007781 0.04658183 -0.05534525
-0.08037171 0.017245261 -0.05639011 0.05033683 0.07161644 -0.0049182912 -0.0007728816 -0.04666079
-0.02857588 0.017941417 0.037262812 -0.030372132 0.02415296 0.095990166 0.05179146 -0.02593367
-0.054513987 0.07015737 0.072520874 -0.086691596 -0.08481577 -0.05120272 0.071522035 0.075952224
-0.013357953 0.057947457 0.019061193 0.09068052 0.03677928 0.018759165 -0.0730356 -0.023115495
0.05068979 0.05792548 -0.070177026 0.050237056 0.057041403 0.044060264 0.059768133 -0.02760485
-0.023166059 0.014740719 0.090388946 -0.073247515 -0.065011375 -0.076721124 0.070928946 0.0504211
0.06690696 -0.02864445 -0.010894282 0.045610968 -0.008743285 0.031016191 0.059853394 -0.08477128
0.06615448 0.004024658 0.0778925 0.039366845 0.082429506 -0.011608603 -0.046377182 0.061713137
0.020855512 0.04744219 0.09517178 0.023604004 0.027291873 0.037183594 -0.020366922 0.022675646
0.018339435 0.0035096237 -0.07973935 -0.03630124 -0.018065317 -0.035985604 0.02288042 -0.019312581
-0.04139508 -0.014596564 -0.013795856 0.026532445 -0.06141169 -0.07245398 0.0604634 -0.042873435
0.02010162 0.06582331 0.083729565 0.024870189 0.013771911 -0.05289677 0.059824474 -0.0979626
-0.09358775 0.06862874 -0.07756428 -0.023738371 0.02836644 -0.046001412 0.06378861 0.0030279062
-0.077929646 -0.015405137 -0.0011954551 0.06798783 -0.07341251 -0.09284074 -0.0066350005 -0.08703388
0.057661463 0.01754041 -0.06692193 -0.0059125493 0.058448363 0.0266702 0.049006384 -0.089353174
-0.0057872124 -0.0044485796 0.010818649 -0.030870637 -0.07773153 -0.058367766 0.03534876 0.08303606

decoder.0.bias f4 [182]
00000000: c88a 9cbc a6bb 5f3d f59e 613c 3cc0 20bd
00000010: 1d7c 633d 600e 913d 08df 453b 479c 8d3d
00000020: 844a 8e3d 371b 1cbd 3323 ea3c 60f4 9f3d
00000030: 6b25 b63d db51 0a3d e377 75bd 9e39 5dbc
00000040: 2c0f 9b3d dc38 a2bd 7d61 4fbd 017f 31bc
00000050: 6788 dbbc 20ef 5fbd 5c33 383d 4047 99bc
00000060: 32a2 3b3c f820 5e3b 06c2 44bd 0fd8 98bd
00000070: 7359 a4bc 3411 aebc d814 ad3d ee8f a3bd
00000080: 10ef 123d c5cb 9a3c b954 5ebd 367b 01bd
00000090: d0e9 3f3d dced 8b3c 982f c03c 26e9 87bd
000000a0: 1908 b0bc 1d9a 63bd 9512 26bd 5916 6d3c
000000b0: cad1 bb3d 9b33 ae3c 1472 c03b b2bf f43c
000000c0: 8f39 ae3d 834f 62bc 44dd bb3d 11d2 903d
000000d0: a187 8cbd b50a 6f3d 4cb6 543c 1981 a33d
000000e0: 4972 df3c a442 10bd dd98 6abc f32d b0bc
000000f0: d9a7 2ebd 53cf 0ebd 527b 1d3d 519e 6a3d
00000100: 248b 8e3c 7d9d d0bc 3fe5 433d 3f0c 523d
00000110: 88f6 0a3d a07e 8a3d 7222 6c3d bedf a13c
00000120: 1b22 b2bd 367a 7d3d ff20 903d 8c9b 283b
00000130: 4775 f5bc 5195 3ebd 6631 52bd d9e8 17bd
00000140: 6898 563d a6e8 9abd a3b4 b23d 0b4e 8c3c
00000150: bf53 0fbd 809e 40bd e686 9e3c e3af a5bd
00000160: 2234 4b3d 9adc 24bd 7103 cb3d 5273 4cbd
00000170: de8c 97bd d9c5 c4bc b95f e53b c422 a8bd
00000180: 856e 69bc d326 7bbd d52f 7abc 4eba 4abd
00000190: b729 8d3d 6d74 99bd 3098 08bd ab33 733c
000001a0: 1f23 c6bd 7e5c 353d e836 87bd 7b88 a7bd
000001b0: ab35 f7bb da04 ac3d 6401 dbbc 2b0b 783d
000001c0: 4dbe 363c 3ab6 a03b 6dfa 903d 2df6 b1bd
000001d0: 1b38 aa3d c535 77bc 54fd 9bbd 56ed 8abd
000001e0: 05a2 893d fcc3 063d efa9 1a3d 86e6 d13a
000001f0: c412 5dbd 5f06 1b3d 3595 af3d e7ab 4dbb
00000200: 15d4 8a3d efd0 38bd c75f 8b3d 784d 92bc
00000210: 0507 d03c fa11 8abd f819 bbbc 302e 47bd
00000220: 0931 7aba 13ae 63bd bc5b 74bd 56fc 43bd
00000230: 5a3e 17bd 75c5 07bd 5654 c13d ef84 97bd
00000240: 2394 54bd 3aee acbd e223 f1bc 1579 453d
00000250: 3352 ac3d 3a1c 18bd ed5b ad3d 7a8b 98bd
00000260: ca24 873d 7415 babd f794 76bd 49bd 573d
00000270: 4426 afbd 0c52 063d 32c5 80bc ad53 58bd
00000280: 3769 c03c 8578 813d e9d8 01bd 48d8 d23d
00000290: c8b1 a63c 8438 9abc 9914 9d3d a739 94bc
000002a0: 39a4 8fbd 9c6e 5c38 dc55 4c3c dbfe 753c
000002b0: 6c96 53bc a4b3 60bd 3389 443d 78e3 6fbd
000002c0: 7199 843d 9562 96bd a40c c73d 5bf9 b5bd
000002d0: c469 873d 6a4b e83c
-0.019109145 0.054622315 0.0137708085 -0.03924583 0.055538286 0.0708282 0.0030192751 0.06914573
0.069478065 -0.03811189 0.028581237 0.07810283 0.08893856 0.03376947 -0.059928786 -0.013502507
0.07571253 -0.07921001 -0.05063008 -0.010833503 -0.02679844 -0.054671407 0.044970855 -0.018710732
0.011452245 0.0033894163 -0.048036598 -0.07463085 -0.020062184 -0.021248437 0.08451241 -0.07986437
0.03587252 0.018895993 -0.054280017 -0.031611644 0.04685384 0.017081194 0.023460194 -0.066362664
-0.021488236 -0.055566896 -0.040545065 0.01447066 0.091708735 0.021264842 0.005872974 0.029876564
0.08507072 -0.013812902 0.091730624 0.07071317 -0.06861807 0.05835982 0.012982916 0.07983608
0.027276175 -0.035219803 -0.014318672 -0.021506285 -0.04264054 -0.03486569 0.038447686 0.05727989
0.017400332 -0.025465721 0.047826048 0.05128121 0.033926517 0.06762433 0.057650037 0.019760009
-0.08697911 0.061884128 0.070375435 0.0025727479 -0.029963149 -0.046529118 -0.05131664 -0.037087295
0.05239144 -0.075639054 0.0872586 0.017127058 -0.034991976 -0.047026157 0.019351434 -0.08090188
0.049610265 -0.040249445 0.09912766 -0.049914666 -0.07399915 -0.024020122 0.0069999364 -0.08209756
-0.014247541 -0.061316323 -0.015270193 -0.04949408 0.06892722 -0.074929096 -0.033348262 0.014843862
-0.096746676 0.04427766 -0.066022694 -0.081803285 -0.0075442395 0.08399363 -0.026734062 0.060557526
0.01115377 0.0049045356 0.07079015 -0.086895324 0.083114825 -0.015088503 -0.07616678 -0.067835495
0.06720356 0.03290175 0.037759718 0.0016014136 -0.053972974 0.037847873 0.08573381 -0.003138298
0.06778733 -0.04512113 0.068053775 -0.017859206 0.025393972 -0.0674171 -0.022839531 -0.048628032
-0.000954405 -0.055585932 -0.059657797 -0.04784807 -0.036924697 -0.033147294 0.09439914 -0.07398402
-0.051899087 -0.084438756 -0.029436056 0.048211176 0.08414116 -0.037136294 0.08464799 -0.07448478
0.06598814 -0.09086123 -0.060200658 0.05267075 -0.085522205 0.03279309 -0.01571903 -0.052814174
0.02348767 0.063218154 -0.031701002 0.102951586 0.020348445 -0.018825777 0.07669944 -0.018093897
-0.07013745 5.25551e-05 0.012471642 0.015014376 -0.012914281 -0.05485882 0.047982406 -0.05856654
0.06474579 -0.07343022 0.09719208 -0.088854514 0.0661197 0.028356273

decoder.2.weight f4 [282, 182]
00000000: 4777 70bd 9e5c 28bc e490 4cbd ccef 43bc
00000010: 6ed6 7f3c 8ff4 4b3d 12ee 723b 01e8 10bc
00000020: 2cf5 26bd 8774 783d 0c3e 523d 7014 0c3c
00000030: 80d9 003d 5ee8 6bbd 38f0 383d 14d9 3abd
00000040: a472 393d 0d2f c2bb 6ce6 e83c 22cc 783d
00000050: ce3c 81bd 3ca1 8abd 0032 23bd 3060 6cbc
00000060: 3d09 1bbc 0f29 43bc c8f8 9fbd 90c9 4c3c
00000070: 21cd 253d 1bad fc3c afee 65bd 274f 473d
00000080: 422c 9a3d 258d 94bd 25e5 8cbd eb2b d93c
00000090: 027f 7abd 30ab 933c 4a6e 8f3d 87ab 75bc
000000a0: 7b7f 55bb d06c 803d ee1d 64bc 3be2 033d
000000b0: 6443 5abd ae5f 5d3d 084e a5bc 6340 3fbc
000000c0: ba82 35bd caf6 dbbb bd22 57bd f926 3dbd
000000d0: b006 8ebd cd98 3e3d ebde 2abd 394d 4abd
000000e0: 97cb 623d 76ba 4cbd 9881 4fbd 5893 d33c
000000f0: 6d07 a43d 5126 19bd 51c3 00bd 8ccb ee3a
00000100: df88 913d 4bc2 4a3d c623 7ebd d64c 893d
00000110: eb08 47bb 8bb5 78bd e79f adbc e769 34bd
00000120: 5047 1ebd ab0c f7bb b095 1a3d a92d af3d
00000130: bdfb 0e3d 69bb 78bd ca99 c33c 2ff0 a83c
00000140: ba36 90bd aa2a 2dbc 93f6 54bb abb2 69bd
00000150: 64c6 98bd 3720 69bd 4851 903a 84da 60bc
00000160: 28bc 073d 67ac 9abb 196c 043b cc4e 6fbd
00000170: 2e28 79bd 68f8 73bd 9738 e93c eaf7 183d
00000180: 024d a03c 43c4 4bbd e482 08bd 7857 3e3d
00000190: 4af1 05bd 64b4 0a3d 44bf 9f3c 10b0 10bd
000001a0: 081f 973d d98d 30bc 7ef9 8dbc 0034 96bd
000001b0: ad52 553d cda1 83bd 3512 93bd bf52 653c
000001c0: 740a 6fbc 2e87 7dbd f63c ae3c 69af 543d
000001d0: 8b0d 043d 0a12 d2bd fb4c 36bd 3886 83bc
000001e0: d18e 113d 45be 1ebd 931a 4abd 58bc 423d
000001f0: e2c8 92bd 6e7a bebc b6f2 4e3c e884 633d
00000200: 1791 47bd 221b 653d e230 93bd 2f4e 4a3d
00000210: 912e ccbc 1025 813c 7838 6bbd 8f72 b03c
00000220: 109b 8f3d cddf 83bd 242e bc3b 7d72 9539
00000230: ad0b e13c d1d4 543d 1b80 2a3d 4988 ec3c
00000240: 2406 473d cc88 a43c a1c2 eabb 16f6 333d
00000250: 2895 533d 5716 793d 1cf4 58bd a49d 443d
00000260: b4ea 433d 8d1e 41bd b6a0 733c 0456 abbb
00000270: b146 793d ecf3 703d 788a 92bc b904 56bd
00000280: 227c 333d 896c 623c 65f8 c0bb af40 b53b
00000290: d31a 4d3d 4692 d9bc 464f 7abc 52f3 a2bd
000002a0: 3109 113d 79b7 a2bc 852b 9e3d db4b 33bd
000002b0: 3ce4 1f3d 3231 2ebd 258f 0bbd 5660 153d
000002c0: 4b7f 423d 8827 023d f777 1abc f24f 4f3c
000002d0: 66bf 85bd a90b d0bc a296 6a3d 8116 983d
000002e0: 3d86 8dbd bc62 9f3b 8d38 e13c f1ca 83bd
000002f0: 7608 07bd cba9 dd3c dab1 a13d f0bb 33bd
00000300: 87f0 6dbc a267 d3bc bbe1 37bb 99fa 08bd
00000310: bf24 f93c 10bd 27bd 56ea 20bd 220e eebc
00000320: 8336 cb3c 8a0f f0bc fad6 4ebd 7cd2 333d
00000330: 2aa6 febc efec 2c3d f757 2f3d 94a3 8cbc
00000340: a3eb 2ebc 41a3 183d 1ceb 8dbd 575f 773b
00000350: cc3c 873b e1e4 f2bc 6dcc 91bc a14d 013d
00000360: d635 28bd 6f4d a73d d01a 1abd 5451 24bd
00000370: d781 af3d 4b14 e23c 29d2 0abd f1cd 913d
00000380: 82eb db3b bae8 50bd 3c5a e2bc 7a73 febc
00000390: 2575 f93c 4442 153d b6fb 153c 7d66 153d
000003a0: 3745 5dbc 2946 e43c a83a 233d d939 b2bc
000003b0: 3574 e73c 8635 2cbd 7b94 b23d 66eb 0abc
000003c0: 107b a63d dc29 733d 9aa2 393d 25de 493c
000003d0: 9285 92bc 4825 263c 32b2 66bd 1a6b 463d
000003e0: d822 213d 9ecb 2c3d 5213 b5ba 51dc 81bd
000003f0: be78 a03d 998a 22bd 6cbf 01bd 8139 4c3c
-0.0587075 -0.010275988 -0.049942866 -0.0119590275 0.015615089 0.049793776 0.003706817 -0.008844377
-0.040761158 0.060658004 0.051328704 0.008549795 0.031457424 -0.05759465 0.045150965 -0.045617178
0.045275345 -0.005926019 0.028430186 0.06074155 -0.06310426 -0.06769034 -0.039842606 -0.01442723
-0.009462652 -0.011911645 -0.07811123 0.012499228 0.04047883 0.030844262 -0.05613583 0.04865947
0.07527973 -0.07253484 -0.06879643 0.0265102 -0.06115628 0.018025964 0.07003458 -0.014994509
-0.0032577205 0.06270754 -0.013923151 0.032198172 -0.053286925 0.054046325 -0.02017881 -0.011673066
-0.044314124 -0.006712769 -0.052523363 -0.046179745 -0.06934869 0.04653244 -0.041716497 -0.04939005
0.05536994 -0.04998251 -0.0506607 0.025827095 0.08009229 -0.037390057 -0.03143627 0.0018218621
0.07106184 0.0495017 -0.062045835 0.067041084 -0.0030370306 -0.060720008 -0.021194411 -0.04404631
-0.038642228 -0.007539352 0.03774041 0.08553631 0.034908045 -0.060725603 0.023877043 0.020622341
-0.07041688 -0.010569254 -0.0032495602 -0.057055157 -0.07459715 -0.056915488 0.0011010552 -0.013723973
0.033138424 -0.004720259 0.0020206033 -0.058424756 -0.060829334 -0.05956307 0.028469367 0.037345804
0.01956797 -0.049747717 -0.033327952 0.046470135 -0.032700814 0.03386344 0.019500382 -0.035324156
0.073789656 -0.010776007 -0.017330881 -0.07334137 0.0520808 -0.064273454 -0.07181207 0.013996779
-0.014589895 -0.061896496 0.021269303 0.051925097 0.032239478 -0.10257347 -0.044507008 -0.016055211
0.03553659 -0.038755674 -0.04934175 0.0475429 -0.071672216 -0.023251738 0.012631109 0.05554667
-0.048722353 0.05593408 -0.07187058 0.049390968 -0.024924548 0.015764743 -0.0574269 0.021539
0.07011998 -0.06439171 0.005742805 0.00028504795 0.027471388 0.05196077 0.041626077 0.02887358
0.04858984 0.020084761 -0.007164315 0.043935858 0.05165592 0.06081232 -0.052967176 0.0480019
0.047831252 -0.047148276 0.014869859 -0.0052287597 0.060858432 0.058826372 -0.017888293 -0.052250598
0.043819554 0.013819822 -0.005888986 0.0055313925 0.05007441 -0.026559006 -0.015277689 -0.07956566
0.035409156 -0.019862877 0.077231444 -0.043773513 0.03903602 -0.042527385 -0.03407206 0.036468826
0.047484677 0.03177598 -0.009428016 0.012653338 -0.06530647 -0.025396185 0.05727256 0.07426167
-0.069103695 0.004864065 0.027492786 -0.064351924 -0.032967053 0.027058503 0.078952506 -0.043880403
-0.014522678 -0.025806252 -0.002805813 -0.033442114 0.03041303 -0.04095179 -0.03928598 -0.029059473
0.024806267 -0.029304285 -0.050497986 0.043901905 -0.031085093 0.042218145 0.0428085 -0.017167844
-0.010676297 0.037265066 -0.06929609 0.0037746036 0.0041271206 -0.029650154 -0.017797673 0.031568173
-0.041066967 0.08169066 -0.037623227 -0.040116623 0.08569687 0.027597567 -0.03389183 0.07119358
0.0067114243 -0.051003195 -0.027630918 -0.031060923 0.030451367 0.03644015 0.009154251 0.036474694
-0.013505272 0.027865486 0.03985086 -0.0217561 0.028253654 -0.04204323 0.08719727 -0.008478975
0.08128941 0.059366092 0.045321085 0.01232103 -0.017885957 0.0101407245 -0.056322284 0.048441984
0.03933987 0.042186372 -0.0013814962 -0.0634085 0.0783553 -0.03968296 -0.031676695 0.012464882

decoder.2.bias f4 [282]
00000000: d1cc 3abd 7dd4 e93c 4f5e 1cbd 283a ca3c
00000010: afa8 ac3c 1dbe 823d 27a3 493d 08c1 b73b
00000020: 5086 76bd ab17 e7bc e0dd 4d3b 4621 25bd
00000030: ad4f b13c d57c 3ebd da18 8e3c 09c8 fcbc
00000040: 62b9 723c b071 643d 41fe 5a3d a749 ec3b
00000050: 2579 a33c 6b5b 143d 7e85 f5bb 767c 0abd
00000060: 4a36 223c 45b1 1abc 8e6c df3c 834f 483d
00000070: e2ad 1fbc d1da 653d 9e69 8cbd d39f b03b
00000080: e8b6 0ebd e0f7 f2bc eaf7 b03c 9f2e 353d
00000090: ae2c e13c 42e5 49bc 7ee7 773d 53cd 0b3d
000000a0: 3a10 3f3d a99d e13c 99b6 9fbc 1849 35bc
000000b0: 150b 053d 279f 713d f67c 653d d855 293d
000000c0: faeb 823d 33fa 223d 607f 2dbc f8a4 01bd
000000d0: ba1a 36bd eb7b 113d 9570 00bd 1eff 00bb
000000e0: 03e6 523b f327 acbc 338c 69bb f4e5 04bd
000000f0: 7bc7 9a3c ba2c 133d 14a1 5f3d ebd7 0e3d
00000100: 1f40 353d 5dc7 41bc adb9 253d 921f 713d
00000110: 7647 eebc a996 bdbc f8bd 5ebd 8342 0fbd
00000120: 8e4c e4bc ba63 6b3d 3347 99b9 f351 05bd
00000130: 2b92 0e3d d05a a4ba 3aeb 1e3d 0193 553d
00000140: f3ef 31bd ef03 01b9 b628 75bd 5d32 943c
00000150: e9be 63bd 5617 73bd 5629 b73c 6b76 9f3d
00000160: 5683 a0bc 8874 85bd b803 a3bc 3314 35bc
00000170: 9bee 2cbd 9f10 713d 2b83 2a3d 8a93 da3c
00000180: 82b9 dd3b 4bc0 52bd c5f6 0bbd 968e 08bd
00000190: c750 133d c346 493d bd27 7a3d 720b b33c
000001a0: 7b09 c53c c2f3 7f3d ce32 eabb 5f3a 83bd
000001b0: 8007 debc caa2 c63c 1afd 7dbd 9090 0e3c
000001c0: 70f7 a83d 21b6 c13c b882 7f3d 6c56 eb3b
000001d0: 91fa ec3b abf3 1e3d 5cb6 493c 8f19 91bb
000001e0: 5778 03bd 40c1 653c cbf4 95bc 2f95 723d
000001f0: c08f 3cbd c3e4 673d b450 05bd 017c 9dbc
00000200: 503f 0abd a9dc 313d b756 ccbc d5e2 87bb
00000210: 2db8 263d 9a9a 41bd 98cc c4bc 07c8 6a3b
00000220: 2d77 09bd 595d 6c3c c6e3 53bd 6d3c 973c
00000230: 9135 a03c 6561 193d 3025 553d a665 023d
00000240: 5a7e aa3c 3abd 173d 6546 e0bb ab88 65bd
00000250: e739 37bc 14b7 183c baeb 583d 6b9e 35bd
00000260: e812 3d3d 0dc2 45bc ac3e 31bd ea36 ec3c
00000270: e7a9 f8bc f400 46bd 08ec 1fbd 6e7a f1bc
00000280: 7592 5cbc 9e0d a1bc 2123 283d e06e 83bd
00000290: 7041 f8bb 33c3 833c 97c3 463d c0a6 3d3d
000002a0: c946 37bd fdd8 2fbd ba2b 523d 19d7 813d
000002b0: da47 0b3c d0fb 8abd 9de1 4fbc c68c 8d3c
000002c0: e4b2 63bd 5820 273d 98bb aebb c198 d93c
000002d0: d981 ce3c 6e7c d5bc 21d8 913c b855 853c
000002e0: 4107 abbc 7b26 8b3d 782e 723b fb0a 1abd
000002f0: aeda e63c ff73 9b3b dc75 813d 9a26 813d
00000300: 1be8 a93c c560 36bd 1ec1 10bd e9c1 23bd
00000310: 5dbf 13bc dcee 34bd 9f96 4abd fc78 203c
00000320: 7d63 703d d3c4 e23c 0512 bf39 56ea 733d
00000330: 6649 4bbd 53cc 23bd 97b3 943c 629a 23bd
00000340: 5dfb 963c 5db9 6dbc c303 4dbd 361e 563c
00000350: b3e2 6e3d 1974 243d ba6b 633d a5ab 3ebc
00000360: 9290 933c b243 8d3c 300c 263d 2626 d4bb
00000370: 0f26 94bc a95e 713d 5c4c 06bd b8b7 57bd
00000380: b94d 9b3c 164d 0dbd 613b 353d 90c2 44bd
00000390: e211 2f3d ea6b 1dbd a767 4e3a b796 963d
000003a0: 686d 0a3d ff00 113d b8a8 1fbd 0c32 c4ba
000003b0: 565a 323d 130a 103d ff77 b8bc 7235 073d
000003c0: 2e1f ce3c c774 23bc 76cd 29bd 1341 373b
000003d0: d30d eebc 7b36 92bc f6f7 8f3d 6af2 27bd
000003e0: 1e40 353d 679e 40ba 15a4 bcbc 7021 9bbc
000003f0: d4c5 093d b314 853c bf99 443b 9889 833c
-0.045605484 0.028543705 -0.038175877 0.024685934 0.021076528 0.063839175 0.04922786 0.005607728
-0.060186684 -0.028209528 0.0031412765 -0.040314935 0.021644438 -0.046505768 0.017345835 -0.030857103
0.0148147065 0.055772483 0.05346513 0.0072109285 0.019955227 0.036219995 -0.00749272 -0.0338101
0.009900639 -0.009441678 0.027273443 0.048903953 -0.009746047 0.056116883 -0.068560824 0.0053901463
-0.0348424 -0.029659212 0.02160259 0.044233914 0.027487125 -0.012322726 0.060523503 0.03413136
0.046646334 0.027540999 -0.019496249 -0.01106479 0.03248127 0.05898967 0.056027375 0.041341633
0.06392665 0.03978939 -0.010589451 -0.031651467 -0.044459082 0.035518568 -0.031357367 -0.0019683312
0.0032180555 -0.021015143 -0.0035636544 -0.032445863 0.018893948 0.035931326 0.054596975 0.034873884
0.044250604 -0.011827317 0.040460277 0.058868 -0.02908681 -0.02314313 -0.054380387 -0.03497554
-0.027868535 0.057468154 -0.00029235482 -0.032548856 0.034807365 -0.0012539271 0.03879855 0.052142147
-0.043441724 -0.00012303864 -0.059853278 0.018090421 -0.055601988 -0.059348427 0.022358578 0.07786258
-0.019593876 -0.06516367 -0.019899234 -0.011052179 -0.04221974 0.05885374 0.041628998 0.02668168
0.006766499 -0.051452916 -0.034170885 -0.033339106 0.035965707 0.04913975 0.061073054 0.021856043
0.024052372 0.062488325 -0.0071471697 -0.06407618 -0.027103186 0.024247546 -0.062008955 0.008701459
0.0825032 0.023646416 0.062380522 0.007181933 0.0072320183 0.0388066 0.012311544 -0.0044280956
-0.032097187 0.014023125 -0.018305203 0.059224304 -0.04603553 0.05661465 -0.032547668 -0.019224169
-0.033751786 0.04342333 -0.024943693 -0.0041469135 0.040702987 -0.04726658 -0.02402334 0.0035824792
-0.03356092 0.014426553 -0.051730894 0.01846143 0.019556792 0.0374464 0.052037418 0.03183522
0.020812202 0.037045695 -0.006844329 -0.05603854 -0.011183239 0.009320993 0.05295918 -0.044340532
0.04616061 -0.012070191 -0.04327266 0.028834779 -0.030354453 -0.048340753 -0.039043456 -0.029477324
-0.013462652 -0.019659813 0.041049127 -0.06417632 -0.00757616 0.01608429 0.048526373 0.046301603
-0.04474524 -0.042931546 0.051311232 0.06339855 0.0085010175 -0.06786311 -0.012688068 0.01727904
-0.055590525 0.04080233 -0.0053324215 0.026562097 0.0252084 -0.02606031 0.017803254 0.016276225
-0.020877482 0.06794449 0.0036953967 -0.037608128 0.028180446 0.0047440524 0.06321308 0.06306191
0.02074056 -0.04452588 -0.03534042 -0.03997985 -0.0090177925 -0.044173107 -0.04946005 0.00979447
0.05868863 0.027681744 0.00036443784 0.059549652 -0.049630545 -0.03998978 0.018152041 -0.039942153
0.018430406 -0.014509526 -0.050052416 0.013068726 0.058321666 0.04014978 0.055522658 -0.011637603
0.018013272 0.017244194 0.040538967 -0.006474274 -0.018084554 0.058928166 -0.032787666 -0.052665442
0.01895796 -0.034497343 0.04424608 -0.04803711 0.042741664 -0.038432993 0.0007873722 0.07352965
0.033795744 0.03540134 -0.038979262 -0.0014968528 0.043543182 0.035165858 -0.022518156 0.033009954
0.025161352 -0.009976572 -0.04145571 0.0027962371 -0.029059326 -0.017848244 0.07029717 -0.04100267
0.0442506 -0.00073478225 -0.02302746 -0.018936843 0.03363593 0.016245222 0.0029998866 0.01605682
