checkpoint.pt (torch, 128548 bytes, 8 tensors)

encoder.0.weight f4 [53, 282]
000000 59 a4 1f 3d 13 10 67 bd a6 7b 5f 3d 79 d2 54 3d
       0.038975094 -0.056411814 0.05456128 0.051958535
000010 fe 79 9b bb 48 59 17 bd d6 f6 1f 3d c9 63 61 3c
       -0.004744767 -0.03695038 0.03905376 0.013756701
000020 27 d4 b6 bc 08 db 84 bb da 5f aa 3c 32 4c 3f bd
       -0.022317959 -0.004054431 0.020797659 -0.046703525
000030 34 e3 4a ba 67 04 54 3d 7c 50 e6 bc ba d4 0a bd
       -0.00077395444 0.05176201 -0.02811455 -0.033894278
000040 db 4a 6c 3d a3 40 10 bd 74 33 ed 3b a5 4f f0 3b
       0.057688575 -0.035217892 0.0072387997 0.007333713
000050 91 fb 43 3d c4 2d 2a 3d 44 db 84 3c 9f 48 40 bc
       0.047847334 0.04154755 0.016217835 -0.011736064
000060 f4 4c 14 3d fb 6f 65 bc 6c 55 8f bc de fa 6a 3c
       0.0362062 -0.014003749 -0.017496787 0.014342038
000070 5e 90 f5 bb 4e 60 49 3d 6a 0e b4 bc 12 1a aa 3c
       -0.0074940166 0.04916411 -0.02197953 0.020764384
000080 27 42 99 3c 12 34 b5 bc 1a 54 1c 3d ee 6f 65 3d
       0.018708302 -0.022119556 0.038166143 0.056014948
000090 e8 21 4a 3d 49 5f 80 bc f5 56 59 bd 5b f2 64 3d
       0.04934874 -0.015670436 -0.053061444 0.05589519
0000a0 07 d3 1c bd 9c 6b 48 bd 93 03 d1 bc 65 63 3c 3d
       -0.03828719 -0.04893075 -0.0255144 0.045993228
0000b0 b8 1b ee bc 92 04 96 3c 8f fb f9 3c 43 5b 75 ba
       -0.029065952 0.018312726 0.03051546 -0.00093596074
0000c0 d3 0e 09 bd d1 eb 1c 3c 46 26 53 bc 9c 77 62 bc
       -0.033461403 0.009577707 -0.012887543 -0.013822462
0000d0 f0 f8 54 bd 7d 3c 3b 3c 35 d1 5b 3d 20 13 03 bd
       -0.051995218 0.011427996 0.053666312 -0.03200066
0000e0 58 f0 e3 bc 27 7f ab 3c 6e c6 63 3c 7d e2 80 bc
       -0.027824566 0.020934654 0.01390229 -0.015732998
0000f0 92 02 a8 3b 7a 03 24 bc b8 ce 95 bc 6e d7 bc 3c
       0.0051272595 -0.0100105945 -0.018287048 0.023051944
000100 2b db 79 3d 4f 05 74 bc 83 62 4c 3d cd de 1a bb
       0.06100003 -0.014893844 0.049898636 -0.0023631335
000110 04 43 67 bd 2a 34 d8 3a 4f ec 6f 3d b6 b0 58 3d
       -0.056460395 0.0016495038 0.05857497 0.0529029
000120 ba 56 6c 3d 81 69 45 bd cc cd 18 bd 58 3d ba 3c
       0.057699896 -0.04819632 -0.03730564 0.02273433
000130 df 49 6b bb 4b 44 24 3c 42 a1 0e bd 86 b0 55 bd
       -0.0035902185 0.010026048 -0.034821756 -0.0521703
000140 ec 71 8b bc e8 85 27 3d aa 14 e2 3c 32 8e f3 bc
       -0.017022096 0.040899187 0.027597744 -0.02973089
000150 3b f6 29 3d cc 99 54 3c a0 14 d4 3c 29 8a 49 bd
       0.04149459 0.012976121 0.025888741 -0.049204025
000160 7f 99 50 bb 79 c8 27 3d 53 13 31 3d 89 c7 24 3d
       -0.0031829772 0.04096267 0.04323132 0.040229354
000170 e9 ec 21 3d a3 70 1a bd f8 ee 13 3d 64 65 1a bc
       0.039532576 -0.037705075 0.03611657 -0.0094235875
000180 2a 4a 21 3d 16 23 4c bd cf a7 5f 3d 4a 45 35 bc
       0.03937737 -0.049838148 0.054603394 -0.011063883
000190 16 ac 15 3d fe 7b 9c bc df 0a 27 3d ee 50 82 3c
       0.036541067 -0.019102093 0.04078185 0.01590773
0001a0 39 f2 cc 3c 7c e9 11 bd 79 ff 12 bc 79 f4 22 ba
       0.025017845 -0.03562306 -0.008972042 -0.0006216239
0001b0 c0 91 0a 3d 52 84 09 3d 83 0a c5 3c 5b 41 f1 bc
       0.033830404 0.033573456 0.024052864 -0.02945011
0001c0 bc 09 22 3c 2d 70 24 bd 92 d9 19 bd 1a 32 d6 bc
       0.009890016 -0.04014604 -0.037561007 -0.026146937
0001d0 e4 61 6d bb 78 e8 09 3d 00 59 10 bc 81 fe 68 bb
       -0.0036221677 0.033668965 -0.008810282 -0.0035552087
0001e0 bb 0b 79 bc 67 2b d8 3c 6a 8a 62 3b 84 1c 69 bd
       -0.015200551 0.026387883 0.0034567364 -0.05691196
0001f0 d8 13 17 3d 5b bf a0 3b ed 9e de bb a2 73 d3 3a
       0.03688416 0.004905624 -0.006793848 0.0016132484
000200 d1 ca 76 3c d8 44 5a 3d c7 86 1a 3d 2c d2 26 bd
       0.015063004 0.05328831 0.03772619 -0.04072778
000210 69 32 61 3d 32 a5 81 bc c3 bb 84 bc 0e fb 22 3d
       0.054979715 -0.015825842 -0.016202813 0.039790206
000220 a5 35 36 bd 89 64 5c 3d ba 59 d1 bc f7 41 55 3d
       -0.044484753 0.053806815 -0.02555548 0.052064862
000230 9c 33 2c 3d 71 0f 30 bd 28 de 47 3b 5f db 0d bd
       0.042041406 -0.042983476 0.0030497406 -0.034633037
000240 c4 65 50 3d d3 74 14 3d 0a c1 0c 3c 42 6f 51 bb
       0.0508783 0.036244225 0.008590946 -0.0031957184
000250 4b 0f ac 3c 0a 9b 2f bd ab a4 20 3d 44 34 da b9
       0.021003386 -0.042872466 0.03921954 -0.0004161914
000260 24 97 e8 3c f1 00 2e bd 9b 80 fb 3c 8b 7a f7 3b
       0.028392382 -0.042481367 0.030700972 0.00755245
000270 b8 51 2d bd b9 ac c2 ba 5b 35 c3 bc b7 03 ac 3c
       -0.04231426 -0.0014852501 -0.023829153 0.020997865
000280 07 94 4b 3d 18 4a 40 bd 1a 7e 16 3a 40 1d ed 3c
       0.049701717 -0.04694566 0.00057408365 0.028944612
000290 eb 16 e8 bc bd f7 0b 3d 03 47 c8 ba 2a 3c eb b9
       -0.02833124 0.03417181 -0.0015279952 -0.0004486752
0002a0 3e 70 f4 3c 0a 49 2a 3d 28 61 2f bd af d0 d7 bc
       0.029838677 0.04157356 -0.042817265 -0.026344625
0002b0 b7 7c 92 3c 58 09 16 3c cd 3b 0e bd af c0 0c 3c
       0.017881734 0.009157501 -0.034725 0.008590861
0002c0 cd 96 68 bd 81 27 62 3c 54 6f 95 bc e5 a6 a1 bc
       -0.05678444 0.013803364 -0.018241562 -0.019732902
0002d0 f4 a6 16 bd 06 21 0f 3d fa fc 54 3d 9f cc 5f 3d
       -0.036780313 0.034943603 0.05199907 0.0546385
0002e0 6e bd 1f bd 94 89 de 3c 9f 9e 41 3d 25 1b fe 3c
       -0.038999014 0.027165212 0.047270413 0.031018803
0002f0 c9 5a 38 3d 48 5c 6a 3b 3e e6 9e 3c b7 e6 b7 3b
       0.045008454 0.003576057 0.019396897 0.00561222
000300 f1 66 1d bd 0f 98 ba 3c 38 d8 13 bb ef 79 9b bc
       -0.03842825 0.022777585 -0.0022559296 -0.01897904
000310 53 81 ea 3a 80 c2 88 bc e9 b0 c0 bc 85 46 8b 3c
       0.0017891325 -0.016694307 -0.023521857 0.0170014
000320 b0 a2 21 bd ce 7a 17 bb 61 bf 14 bd 60 75 a1 3c
       -0.03946179 -0.0023113969 -0.036315326 0.01970929
000330 77 ca a0 bc 27 99 68 3d 7c 99 1c 3d c2 a2 29 3b
       -0.019627793 0.056786682 0.03823231 0.0025884365
000340 c5 84 3a bd ed f7 e6 bc 54 db 44 3c 70 d3 62 39
       -0.045536775 -0.028194392 0.0120151825 0.00021631806
000350 10 f4 69 3d 90 52 19 bd 71 36 ba bc 06 d7 51 bc
       0.05711752 -0.037432253 -0.022731038 -0.012807613
000360 2e 19 5f 3d 55 53 20 bd 2d 58 4f 3b cc c4 9f 3b
       0.054467373 -0.03914197 0.003163825 0.004875755
000370 2b ec fa 3c e7 56 d4 bb 6f 5c 4d bd 4b 5a 5f bd
       0.030630192 -0.006480086 -0.05013698 -0.05452947
000380 0d dd 94 3c 98 f7 02 bd fe 29 c8 bb 91 ca 3d bb
       0.018171811 -0.031974405 -0.0061085215 -0.002895985
000390 ff ec 06 3d d8 45 c2 b9 c9 ec c8 3c 55 69 02 3c
       0.03294086 -0.000370546 0.02452697 0.007959683
0003a0 f0 9d 99 3c 19 d7 9d 3c 40 7e 88 3b 82 68 34 bd
       0.018752068 0.019267606 0.004165441 -0.04404498
0003b0 05 62 3b 3d 5e a0 d6 3c ad e2 02 3c b3 16 5f bc
       0.045747776 0.026199516 0.007988614 -0.013616252
0003c0 6a 99 2b bd 95 90 3b bd 9a bf 44 3d e1 e0 a2 3c
       -0.041894354 -0.04579218 0.048034288 0.019882621
0003d0 e3 6f 30 bc 73 9f 7e bb f9 9b 2a 3b 21 4d c3 3c
       -0.010768863 -0.0038852363 0.0026032908 0.023840489
0003e0 24 1c 17 3d 41 e3 e3 bc c4 6d 13 3d 11 1b 47 3d
       0.03689207 -0.027818324 0.035993353 0.048609797
0003f0 c9 ce 0a bc e2 bd 3c bc 99 16 03 bd cd e2 96 3b
       -0.008472153 -0.011519881 -0.032003973 0.0046046735

encoder.0.bias f4 [53]
000000 b4 5b a4 3b 32 33 66 3b 55 06 90 bc 31 30 87 bc
       0.0050158147 0.003512573 -0.017581144 -0.016502472
000010 b9 4a b4 3c 2c 72 98 bc 7f e7 3e bd 78 85 d9 bc
       0.022008287 -0.018609129 -0.04660749 -0.0265529
000020 81 1a 58 bd aa a0 80 bc 00 46 69 3c a2 68 79 3c
       -0.05275965 -0.01570161 0.014237881 0.0152227
000030 f9 f7 25 bd d3 a9 39 3d 4e 95 70 bd 0b 5a 4d 3d
       -0.04051969 0.045327973 -0.058736138 0.0501347
000040 83 fd 35 3d ab 40 22 3d ba 5a 8a 3c eb 42 f6 3c
       0.04443122 0.039612453 0.016888965 0.030061206
000050 3d 49 0c bd 30 b3 24 3d 53 88 57 bd d4 2f ed 3c
       -0.034249533 0.04020995 -0.052620243 0.02895347
000060 cb d1 01 3d 40 f4 3f bc 7b 30 4e 3d 0a b4 29 bd
       0.031694215 -0.011715949 0.050339203 -0.041431464
000070 55 cb d1 bc 48 9d b6 3c 01 16 a4 3b 43 66 94 bc
       -0.025609652 0.022291794 0.005007506 -0.018115168
000080 56 2b ec bc 35 84 b6 bc b6 9a 3b bd 81 b9 09 3d
       -0.028829258 -0.022279838 -0.04580184 0.033624176
000090 29 18 45 bc de 47 49 3d 2d cf 9c 3c 60 e5 6a bd
       -0.012029686 0.049140804 0.019141758 -0.057347655
0000a0 d1 62 49 3c de e4 06 bd b7 56 d1 bc e5 ec 28 bc
       0.012291626 -0.03293311 -0.025554044 -0.010310386
0000b0 a3 97 83 bd 89 51 01 3d 3c fc 60 3c e6 8f 34 3c
       -0.06425407 0.0315719 0.013732012 0.011020636
0000c0 21 95 52 3d 8c 5c 33 bd 94 b3 21 3d 44 8c 37 bd
       0.05141175 -0.04378943 0.0394779 -0.044811502
0000d0 a2 7a 81 bd
       -0.063222185

encoder.2.weight f4 [10, 53]
000000 b9 91 73 bd 59 ec 84 bd 02 28 cd 3d 4f f7 01 3d
       -0.059465144 -0.06490392 0.100173965 0.031729992
000010 67 bb 0a 3e 8a 5f c8 3d 89 e8 4c bd 05 94 04 be
       0.13548051 0.09783848 -0.05002645 -0.1294709
000020 a5 45 ee bd ae 2d be 3d f1 6b df 3d c3 56 e6 3a
       -0.116343774 0.092860565 0.1090926 0.0017573464
000030 93 53 b9 bd f0 82 b9 bd 01 dc 5c 3d 89 cc 5a 3d
       -0.09049144 -0.090581775 0.05392075 0.053417716
000040 a8 5f 07 be b2 af a5 3d 8f 25 e7 bd c5 0b 89 bd
       -0.13220084 0.08090152 -0.112864606 -0.06691698
000050 9f a3 ff 3d d6 94 d8 ba 29 95 05 3e e9 24 ac bd
       0.1248238 -0.0016523849 0.13045181 -0.084054776
000060 43 b4 bb 3d 2b b3 98 3d 0a cc b0 3d ba ef b6 3d
       0.091652416 0.074560486 0.08632667 0.08932443
000070 b7 80 93 3d 66 6a bd bd 03 16 06 3d b2 77 c1 3d
       0.07202285 -0.092488095 0.032735836 0.09446658
000080 9e b4 f6 3c 4f 2c 6e bc c1 0f 0d be dc ca 1d bd
       0.030115422 -0.014536931 -0.13775541 -0.03852354
000090 b5 ac 49 3d 7b 11 5c bd f8 ea 06 be 48 46 08 bd
       0.049236972 -0.05372761 -0.13175571 -0.03327015
0000a0 53 01 00 3e ab 85 3c 3d 3a 5c 94 3c 46 c9 94 bd
       0.12500505 0.046025913 0.018110383 -0.07264952
0000b0 ef 4c e1 bd 20 e4 20 bb 6a 49 76 3c c0 26 93 3d
       -0.11001002 -0.0024550036 0.015032152 0.07185125
0000c0 27 7d 11 3c 8e 99 28 bd 0e 9c fb 3d 7e 4b 85 bd
       0.008879936 -0.041162066 0.122856244 -0.065085396
0000d0 68 09 0e be cc 52 fb bd 7a 65 ca bd 5c 7d c8 bd
       -0.13870776 -0.122716516 -0.09882636 -0.097895354
0000e0 0d 5c 99 3a b7 ed d3 bd f0 f4 2c 3d 71 c3 9b 3d
       0.0011700407 -0.10348075 0.042225778 0.07605637
0000f0 26 99 1e bc 0f 25 be 3b 6c 8a 6b bd f5 41 35 3d
       -0.009680068 0.0058027576 -0.057505056 0.044252355
000100 ef 05 cf bd 01 e0 f3 bd 08 b1 f6 3d 6d e4 a9 bd
       -0.101085536 -0.1190796 0.12045485 -0.08295522
000110 a0 69 da bd a7 fd d3 3d bc 98 5e 3d f3 2f f6 bd
       -0.106646776 0.10351115 0.054344878 -0.12020864
000120 01 69 70 bd af e0 9f bd c3 33 e8 bb f1 f1 8d bd
       -0.05869389 -0.07806527 -0.0070862486 -0.06930912
000130 0b 0a ea 3d 26 8d 87 39 ff b2 62 bd 23 71 d3 3d
       0.11427697 0.0002585437 -0.055346485 0.103243135
000140 3e 72 d0 bd 16 e7 a4 3d 9b c8 dc 3c 97 01 87 bd
       -0.1017804 0.08051889 0.026951125 -0.065921
000150 f0 8b aa 3d 63 34 c0 bb 99 29 df 3d 12 0e 32 bd
       0.08327472 -0.00586562 0.10896606 -0.04347045
000160 de 7c ad 3d 44 8e b6 3d 5d 3f 31 3c 2b 09 8f bd
       0.08471082 0.08913854 0.01081833 -0.069841705
000170 65 c7 8e 3c 80 6d cb bd 68 a4 d2 3d 19 77 8f 3d
       0.017429063 -0.09932995 0.10285264 0.07005138
000180 25 89 ee 3d 03 34 0f bd ca 7d fc bd 54 51 ba bd
       0.11647252 -0.03496171 -0.1232868 -0.09097543
000190 b7 ee 8b 3c 6d 44 01 3c 2f 2b 06 3e d1 b1 b7 3d
       0.017081602 0.007889849 0.1310241 0.08969463
0001a0 8d 85 be bd b8 f5 5c 3d d6 2c 0e bd da 93 a3 bd
       -0.093028165 0.053945273 -0.034710728 -0.07987185
0001b0 75 22 4f 3d 4e 7d af bc 1e 24 db bc dd 92 f7 bd
       0.05056997 -0.021422055 -0.02675062 -0.12088559
0001c0 d5 09 1e 3c 0b cf 56 3c b2 c3 9e bd 32 54 81 3c
       0.009645899 0.013110886 -0.0775217 0.015787218
0001d0 7e dd ac bd 54 02 7b 3d 73 05 02 3e 5f bc 96 3d
       -0.08440684 0.061281517 0.12697391 0.07360148
0001e0 31 68 d2 bb cf a6 27 bd 63 17 b3 bc e3 27 1b be
       -0.006421112 -0.040930565 -0.021861738 -0.15151934
0001f0 fb 33 5d bd 32 5e c4 3c d2 a0 57 bd 25 e9 71 3d
       -0.05400465 0.023970697 -0.052643605 0.059060235
000200 9b b2 bd bd fd 4e 46 bd 08 0c 7f 3d 41 af e5 3d
       -0.09262582 -0.048415173 0.062267333 0.11215068
000210 47 23 da 3d 65 76 b8 bd 72 46 ea bd 67 79 01 be
       0.1065126 -0.09006957 -0.114392176 -0.12643968
000220 95 19 ef bd 93 7f 71 bd f3 de ab 3d 09 82 fb 3d
       -0.11674801 -0.058959555 0.083921336 0.122806616
000230 1c f3 9f bc 48 04 a5 bd 9b bb f3 3d 9e 5c 42 3a
       -0.019525103 -0.08057457 0.11901017 0.0007414314
000240 44 03 0f 3d 82 34 d8 bd 2e 0e a1 3d 51 a2 28 3c
       0.034915224 -0.1055689 0.07864033 0.0102926055
000250 18 81 f9 3d b7 6b c1 3d da e8 3c 3d ad b2 ab bd
       0.12182826 0.09444373 0.046120502 -0.08383689
000260 e2 81 bf 3c d5 eb fa 3d 92 c8 c2 bd 70 ce b9 3d
       0.023377363 0.12252013 -0.09510912 0.09072578
000270 c6 cf f9 bc 01 d0 b4 ba 11 c6 45 bc 19 1a c5 3d
       -0.030494582 -0.00137949 -0.0120711485 0.09624118
000280 20 70 5f bc 9f 48 7c 3d de fb 4d bc 66 90 ae ba
       -0.0136375725 0.061592694 -0.012572257 -0.001331818
000290 37 f3 fe 3d a5 3e f7 3d db 9b 3e 3c f2 b6 9f 3d
       0.12448733 0.12072495 0.0116338385 0.07798566
0002a0 49 15 38 3c 68 6a f1 3c a6 9b d3 3d 13 ef 71 bd
       0.0112355435 0.029469684 0.10332422 -0.05906589
0002b0 3c d0 ea bc 04 33 f5 ba 93 5b ef 3d f9 70 d7 bd
       -0.028663747 -0.001870722 0.11687388 -0.10519595
0002c0 09 99 ae 3d f6 03 86 3d 1d 04 33 3d 34 40 32 3c
       0.08525283 0.06543724 0.043705095 0.010879565
0002d0 43 fc 9b bd d0 95 8d bd bd 63 50 3d 40 81 9b bd
       -0.076164745 -0.0691334 0.050876368 -0.07593012
0002e0 ad 7a c0 3d 5e 5a cc 3d 3a 9f 09 be 0f 20 87 bd
       0.093983985 0.09978174 -0.13439646 -0.065979116
0002f0 38 24 8e bd c9 56 e8 3d 1d f6 b0 3d ed 01 59 bd
       -0.06940502 0.11344678 0.086406924 -0.052980352
000300 0b dd 01 3e 84 9f 18 bd 28 a1 5d bd d6 f8 0c be
       0.12681977 -0.0372615 -0.05410877 -0.13766798
000310 67 98 01 bd d1 17 bd 3d b1 f2 a5 3c ec 4a b4 bd
       -0.031639483 0.09233058 0.020257326 -0.08803353
000320 a0 a1 65 3d 30 e8 04 3c d0 31 33 3d b8 0f 85 3d
       0.05606234 0.008111998 0.043748677 0.06497139
000330 19 06 db 3d 6d ef aa 3d 39 1e 7f bd aa 26 a1 3d
       0.106945224 0.08346448 -0.062284682 0.07868703
000340 e9 83 e5 3d 41 0e d7 bd 4f 7a d5 bd 2b 57 51 bd
       0.112068005 -0.105007656 -0.10423719 -0.05110852
000350 b0 03 f0 bd 13 db d1 bd 87 ed ce bd 4e 8f a4 3d
       -0.11719453 -0.10246863 -0.101038985 0.08035146
000360 ef 3f 00 be f2 ec 0d 3d 39 63 82 3b f4 0a 6d bd
       -0.12524389 0.034649797 0.0039791134 -0.057871774
000370 75 9b 7d 3d b7 6a 5f 3d 4e 8e e7 bc aa 68 c7 3c
       0.061915834 0.05454513 -0.028266098 0.0243419
000380 8a 95 2a 3c 21 43 9c 3d ab a5 a2 bd 9a d5 03 3e
       0.010411629 0.07629991 -0.07941755 0.12874451
000390 e5 46 55 3d e9 85 dc 3d 4a 9f d5 3c 86 e5 42 3d
       0.052069563 0.10767729 0.026076932 0.04758217
0003a0 75 ca 87 3c 12 ff e9 ba 8a b5 e9 3c 87 6a 07 3d
       0.016576031 -0.0017852506 0.028528947 0.033060577
0003b0 ad 02 94 bd 36 a7 af 3d 3e 41 dc 3d eb 80 f4 3d
       -0.07227073 0.08576815 0.107546315 0.11938652
0003c0 21 ce 92 bb dd 73 6e bc 7f 44 c0 bd 99 6c a8 bc
       -0.004480139 -0.014553991 -0.093880646 -0.020559596
0003d0 e9 02 91 bd d7 e0 25 bd 96 7d e8 ba 1f 20 92 bc
       -0.07080633 -0.040497627 -0.0017737623 -0.017837582
0003e0 1c a7 c5 bc c9 53 21 3e e8 74 ed bc c3 ac a4 bb
       -0.024127536 0.15754618 -0.02898641 -0.0050254776
0003f0 d7 ba 54 3d 98 a6 be bd b4 2b 87 3d 7f 71 8e bd
       0.051935997 -0.09309119 0.066001326 -0.069552414

encoder.2.bias f4 [10]
000000 7d 82 05 be 78 00 94 3d 57 e6 d4 bd f4 f8 c2 bd
       -0.13038059 0.07226652 -0.10395496 -0.0952014
000010 d2 90 37 bd 7a 91 cb 3d 27 2a e3 bd 38 a3 c9 bd
       -0.044815846 0.09939857 -0.11092024 -0.09845585
000020 d2 f4 0b be 8a 13 1b 3e
       -0.1366761 0.15144172

decoder.0.weight f4 [53, 10]
000000 ee 62 e4 3d 98 9f 5c bd b7 ff 8c be fe 17 84 3e
       0.11151682 -0.053863138 -0.27538845 0.25799555
000010 5f d2 98 be 01 c9 e5 3c ba 0a a7 bb 66 2d 87 3d
       -0.29848 0.028049948 -0.0050977143 0.06600456
000020 44 68 ed bb d6 8c ae bd 9f db 20 3e a2 1d 75 bd
       -0.0072450954 -0.08522956 0.15708779 -0.059842713
000030 27 45 0c 3e 1c 60 6c be 16 89 0a bd 0a db ae 3c
       0.13698255 -0.23083538 -0.03382214 0.02134468
000040 21 9e 0d bd 2d 6a 7a be 4d 3a 93 3e f3 1f 00 be
       -0.03457463 -0.24454565 0.28755417 -0.12512188
000050 30 a0 5b 3e f9 06 cc 3b a2 7f 98 bd d4 39 44 3d
       0.21447825 0.006226417 -0.07446219 0.04790671
000060 0c fa 83 be 67 85 b9 bd 3d a8 83 be d6 7c 08 3e
       -0.25776708 -0.090586476 -0.25714293 0.13328871
000070 45 86 be bd 80 0d f1 bd a0 3b 48 be c1 31 2c be
       -0.09302954 -0.11770153 -0.19553995 -0.16815855
000080 68 0c ca bd 1b a7 78 be 28 96 b4 3c c8 38 6f bc
       -0.098656476 -0.24282496 0.022044256 -0.01460094
000090 a6 db 81 be 26 b0 a7 bd 47 01 8b 3e 3b dc da bd
       -0.2536289 -0.081878945 0.27149412 -0.10686537
0000a0 ce a8 5d 3e 9a 50 16 3e 82 60 fe bd 48 c1 09 bc
       0.21646425 0.14679185 -0.12420751 -0.008407898
0000b0 82 a5 e8 bb 27 da cb 3d 75 3c e5 bd f4 8c 3b bc
       -0.007099808 0.09953719 -0.11193172 -0.01144718
0000c0 41 f7 49 be 39 55 85 be 46 c8 e1 3d 68 72 0c 3e
       -0.19723226 -0.26041582 0.11024527 0.13715518
0000d0 96 72 df bd 9c a2 1d bd 43 dd eb 3d ea 6a 33 be
       -0.109105274 -0.038485155 0.11516812 -0.17521253
0000e0 a5 b0 8f be 55 35 91 bd cb 94 90 be b2 2f 08 bd
       -0.28064457 -0.070902504 -0.2823852 -0.03324861
0000f0 f1 55 57 3c 83 8f 5f 3e 29 db 65 3e 7d 97 38 3e
       0.013143049 0.21832089 0.22446884 0.18026538
000100 92 7f 58 3e 90 f6 6d be 41 a5 30 3e 40 12 08 bd
       0.21142414 -0.23238587 0.1725054 -0.03322053
000110 fc 0d 17 bd a9 48 85 be 08 9d 08 3d 48 10 96 3e
       -0.03687857 -0.26031998 0.03335288 0.29309297
000120 31 8e 41 3e 65 2c c5 3d e8 95 16 bc 50 81 34 3e
       0.18901898 0.09627608 -0.009191014 0.17627454
000130 14 64 bd bc 0a 4a 6b bc 30 b0 97 bd 32 bf a5 3e
       -0.02311901 -0.014360914 -0.07406652 0.32372433
000140 86 5a b7 38 e2 82 88 be a1 45 9f 3e 2b 24 1d be
       8.742981e-05 -0.26662356 0.3110781 -0.15345828
000150 82 0b c0 bd b3 5b 9d 3d b8 eb 72 be 79 ef af 3c
       -0.09377195 0.07683506 -0.23722732 0.021476494
000160 c2 13 85 be 39 c9 32 be 19 5e 2a 3e df 00 4e be
       -0.25991637 -0.17459573 0.16637458 -0.2011752
000170 09 c9 99 be 96 44 64 3e ab 9a 51 be da c8 02 3d
       -0.3003619 0.22291788 -0.20469157 0.03192983
000180 05 d0 6b 3e d8 9e 7f 3d a6 c6 21 3e 8a 3e 22 be
       0.23028572 0.062407345 0.15798435 -0.1584417
000190 31 50 28 3e 2d fe 4d 3e a2 65 98 3d 13 12 24 be
       0.1643684 0.20116492 0.0744126 -0.1602252
0001a0 0a 40 76 3e 49 eb 99 bd 88 4e a7 be 27 45 15 be
       0.24047866 -0.0751558 -0.32677102 -0.14577161
0001b0 e8 97 3b 3d 0f 1d a8 3d 7e bf e5 bd d7 09 9f 3c
       0.045799166 0.082086675 -0.11218165 0.019413872
0001c0 c9 8d e9 3d d7 0b 1f 3e 0d 4f 77 3e 6f cf db bc
       0.114039965 0.1553186 0.24151249 -0.02683231
0001d0 77 32 9f 3e cc bd dd bc 60 b5 30 bb ab 41 25 bd
       0.3109319 -0.027068041 -0.0026963577 -0.04034583
0001e0 86 1a 35 bd 05 01 42 3e a4 c5 5e be 11 53 f7 bd
       -0.044214748 0.18945701 -0.21755081 -0.120763905
0001f0 4a ed cc bd 8a 2b 70 be 17 a0 0e 3e 28 52 40 be
       -0.10006197 -0.23454109 0.13928257 -0.1878134
000200 f9 2e 01 be cd 84 20 3e 3c a8 79 3e a9 45 3d be
       -0.12615575 0.1567566 0.24380583 -0.18483604
000210 17 d8 2a 3d 30 a1 5f 3e 0e 25 85 be ab 7c 2d 3e
       0.041709986 0.21838832 -0.26004833 0.16942088
000220 f0 9f e5 bd 76 9a e4 bb 9e 24 13 be 80 2c ff 3d
       -0.11212146 -0.006976421 -0.14369437 0.124596596
000230 23 9b 65 3e bb b0 43 3d a0 aa 61 3c 3a e0 03 3c
       0.22422461 0.047775965 0.01377359 0.008049065
000240 f0 2d 78 be 81 c7 61 3d a7 5e 79 bd 01 78 2a bd
       -0.24236274 0.055121902 -0.060881283 -0.04161835
000250 9a ee 12 3e f4 12 59 be 4d ac 80 3e ed 4b 03 bc
       0.14348832 -0.21198636 0.25131455 -0.008013708
000260 1a 1b 45 3e 53 a9 84 3e 60 12 d9 3d d5 2c 9c 3e
       0.1924862 0.25910434 0.10599208 0.30502954
000270 2d 55 69 be d4 b6 d1 3d 86 f3 75 be 16 c4 ee 3d
       -0.22786398 0.1023995 -0.24018678 0.11658494
000280 45 b7 8e be 07 67 85 3e b6 d1 dd 3d 9c ae 36 3e
       -0.278742 0.26055166 0.10831015 0.17840046
000290 07 77 5d 3e a7 52 fe 3c 7a 19 23 be f8 a8 8f 3e
       0.21627437 0.031045271 -0.15927687 0.280586
0002a0 82 51 24 3e e6 3e 84 3d 6a fe 87 3e 75 22 88 bd
       0.16046718 0.064573094 0.2656129 -0.06647197
0002b0 d0 35 93 be 52 b0 02 bd 3a f2 f1 3d a4 cf 1d 3d
       -0.28751993 -0.031906433 0.11813779 0.0385281
0002c0 73 f8 53 3e 15 44 52 be 53 8d 0d be 6b 43 59 bd
       0.20700245 -0.20533784 -0.13823442 -0.05304281
0002d0 4d 3f 79 be 3e 98 ac bd c8 9a 9e bd 40 91 6a bc
       -0.24340554 -0.084274754 -0.07744366 -0.014316857
0002e0 71 b4 51 3e d1 83 19 be b0 e1 3a 3e 37 d6 74 3e
       0.20478989 -0.1499169 0.18250155 0.23909841
0002f0 fc 29 d0 3d c7 cf aa bd 66 af 17 be 3c de 4d 3e
       0.10164258 -0.08340412 -0.14813003 0.20104307
000300 0d 84 96 bd dc a9 74 be 54 e0 76 be ab 04 33 3e
       -0.073494054 -0.23892921 -0.24109012 0.1748225
000310 0b 1b 9c 3e fb 65 1b bd 4b 4b 44 3d 70 80 03 3e
       0.30489382 -0.037939053 0.047923367 0.12841964
000320 20 dd 75 be 19 bb ab 3e 8a b4 22 be 80 39 91 3e
       -0.24010134 0.33541182 -0.15889183 0.28364182
000330 68 8b 45 3e 28 2e ce 3d 9b ce da 3d ff b9 8b 3e
       0.1929146 0.10067397 0.10683938 0.2729034
000340 52 2d b2 3d 20 c1 55 bd 93 01 c7 3d c1 54 1d 3d
       0.087000504 -0.05218613 0.09717097 0.038410906
000350 fc 3b 82 3e 49 35 89 bd b1 69 65 3e 5d b5 3a be
       0.2543639 -0.066996165 0.224036 -0.18233247
000360 62 c6 23 3e bd 79 39 be 3c b2 5b be a7 5e 83 bd
       0.15993646 -0.18112846 -0.2145471 -0.06414538
000370 97 08 10 3d ba b9 0f be 02 76 9f be 40 be 38 3e
       0.035164442 -0.14035693 -0.3114472 0.18041325
000380 b9 10 5d 3e 60 0a 52 3e c1 27 34 3e 39 e4 b6 3d
       0.2158841 0.2051177 0.1759329 0.08930249
000390 bc 4f ec 3d f1 a6 54 be 0c 5a ec 3d 2e 3e 80 be
       0.115386456 -0.20766808 0.115406126 -0.2504744
0003a0 8b 8a f2 3d da 0b 2c 3e 98 54 85 3e 9a 23 e0 3d
       0.11842831 0.16801396 0.26041102 0.109442905
0003b0 c9 74 31 3e df 72 02 be 0c 15 42 39 25 c8 11 bc
       0.17329706 -0.12739132 0.00018509122 -0.008897816
0003c0 5a 20 ab bd 4c 88 7f 3d d7 ec cb bc b5 ea a6 3e
       -0.0835578 0.062385842 -0.024893207 0.32600942
0003d0 c0 64 42 be e0 ed 2d be 8d 93 98 be f0 47 f6 3d
       -0.18983746 -0.16985273 -0.29800072 0.1202544
0003e0 2c c6 54 3e 19 ff 53 3c f3 41 34 be 95 3d 2e 3e
       0.20778722 0.012939238 -0.17603283 0.17015679
0003f0 7c 03 34 be 59 76 fb bd 7e fc 4b 3e 8f a8 58 be
       -0.17579454 -0.122784324 0.19920537 -0.2115805

decoder.0.bias f4 [53]
000000 b5 60 6f 3e f1 3e 4c be 5f 3c 23 be ab e0 5e 3e
       0.23376735 -0.19945885 -0.15940998 0.21765392
000010 c1 16 51 3e c9 84 55 be ed 73 67 be 5a b6 25 3c
       0.20418836 -0.20851435 -0.22602816 0.010114277
000020 fa 66 4b 3d 7a 3d cb bc 58 b8 ad be 3a 2d 67 3e
       0.049658753 -0.024809588 -0.33929706 0.22575846
000030 7b 0e 9e bd 47 d5 80 3e a5 12 3b 3e 8c 17 b0 bd
       -0.07717606 0.25162718 0.18268831 -0.08598241
000040 82 2c 5f bd 42 17 a9 bc 8c 35 78 3e a5 2a 53 be
       -0.054485805 -0.020640973 0.24239177 -0.20621736
000050 ef 80 ab bd cd 97 2c bd 42 8c 21 be b7 e0 89 3e
       -0.083742015 -0.042136956 -0.1577616 0.26929256
000060 17 96 8f 3d be ff 05 be 7d a7 15 be 5e 0e 18 3e
       0.07011049 -0.13085839 -0.14614673 0.1484923
000070 75 f2 9e bd 45 4c 23 3e 25 e4 be 3d 70 a9 20 3e
       -0.07761089 0.15947063 0.09320859 0.15689635
000080 61 4f c8 3c cf 74 b3 bd b9 91 02 3e 30 e2 47 be
       0.024451913 -0.08762514 0.12750901 -0.19519877
000090 54 ad bd bd 45 f6 8c be 72 95 41 be 14 e9 22 3e
       -0.09261575 -0.2753164 -0.18904665 0.15909225
0000a0 ae 45 83 3e 60 38 a7 be 51 ca 71 be 35 86 5e bd
       0.256391 -0.32660198 -0.23612334 -0.05432721
0000b0 21 5b 46 3d 08 28 d1 bc eb 6f 0b 3e f5 02 64 bd
       0.04842675 -0.025531784 0.13616912 -0.055666883
0000c0 99 d4 a7 bd 5a 8f ae 3d a1 97 83 be 47 72 2c be
       -0.08194847 0.08523436 -0.2570162 -0.16840468
0000d0 a0 c4 53 be
       -0.20680475

decoder.2.weight f4 [282, 53]
000000 13 52 1d 3e a6 a6 91 bd 29 49 34 bd fe 60 25 3d
       0.1536334 -0.07111864 -0.044015083 0.040375702
000010 26 ac b5 3d b3 5d 31 3b cc 37 9d bd df 10 f4 bd
       0.08870725 0.0027063906 -0.07676658 -0.119172804
000020 3a 4c 09 3e df 99 6b 3a 77 e9 d6 bd 96 04 b8 bd
       0.13407984 0.0008987467 -0.10493749 -0.0898525
000030 45 a6 d8 bd 3d cb cc 3c 05 07 8d bd a3 0d b5 bd
       -0.105785884 0.024999255 -0.068861045 -0.088404916
000040 0e dd 8a bd bb 6a e8 3d a0 65 91 3d 74 6c e9 bd
       -0.06780444 0.11348482 0.070994616 -0.11397639
000050 5d f9 82 3d 4b 2d 1d 3b d2 f0 e1 3d 30 f6 bb bd
       0.063952185 0.0023983296 0.11032261 -0.09177816
000060 89 98 e2 3d cd ae 72 3d 65 aa 8f bc 56 71 a2 3c
       0.1106425 0.059248734 -0.017537305 0.019829433
000070 0d 2f e1 3c 9e fd 00 3e 92 1c c2 bb fd c2 32 3e
       0.027488256 0.12596747 -0.005923816 0.17457195
000080 04 a0 f1 3d 08 ce 4a bd 79 9d 94 bd 7e f1 79 bc
       0.11798099 -0.049512893 -0.07256598 -0.01525533
000090 5c c6 00 3d db db 0b 3d 55 6c c5 3d 40 58 4c 3d
       0.03143917 0.034145217 0.09639803 0.04988885
0000a0 68 9e 4a 3b 75 74 9e bd 4e 4d 18 3d 0b 58 36 bd
       0.0030917171 -0.07737056 0.0371831 -0.044517558
0000b0 0e 78 3a be b1 70 6d 3d 07 b6 13 bd 5c e3 5f 3d
       -0.1820986 0.0579688 -0.036062267 0.054660186
0000c0 6b 68 33 3e b7 e0 17 3d 37 da c1 3d 5c c7 a9 3c
       0.17520301 0.03707954 0.09465449 0.020724945
0000d0 a7 fb b0 3d b4 ea c9 3d c7 3b 21 3e a9 ac ee b9
       0.08641749 0.09859219 0.1574546 -0.0004552354
0000e0 ad b7 1f 3e ad 58 2c 3e 49 64 0e 3e 10 94 e8 bd
       0.1559741 0.16830702 0.13905443 -0.11356366
0000f0 74 b1 e6 3c 6d fe a7 bd 2c ff a9 3d a0 8d b7 bd
       0.028160788 -0.08202825 0.08300623 -0.0896256
000100 dc 23 1f 3c 14 de 83 3d 76 c9 95 bd f7 72 c3 3d
       0.009713139 0.064388424 -0.07313816 0.09543412
000110 cf c1 b5 bd 24 53 a3 3c 1f fd ad bd c2 06 5c 3d
       -0.08874857 0.019937105 -0.08495545 0.053717382
000120 f6 c7 50 bc 36 b9 25 be 3a e0 e1 bd 34 75 79 bd
       -0.012742987 -0.16183934 -0.11029096 -0.06090279
000130 5c bc 9c 3c 61 5f fd 3d b3 a1 72 3d ee 51 ed 3c
       0.019132785 0.12371708 0.05923624 0.028969731
000140 93 a5 d4 3d 8c eb 05 be 1a 8d 1c 3e 50 e0 2e 3d
       0.10383143 -0.13078135 0.15288201 0.04269439
000150 43 37 9b bb ba 29 f5 bc 02 7f bf 3d 20 6d 0b bd
       -0.0047368123 -0.029927123 0.09350397 -0.034039617
000160 21 86 2b be 5b 53 b3 bd 31 38 9a 3d 5d 97 00 3e
       -0.16750385 -0.08756133 0.07530249 0.1255774
000170 54 ee 5e bd 87 f4 25 be 71 dd ee bd 53 1e 62 3d
       -0.054426506 -0.16206561 -0.1166333 0.0552047
000180 b7 3f 13 bd 7d 57 c4 bd c8 bb 93 3c 31 49 a3 bd
       -0.035949435 -0.095869996 0.018033877 -0.079729445
000190 98 1c a7 3d 0e 06 a6 3c 9a 9c b2 bd 90 d0 83 bc
       0.08159751 0.020266559 -0.08721276 -0.016090661
0001a0 56 ac d6 bc 40 e7 28 3e 2d 39 97 bd 97 cd 85 3d
       -0.026205223 0.16494465 -0.07383952 0.06533354
0001b0 c9 d9 8f bd 27 05 ff 3d 4e f9 5a 3d a0 14 bf bc
       -0.07023961 0.124521546 0.05346041 -0.023325264
0001c0 0b 9e 01 bd 11 66 29 bd c5 a1 9b 3d 69 86 b0 bd
       -0.031644862 -0.041357104 0.075992145 -0.08619387
0001d0 ec f2 88 bd b4 d9 49 bc 2e 48 6d bd 23 7e 21 3e
       -0.06686959 -0.012319971 -0.057930164 0.15770774
0001e0 bb 3d 49 3d e1 fc 04 3e 59 65 04 be a9 4a 8f bd
       0.049131136 0.1298709 -0.12929286 -0.06996662
0001f0 58 e3 08 bd f9 e3 2b ba 04 da 16 bd a2 8f 9f bd
       -0.033419937 -0.0006557103 -0.03682901 -0.07791068
000200 c2 97 e7 3a 6e 99 ab bd fe f0 e9 3c 57 d2 b4 bd
       0.0017669129 -0.08378874 0.028557297 -0.08829182
000210 98 73 03 3d 94 45 5a bd ec d6 96 3d 21 3c 2c 3e
       0.03209266 -0.05328901 0.07365212 0.16819812
000220 fc b6 fc 3d 31 65 be bd 20 b9 e1 bb f5 ad d8 3d
       0.12339589 -0.092966445 -0.0068885237 0.10580055
000230 49 af 99 bd 8b 2c ae 3d 56 2e 82 3d 4d 9f e6 bc
       -0.07504136 0.0850459 0.06356494 -0.028152132
000240 8c c4 e8 3d ff 41 97 bb 49 77 13 3d ae 87 a5 bd
       0.11365613 -0.0046160216 0.03600243 -0.080825195
000250 0f 1e 93 bd a8 2e f7 3d 2f f9 06 be 09 34 4d 3c
       -0.071834676 0.12069446 -0.13180993 0.012524613
000260 1e de db bc 9e f1 4c bd 2b 71 71 bb ba 65 fd bc
       -0.026839312 -0.05003511 -0.0036841135 -0.030932296
000270 ec 05 4e bd 1e f8 fd 3d bd df 05 3e 0a 31 cb 3d
       -0.050298616 0.1240084 0.1307363 0.09921463
000280 8b 41 e0 3c 01 03 d6 bd 94 fe ca 3d 93 0b ca bd
       0.027375003 -0.10449792 0.09911838 -0.09865489
000290 5f 92 2c bc 30 51 30 bd c1 3e 1d be 04 54 b2 3d
       -0.010532944 -0.043046176 -0.1535597 0.08707431
0002a0 60 93 b5 bc b4 a0 02 be e9 1d 04 bd 2b b2 04 be
       -0.022165 -0.12756616 -0.032255087 -0.1295859
0002b0 d6 34 c6 3c 1a 41 3e bc a8 d9 16 3e e6 7d 11 be
       0.024195116 -0.011612201 0.14731467 -0.14208183
0002c0 23 68 22 3d b0 38 be bc fd 10 d6 3c 28 a4 2a 3d
       0.039650094 -0.02322039 0.026131148 0.041660458
0002d0 59 f2 a0 3d 54 87 03 3e 4d c6 91 bd 86 23 a1 bc
       0.07858724 0.12844592 -0.07117901 -0.01967026
0002e0 a2 d9 cb 3d 3a f4 f5 bd b2 1a 58 3c a7 30 8d bd
       0.099536195 -0.12009473 0.013189958 -0.06894045
0002f0 ca fe 64 bc ac 46 6c bd 5b b0 1a 3e 7b c9 8d bd
       -0.013976762 -0.057684585 0.15106337 -0.06923195
000300 6b cb 37 bd 3c 0b 90 3d ae 25 03 3d 55 ce 04 3e
       -0.04487173 0.07033393 0.032018356 0.12969334
000310 4c 77 cf bc 9f ce 45 3d ea 34 07 3e 3d 32 be 3d
       -0.02532544 0.048292752 0.13203779 0.09286926
000320 5e 2e 0b be ea 32 0b be 9b 4f 63 bd 43 89 82 3d
       -0.13591906 -0.13593641 -0.05549584 0.06373837
000330 92 19 85 bb 2d 63 5a bd 14 78 1d bd ad 9a 0d 3e
       -0.004061886 -0.053317238 -0.038444594 0.13828535
000340 59 f9 02 be fc 60 14 3e 5c 34 ec 3d 0e 81 ab 3d
       -0.12790431 0.14490122 0.11533424 0.083742246
000350 cf 07 da bd 78 e4 b3 bd 67 20 b5 3d 65 d5 e6 3d
       -0.106460206 -0.08783811 0.08844071 0.112711705
000360 f7 20 59 3d fc 46 9e 3d 35 4b a2 bc f9 f8 b6 3c
       0.053009953 0.07728383 -0.019811252 0.022335516
000370 79 84 fe 3b 99 31 e9 3d 10 64 d2 3c 2a bc ea bd
       0.007767257 0.11386413 0.02568248 -0.11461671
000380 03 03 58 bd f3 66 16 3e 67 bf b6 3d c0 67 89 bd
       -0.052737247 0.1468771 0.08923226 -0.06709242
000390 d5 31 5f bd bd d4 94 bd df ce d7 3d 16 92 1f 3d
       -0.054490883 -0.07267139 0.105375044 0.038957678
0003a0 40 fd ed 3c 02 8c 29 3d 0f 80 09 3d 69 c0 a5 bc
       0.029051423 0.041393287 0.03356939 -0.02023335
0003b0 03 be 4e 3d 86 64 ce bc ef 62 38 bc 02 02 f4 3c
       0.050474178 -0.025194418 -0.011254056 0.029786114
0003c0 cc b6 18 bd a1 c0 e3 bd 4b 82 d9 3d 47 b6 c8 bd
       -0.037283704 -0.111207254 0.106205545 -0.09800392
0003d0 10 32 f7 3c 78 b0 c8 bc fe 46 c2 bd 94 55 3b 3c
       0.030175239 -0.02449821 -0.09486197 0.011433978
0003e0 d6 ff 03 3e cc 76 7a 3d d6 21 c3 bd 4e d0 87 bb
       0.12890562 0.06114845 -0.09527938 -0.004144705
0003f0 d2 46 91 bd 80 14 ae 3c 75 02 dd 3d fa dc ac 3d
       -0.07093586 0.02125001 0.10791484 0.084405854

decoder.2.bias f4 [282]
000000 ad e8 81 bd 9f dc 13 bd dc 29 b6 bd ae 48 98 3b
       -0.063432075 -0.036099073 -0.08894703 0.004647336
000010 07 38 46 bd 4b 99 8f 3d e1 42 18 3d b6 67 be bb
       -0.048393276 0.0701166 0.037173156 -0.005810703
000020 ff e2 7d bd fd 87 7c 3c 9f 15 60 bd 62 0a ae bd
       -0.06198406 0.0154132815 -0.05470812 -0.08498074
000030 bc f4 6f 3d 02 81 7a 3d d9 55 33 3d 21 f9 ee bd
       0.058583006 0.061158188 0.043783043 -0.11668611
000040 d8 45 04 3e 66 e0 29 3d 03 b7 ca ba 4a bd 9a 3d
       0.12917268 0.04147377 -0.0015465919 0.07555635
000050 a2 df cf bd f2 00 e2 3d a6 34 23 3e 96 bf 86 bd
       -0.101500764 0.110353366 0.15938053 -0.06579511
000060 aa 46 bf 3d 74 fe d9 3c f7 d4 79 bd cb 6d 4e bd
       0.0933965 0.02661059 -0.060994115 -0.050397675
000070 ea 8c 75 bd 4f 39 e9 bc 37 5c d1 bd 70 d6 99 bd
       -0.05994884 -0.02846971 -0.10222667 -0.07511604
000080 fc 44 1b bd eb 09 76 bc f9 d3 a9 bd 8c d0 ee 3c
       -0.037907586 -0.015017013 -0.08292384 0.029152177
000090 0c d3 9e bd 7d 4c 91 3d 6e 29 09 3e 48 1c 00 3e
       -0.07755098 0.07094667 0.1339471 0.12510788
0000a0 c8 d5 b4 bd 09 bc bd bd aa 5a 51 3d 71 11 08 bd
       -0.08829838 -0.092643805 0.051111855 -0.03321976
0000b0 da 87 ff 3b cd 9d e7 3c 24 59 bc bd 9d a1 7a bd
       0.007798177 0.028273487 -0.0919669 -0.061189283
0000c0 9b ab 30 bc 72 60 c2 bd 67 d3 37 3d 7b 30 c9 bd
       -0.010783101 -0.09491052 0.044879343 -0.098237
0000d0 a3 f1 47 3d 30 14 73 bc 71 6e 10 bd bd a8 5f bd
       0.048814427 -0.014836356 -0.035261575 -0.05460428
0000e0 54 30 a5 3b 6d 97 c6 bd 33 c0 cd bc 6a 38 01 be
       0.0050411616 -0.09696851 -0.025116062 -0.12619177
0000f0 7a 38 11 3e ec a5 03 bd b9 c6 e6 3c 42 73 86 3d
       0.141817 -0.032140657 0.02817093 0.065649524
000100 bd 81 3d 3d 2e 98 98 bc a9 06 15 3b 77 76 c1 bc
       0.046266306 -0.018627252 0.0022739565 -0.023616059
000110 20 45 9c bd 59 42 87 3d 76 46 8b bd c9 61 75 bd
       -0.07630372 0.06604452 -0.06800549 -0.05990771
000120 b8 e8 c5 bd a9 89 85 bd fe 49 22 bd 18 0d d1 bb
       -0.09663528 -0.06520397 -0.039621346 -0.0063797347
000130 cb 82 fe 3c ac 34 7e b9 6b 31 b9 bd 35 bd b1 3d
       0.031068226 -0.0002424295 -0.09042629 0.086786665
000140 62 95 bf bd 29 6d e5 bc 12 b6 9f 3d a8 0d a4 3c
       -0.093546644 -0.028006153 0.07798399 0.020026043
000150 0e 35 79 3d 4c 09 da 3d 4f 98 96 bd 2a 82 e7 bc
       0.060841613 0.106463045 -0.07353269 -0.02826031
000160 54 ba ad 3d 7b 75 95 bd f2 be b3 3d 60 73 52 bd
       0.08482805 -0.07297798 0.08776654 -0.05137956
000170 2b ef c9 3b db b8 0d bc 0c 5d a2 3d 8f f3 be bd
       0.0061625442 -0.00865003 0.079279035 -0.09323799
000180 a3 7b 17 be 1c 43 05 bd ab 9d 4b bd af 5a 1d 3d
       -0.14793257 -0.032534704 -0.04971091 0.03841656
000190 e2 b2 76 3c df c0 02 3e 1b 3c 10 3e 60 db 7f bd
       0.015057297 0.12768887 0.14085428 -0.06246507
0001a0 02 14 13 be 5e 55 0c 3e 2c 73 a7 3b 18 c9 2d 3d
       -0.14363101 0.1370444 0.005110165 0.042428106
0001b0 c0 ff 05 bd d2 6d 8a bc 99 06 8c bd 93 99 1a be
       -0.032714605 -0.01689807 -0.06837196 -0.15097646
0001c0 b6 d3 48 bc 8a 48 1f 3e 89 6f 8a 3c e1 c3 cf 3d
       -0.012257507 0.15555015 0.016898887 0.10144783
0001d0 ec 6a fa bd 8a 07 e4 bc d5 d9 9f bd a5 f8 8d bd
       -0.12227425 -0.027835626 -0.0780522 -0.06932191
0001e0 dc 6a 95 bc d3 7f 80 bd 7b 3f d8 3d be 8f 38 3d
       -0.018239431 -0.062743805 0.10558983 0.04505896
0001f0 42 10 00 3e 9b 5b 1d 3c 81 e3 40 bc 01 8f cd bd
       0.12506202 0.00960436 -0.011772991 -0.100370415
000200 7e f4 a8 3d de 8d bb 3d 04 27 a1 3d b8 6c 32 3c
       0.08249758 0.091579184 0.0786877 0.010890178
000210 34 15 e5 3d 80 b9 49 3d 1b 28 26 3d b2 09 f0 bd
       0.11185685 0.049249172 0.04056559 -0.11720599
000220 66 5d aa 3d ee b9 de 3d 66 a8 ba bd 25 25 02 bd
       0.083185956 0.10875307 -0.09114151 -0.031773705
000230 ca cf 9b bd ab a1 9f 3d c9 cf 13 bd 3e 46 06 3d
       -0.07607992 0.077945076 -0.03608683 0.032781832
000240 fa 60 ef 3d 92 18 cd bb c0 bf 8f bc ad 8c 93 3d
       0.11688419 -0.0062590325 -0.017547488 0.07204566
000250 f3 2e 53 bd ce 4d a7 3d c3 a6 cf 3d d4 00 0f 3d
       -0.051558446 0.08169137 0.10139229 0.0349129
000260 5e 86 b7 bd 14 35 8c bd 56 89 f7 bd 55 b3 5c 3d
       -0.089611754 -0.06846061 -0.120867416 0.05388196
000270 9d 67 ed 3d d0 5f b2 bd cc d2 3b 3d a0 7f d6 bc
       0.11592028 -0.08709681 0.04585533 -0.026183903
000280 00 ab 8b 3d 22 61 0f bd c6 3e e8 bd 4b c8 d5 bb
       0.06819725 -0.035004742 -0.11340098 -0.006524121
000290 eb 4e 22 be 48 82 14 3e 9f c6 c4 bc 0a 8c 88 bd
       -0.15850417 0.14502823 -0.024020491 -0.06667335
0002a0 5e d4 2c bd db 6d 6c bd b5 23 93 bc 90 0d f5 3d
       -0.042194717 -0.057721954 -0.017961362 0.119654775
0002b0 11 b7 2c 3d b9 74 82 bd f9 26 e4 bc bc 7b 0b 3e
       0.042166773 -0.06369919 -0.027850615 0.1362142
0002c0 7d d4 09 3e 4d dd c8 3d 8f 12 cb 3d de a4 f0 3d
       0.13459964 0.09807835 0.09915649 0.11750196
0002d0 4a f4 12 3d 7a 0f 91 3c aa 8c 5b 3d 1d 55 12 3c
       0.035877503 0.017707575 0.053600945 0.008931425
0002e0 5a 28 ff 3d d6 89 49 bc 55 20 9c 3d 97 b7 55 bc
       0.12458868 -0.012300929 0.07623354 -0.0130442595
0002f0 82 0e d7 bc b4 46 a0 3c 4d 5a d3 bd 9e 1a 8e bd
       -0.026252035 0.019564964 -0.10319958 -0.069386706
000300 06 96 81 3d f2 9f 77 3d 19 2e f5 3a 3e be b9 bc
       0.06327443 0.06045527 0.0018705755 -0.022673722
000310 49 f5 8a 3d b8 cc 6b bd 97 9d cf bc db a3 0a 3e
       0.06785066 -0.057568282 -0.0253437 0.13539068
000320 e7 67 c8 bd 65 d7 85 bd 63 3d 22 be 85 df c1 3b
       -0.09785443 -0.06535224 -0.1584373 0.005916538
000330 78 5c 48 3d 6c d8 9f 3d d8 12 90 3d 9f 01 26 3d
       0.04891631 0.07804951 0.07034844 0.04052889
000340 f1 d3 0f 3d 91 f3 7f 3d 48 f8 98 bd 60 f2 9c bd
       0.035114232 0.062488142 -0.07469231 -0.07663417
000350 82 52 63 3d eb 4d 21 3d 2f 62 09 be 1f ee a6 3d
       0.055498607 0.03938095 -0.1341636 0.08150887
000360 d0 9d 60 3d 3b ec 26 3d 57 12 c9 3b 6d 61 cf 3c
       0.054838 0.04075263 0.0061362195 0.02531501
000370 c4 f8 37 3d 46 7d e8 3d d0 35 75 bd 64 0e 06 39
       0.044914976 0.11352019 -0.059865773 0.00012784597
000380 f3 99 4a 3d f4 a0 d6 3c aa 6f b8 bd 9c d6 36 3d
       0.049463224 0.026199795 -0.09005673 0.04463826
000390 1a d1 37 3d 95 ad 65 3d 61 19 ce 3c f4 7e 86 bd
       0.04487715 0.056073744 0.025158586 -0.06567183
0003a0 74 17 6f bd a5 23 5c bb 0b 48 8b bc d3 d2 02 be
       -0.058371976 -0.0033590582 -0.017002126 -0.12775736
0003b0 f9 b8 a4 bc a3 7b 35 3d 86 a9 21 3d 96 63 c9 3d
       -0.020107733 0.044307362 0.03946831 0.09833448
0003c0 46 10 bf 3d da 89 e4 3d 9b c0 0c 3e 81 86 08 bd
       0.09329276 0.111591056 0.13745348 -0.033331398
0003d0 63 af 9c 3d 6d c5 9c 3d 10 15 34 3d 1f 38 51 bd
       0.0765064 0.076548435 0.0439654 -0.051078912
0003e0 30 4c a4 3c d3 63 83 bd 4e 31 c2 bd 35 2b ca bd
       0.02005586 -0.06415524 -0.094820604 -0.09871522
0003f0 01 b9 9b bd 2d 79 82 bd 03 f0 cb bd e8 1b ed bd
       -0.07603646 -0.06370769 -0.09957888 -0.11577588
